runs/run10/models/model1601.pth (torch, 10959 bytes, 4 tensors)

Linear1.weight f4 [256, 5]
-0.113804035 0.37500703 0.13322212 0.066961855 0.026347743 0.45830265 1.1175263 -1.7802231
0.16616175 -0.092413306 -0.19955346 -0.5983497 -0.2839973 -0.0073748115 0.014160826 -0.5959675
-0.33020464 0.012971463 -0.4217009 -0.56331295 -0.5459411 -0.7881331 0.8940008 0.25392014
-0.33962643 -0.21043383 -0.12214537 -0.0037318526 0.09534629 0.040247336 0.8893065 1.0216389
-1.5145049 0.105252 0.031964578 -0.45680252 0.06224402 -0.36376986 -0.48618928 0.19305056
-0.30176374 0.04529864 0.17200087 0.035495136 -0.39897123 -0.22579095 0.1612348 0.267575
-0.46905524 -0.066411816 0.1698808 0.49622965 0.39219543 0.25583613 -0.11298834 0.616169
0.5621163 0.1207527 0.20971702 0.6018696 -0.3092715 -0.57625043 -0.23822054 -0.20905776
0.07748571 -0.13454843 0.13259888 -0.10490841 0.1985147 -0.2656768 0.23852855 1.1866819
-1.9429587 -0.09567873 0.05249181 -0.075143866 0.17242852 0.20111886 -0.12236562 0.027775535
0.7185748 0.3530327 -0.14134152 -0.09036574 0.6347719 -0.55869883 -0.4207514 0.15086618
-0.15294446 -0.39411658 0.18316868 0.019705905 -0.124979615 -0.39822057 -0.08483421 -0.085749984
-0.3817372 -0.2730698 0.0023018122 -0.100554615 0.5215453 0.477595 0.3602704 0.02815686
0.67712724 0.2123885 -0.07656886 -0.49034852 0.24729589 0.26635 0.6429278 0.6883571
0.67416036 0.37656072 0.60490423 0.16359854 -0.30445564 -0.5513217 -0.605963 0.16124707
0.616703 -0.050766002 0.14596246 0.26151818 0.33850703 -0.23927076 0.03526896 -0.0834564
0.3470362 -0.028251365 0.0022055602 -0.13732243 -0.11362343 -0.5277593 -0.43425465 0.3673849
-0.2999898 -0.12048346 -0.21691571 -0.2550538 0.39351928 0.14051831 -0.08676413 -0.16198888
-0.33253524 -0.020450056 0.35100448 0.2510007 0.062322676 0.0056809783 -0.23269117 -0.27210325
-0.16785395 -0.4128016 -0.046821594 -0.28118962 -0.21062516 -0.439321 -0.40029678 -0.2643054
-0.31217313 -0.31567025 -0.08989748 -0.14862782 0.28441918 0.4080996 0.35103783 0.39757317
-0.5102387 0.31614086 -0.033444837 -0.49980116 -0.42454597 0.16736859 0.32988027 -0.47149602
0.14925401 0.24026261 0.19966005 -0.08435251 0.5817273 0.19393541 0.00065309694 -0.06719171
0.73954606 0.40011758 -0.086642265 -0.1904183 0.05402769 0.47958338 0.354601 0.30798903
0.3592774 -0.05362187 0.9996685 -0.023046121 -0.0107401 0.107736744 0.08057044 0.00371208
-0.0998504 -0.12847227 0.22484529 0.043387514 0.044690203 0.7496547 0.36832556 0.4987255
-0.012660895 0.038448323 -0.084112875 0.3362448 -0.3665187 -0.34040385 -0.07714898 0.14414011
-0.2854575 -0.5269717 -0.3100669 0.06814753 0.17352861 0.12975103 -0.4468888 -0.44308308
-0.37506437 0.16115952 -0.054251242 -0.035442613 0.26506898 -0.2432662 -0.08636368 -0.24589221
0.2857712 0.23963945 -0.0019368194 -0.31118152 -0.60292333 -0.22889112 -0.42592162 0.08598986
-0.19147688 -0.33110398 -0.30540943 -0.091918975 -0.109250754 -0.14700085 -0.2181992 -0.08715469
-0.21985768 0.031472117 -0.23903711 0.041536525 -0.024246622 0.3000686 -0.20535839 -0.09759286
00000000: 1712 e9bd ec00 c03e 616b 083e 4c23 893d
00000010: 39d7 d73c a5a6 ea3e 1a0b 8f3f 5ade e3bf
00000020: 4e26 2a3e 3043 bdbd be57 4cbe 722d 19bf
00000030: 1868 91be 67a8 f1bb cf02 683c 5391 18bf
00000040: 9510 a9be 4286 543c 2ee9 d7be 4735 10bf
00000050: ccc2 0bbf 17c3 49bf 3ddd 643f d201 823e
00000060: 84e3 adbe f77b 57be 5a27 fabd 1992 74bb
00000070: ea44 c33d 64da 243d 97a9 633f 10c5 823f
00000080: 4cdb c1bf 5c8e d73d 4aed 023d 05e2 e9be
00000090: 96f3 7e3d 0b40 babe cded f8be 0caf 453e
000000a0: c780 9abe 118b 393d ff20 303e 5963 113d
000000b0: f545 ccbe be35 67be bc1a 253e 97ff 883e
000000c0: 0228 f0be eb02 88bd 3cf5 2d3e d011 fe3e
000000d0: d7cd c83e f4fc 823e 6e66 e7bd 40bd 1d3f
000000e0: dbe6 0f3f 314d f73d 0fc0 563e 2014 1a3f
000000f0: d658 9ebe 2685 13bf 16f0 73be 3d13 56be
00000100: d4b0 9e3d 10c7 09be 00c8 073e 38da d6bd
00000110: 7047 4b3e ca06 88be d440 743e 31e5 973f
00000120: dfb2 f8bf 36f3 c3bd a701 573d 07e5 99bd
00000130: 1a91 303e 1af2 4d3e d49a fabd 8589 e33c
00000140: 85f4 373f b4c0 b43e d5bb 10be ac11 b9bd
00000150: 6980 223f e306 0fbf ba6c d7be aa7c 1a3e
00000160: 799d 1cbe a6c9 c9be 9290 3b3e 476e a13c
00000170: 50f5 ffbd 91e3 cbbe 8fbd adbd b09d afbd
00000180: 0f73 c3be cecf 8bbe 00da 163b 94ef cdbd
00000190: fe83 053f 5587 f43e 5d75 b83e 37a9 e63c
000001a0: 3658 2d3f 5f7c 593e 22d0 9cbd f60e fbbe
000001b0: 223b 7d3e 075f 883e eb96 243f 2c38 303f
000001c0: c695 2c3f 91cc c03e 01db 1a3f 6086 273e
000001d0: 9ce1 9bbe 6b23 0dbf 6420 1bbf f41d 253e
000001e0: 3fe0 1d3f 03f0 4fbd 2f77 153e b6e5 853e
000001f0: cb50 ad3e 6503 75be 2f76 103d 30eb aabd
00000200: bbae b13e 686f e7bc 298b 103b 409e 0cbe
00000210: 67b3 e8bd 3c1b 07bf a056 debe e019 bc3e
00000220: 4398 99be 08c0 f6bd 271f 5ebe 6996 82be
00000230: 5c7b c93e 08e4 0f3e 64b1 b1bd 6ae0 25be
00000240: 0f42 aabe e086 a7bc dcb6 b33e 2a83 803e
00000250: 1046 7f3d 8027 ba3b 9846 6ebe 1e51 8bbe
00000260: e8e1 2bbe bb5a d3be 00c8 3fbd 16f8 8fbe
00000270: 1fae 57be afee e0be b3f3 ccbe 0a53 87be
00000280: 28d5 9fbe 889f a1be 2c1c b8bd e431 18be
00000290: 649f 913e 6ef2 d03e 3bbb b33e b68e cb3e
000002a0: 019f 02bf 37dd a13e 74fd 08bd f0e5 ffbe
000002b0: 175e d9be ac62 2b3e 11e6 a83e ed67 f1be
000002c0: 0bd6 183e 6707 763e af73 4c3e 02c1 acbd
000002d0: 15ec 143f 0197 463e 9834 2b3a cf9b 89bd
000002e0: e452 3d3f 36dc cc3e 8071 b1bd 04fd 42be
000002f0: 244c 5d3d f48b f53e 438e b53e bdb0 9d3e
00000300: 35f3 b73e 9ba2 5bbd 46ea 7f3f 38cb bcbc
00000310: 3ff7 2fbc 15a5 dc3d 1d02 a53d 5e46 733b
00000320: 5e7e ccbd 3c8e 03be d83d 663e 1bb7 313d
00000330: 130d 373d 5fe9 3f3f 2b95 bc3e f358 ff3e
00000340: a46f 4fbc fd7b 1d3d 5f43 acbd 4728 ac3e
00000350: 57a8 bbbe 6a49 aebe 4900 9ebd 7799 133e
00000360: 7c27 92be 9ee7 06bf 17c1 9ebe ef90 8b3d
00000370: 7cb1 313e 74dd 043e 9cce e4be c9db e2be
00000380: 7008 c0be 0007 253e 8d36 5ebd 462c 11bd
00000390: 1fb7 873e c61a 79be 71df b0bd 2bcb 7bbe
000003a0: 9a50 923e 0b64 753e e0dc fdba 2f53 9fbe
000003b0: 2f59 1abf 6f62 6abe 6612 dabe 741b b03d
000003c0: 8412 44be 7686 a9be a05e 9cbe 0440 bcbd
000003d0: dcbe dfbd 6487 16be 9c6f 5fbe 287e b2bd
000003e0: 5f22 61be e8e8 003d 25c6 74be 3422 2a3d
000003f0: daa0 c6bc 97a2 993e 7849 52be c4de c7bd

Linear1.bias f4 [256]
0.25017673 0.009211682 0.13499191 0.018607488 0.13095309 -0.06761982 -0.07148263 -0.013868754
-0.0802291 -0.15298967 0.2352092 -0.06282677 0.15551355 -0.32199848 0.23461145 -0.1933422
0.34390515 -0.1691173 -0.41512042 -0.23833595 0.28225887 -0.44062635 0.21466932 -0.23418672
0.6000676 -0.3393228 0.28240684 -0.25285298 -0.31096914 -0.43294528 -0.3681441 -0.14938363
-0.38468528 0.28119954 -0.2042309 0.38132724 0.69566876 0.32583004 0.67638755 -0.20296173
-0.24198033 0.5284114 -0.2834832 -0.14507371 -0.3822271 -0.017845586 -0.45341408 0.2562416
-0.41540802 -0.023104846 -0.20707387 -0.07047127 -0.048318624 -0.096936285 -0.29417968 -0.27550757
-0.0027548103 -0.17895646 -0.4847571 0.12872554 -0.19102544 0.5691585 0.43217197 0.23162676
-0.44586012 -0.5137725 -0.31225604 -0.23202498 -0.115846366 0.83454216 -0.3183579 -0.053767152
-0.11816716 0.3899322 -0.24723162 -0.19505076 0.65646094 -0.13627592 0.25901946 0.2583717
-0.10143865 -0.30795854 -0.030440755 0.118478596 0.0010489523 0.40086913 -0.112017065 -0.2917098
0.1576379 0.09618846 0.50726926 0.25463536 0.17826672 -0.19913885 -0.06871975 -0.0063961507
-0.5312234 -0.44073558 0.023409382 -0.15483686 0.011555046 0.014519304 0.8074722 -0.3136456
-0.11631605 -0.16587082 -0.430979 -0.19483018 0.29134533 -0.44116363 -0.009480059 0.5796584
0.18937567 0.4668762 0.2832194 -0.37704635 0.12415929 0.48288256 -0.41032726 0.43184704
-0.34108257 0.0036250306 -0.41523096 -0.21829543 -0.07861908 -0.041902244 -0.22842242 0.4232749
0.70242906 -0.31663755 0.34524995 0.75506645 0.064677864 0.20220749 -0.043468937 -0.15079819
0.034441378 -0.44259533 0.4144361 0.6381244 -0.33274135 -0.2678026 -0.28252056 -0.107385725
0.104497164 0.21463618 -0.24934241 -0.23796883 0.53109527 0.3141901 0.03369731 -0.12870806
-0.35257852 -0.30547807 -0.07394451 -0.34753808 -0.42073053 0.16778305 -0.3420186 -0.21246316
0.024886476 0.09162692 0.16221263 0.20413701 -0.34494463 0.7967264 -0.28478974 -0.29961812
-0.012298903 -0.11239456 -0.28439116 0.03126403 -0.34810635 -0.24145241 0.28952986 0.08002615
0.52941465 0.0828508 0.01893067 -0.38960043 -0.2042172 0.5679812 -0.3439069 0.8624921
-0.16462353 -0.31500593 0.5444551 0.42260346 -0.23567125 -0.39009985 -0.34095597 -0.36778852
0.08540231 -0.4035382 0.6146388 0.778325 0.36124167 0.002008468 -0.4956274 -0.3333628
0.23337023 -0.23313089 -0.44454932 0.38559428 -0.29738402 -0.002168374 0.005894998 -0.24875866
-0.1568737 0.24414632 -0.1812151 -0.37277424 0.057768703 0.43851727 0.36456117 0.6956836
-0.118332386 0.37939224 0.73099965 0.5111562 -0.04506581 0.46302122 0.47091013 -0.30400097
-0.044069853 -0.23645961 -0.014496852 0.5120138 0.2566749 -0.1795795 0.16013134 -0.19590577
0.6728047 0.47856003 -0.18883005 -0.6230576 0.52038336 0.058936838 -0.04483973 -0.046117544
0.3202408 0.003695184 0.9627929 -0.39849547 0.17874634 -0.09059331 -0.35153502 0.005942684
0.25984764 -0.17021486 0.18307476 -0.036355533 0.53962845 0.35446873 0.18387683 0.06154924
00000000: 2a17 803e 98ec 163c 523b 0a3e bb6e 983c
00000010: 9118 063e 437c 8abd 7c65 92bd c539 63bc
00000020: 284f a4bd 53a9 1cbe aeda 703e 52ab 80bd
00000030: f23e 1f3e fcdc a4be fc3d 703e 7ffb 45be
00000040: 5614 b03e 162d 2dbe aa8a d4be 570e 74be
00000050: 3c84 903e c799 e1be 46d2 5b3e a5ce 6fbe
00000060: 089e 193f b8bb adbe a197 903e f275 81be
00000070: 5937 9fbe 01ab ddbe 627d bcbe 06f8 18be
00000080: 78f5 c4be 63f9 8f3e e821 51be 533d c33e
00000090: 5917 323f 32d3 a63e bc27 2d3f 33d5 4fbe
000000a0: b1c9 77be f845 073f b624 91be 348e 14be
000000b0: 45b3 c3be e830 92bc e425 e8be 1932 833e
000000c0: 5cb0 d4be 6046 bdbc 2c0b 54be 3e53 90bd
000000d0: c0e9 45bd 8886 c6bd b89e 96be 540f 8dbe
000000e0: 0c8a 34bb 5d40 37be 1532 f8be a1d0 033e
000000f0: 2c9c 43be 5fb4 113f a545 dd3e 912f 6d3e
00000100: c747 e4be 9886 03bf 06e0 9fbe f597 6dbe
00000110: dc40 edbd 8ea4 553f cfff a2be f23a 5cbd
00000120: a001 f2bd 31a5 c73e 492a 7dbe 63bb 47be
00000130: d30d 283f ea8b 0bbe 339e 843e 4c49 843e
00000140: 11bf cfbd beac 9dbe e45e f9bc e8a4 f23d
00000150: 007d 893a b83e cd3e 3469 e5bd fd5a 95be
00000160: d46b 213e 75fe c43d 66dc 013f 915f 823e
00000170: 8d8b 363e 0eeb 4bbe f1bc 8cbd cd96 d1bb
00000180: 42fe 07bf 18a8 e1be 08c5 bf3c 8e8d 1ebe
00000190: 6051 3d3c 60e2 6d3c 80b6 4e3f 2896 a0be
000001a0: 1c37 eebd 0ada 29be 48a9 dcbe 9081 47be
000001b0: 372b 953e 33e0 e1be 4052 1bbc 7e64 143f
000001c0: b2eb 413e 660a ef3e 2202 913e 380c c1be
000001d0: 3a47 fe3d 623c f73e 6a16 d2be 0e1b dd3e
000001e0: 60a2 aebe ec91 6d3b 2799 d4be d688 5fbe
000001f0: 0a03 a1bd b0a1 2bbd 91e7 69be 7db7 d83e
00000200: 64d2 333f 511e a2be 9ac4 b03e 094c 413f
00000210: d475 843d 7b0f 4f3e 7c0c 32bd d76a 1abe
00000220: 6712 0d3d db9b e2be f830 d43e 1f5c 233f
00000230: 135d aabe 6c1d 89be 89a6 90be 0ced dbbd
00000240: 9c02 d63d 96c9 5b3e 9e53 7fbe 1aae 73be
00000250: dcf5 073f 86dd a03e 3106 0a3d 0ccc 03be
00000260: 2c85 b4be 9f67 9cbe 3870 97bd 83f0 b1be
00000270: fe69 d7be 52cf 2b3e 101d afbe f18f 59be
00000280: b9de cb3c e5a6 bb3d 111b 263e 4b09 513e
00000290: 959c b0be 43f6 4b3f f6cf 91be 8c67 99be
000002a0: 5781 49bc 1e2f e6bd b89b 91be b60e 003d
000002b0: ff3a b2be 4d3f 77be 423d 943e c0e4 a33d
000002c0: b887 073f aead a93d 7e14 9b3c b579 c7be
000002d0: 501e 51be 3767 113f 9114 b0be 48cc 5c3f
000002e0: 1293 28be 7548 a1be 6961 0b3f 7b5f d83e
000002f0: ce53 71be 2bbb c7be c891 aebe c74e bcbe
00000300: 68e7 ae3d 8f9c cebe f858 1d3f 4f40 473f
00000310: abf4 b83e 80a0 033b e0c2 fdbe 87ae aabe
00000320: 9bf8 6e3e ddb9 6ebe f89b e3be 9d6c c53e
00000330: b842 98be 471b 0ebb d42a c13b 97ba 7ebe
00000340: 80a3 20be 7e01 7a3e 7490 39be 44dc bebe
00000350: e09e 6c3d 5685 e03e c3a7 ba3e 5218 323f
00000360: 4058 f2bd b33f c23e cb22 3b3f 22db 023f
00000370: ed96 38bd 1e11 ed3e 221b f13e 04a6 9bbe
00000380: 9782 34bd 7822 72be 3484 6dbc 5613 033f
00000390: e46a 833e b0e3 37be 78f9 233e 869b 48be
000003a0: ee3c 2c3f d205 f53e aa5c 41be b480 1fbf
000003b0: d837 053f c167 713d dda9 37bd c0e5 3cbd
000003c0: 9af6 a33e e62a 723b 9879 763f 9907 ccbe
000003d0: 4809 373e fc88 b9bd 66fc b3be d9ba c23b
000003e0: c00a 853e ce4c 2ebe f377 3b3e 8ae9 14bd
000003f0: 1725 0a3f ed7c b53e 354a 3c3e 0e1b 7c3d

Linear2.weight f4 [3, 256]
0.23121363 -0.8022661 0.020487368 -0.08493688 -0.62958163 -0.013049191 -0.6814841 -0.062932484
-0.06342065 -0.049731657 0.26847792 0.3472969 0.0054594544 -0.052182645 -0.89976877 0.030868206
0.3609358 -0.02674219 -0.13346806 0.03875836 0.35468915 -0.008377573 0.34994614 -0.08988011
0.34759066 -0.018611494 0.034306157 0.011019729 0.04850611 -0.04792095 -0.020784445 -0.042571485
-0.040522814 0.25619334 -0.06759192 0.21484196 0.42944795 0.27198318 0.37836835 0.02247499
0.06349179 0.36273506 -0.24341068 0.111918345 0.0096640065 -0.05924229 -0.022301154 -0.06271278
-0.03033217 0.041565984 -0.024077762 0.047776807 -0.038747158 0.035870254 -0.0125723705 -0.0307687
-0.057199582 -0.015617262 0.06839937 -0.8572386 -0.097799964 0.27611747 -0.3227538 -0.17461373
-0.018043473 0.04307267 -0.00862392 0.054029763 0.0596686 0.4005277 0.023754619 -0.07094877
0.012463871 -0.738466 -0.1223721 -0.37843427 0.30204388 0.37663534 0.20787016 -0.33887953
0.0041551553 0.045367587 -0.0038023689 0.029504647 0.03313195 -0.81798285 0.068135925 -0.20792174
-0.23934138 -2.104185 0.3658765 0.24210119 -0.0037399563 0.00651831 -0.027749376 0.005270321
0.06491686 0.050580516 0.008026767 0.03407444 -0.05786826 0.050979912 0.40074402 -0.049404837
0.043416806 0.016449723 -0.044782966 -0.71579874 -1.5041752 0.00590457 -0.02114895 0.38978955
-0.059639707 0.3222014 0.20046577 -0.034518234 -0.016733533 0.2713802 0.06709744 -0.8113836
-0.022404887 0.34899613 0.059917405 -0.0030904561 0.043987297 0.028891854 0.010316767 0.24549004
0.4283737 -0.04267361 0.31828117 0.41855833 0.28148594 -1.4580349 -0.004326244 -0.026792571
0.028588103 0.046913013 0.27918527 0.28728262 0.049469143 -0.04916922 -0.11418396 -0.05931528
0.1485843 0.0023738458 0.04424204 0.057637103 0.41732866 -0.34539402 0.23658992 0.020035878
-0.06349515 -0.028298229 0.055087626 -0.09933786 -0.05051428 -0.045461427 -0.049649984 0.039460674
0.08269502 -0.053943686 -0.04523457 -0.27543554 -0.04725649 0.39985138 -0.07673855 -0.03179138
0.043349348 0.037144948 0.014920689 -0.03257297 0.05232431 0.060617425 -0.35553873 0.021236252
0.28704587 0.008704567 -0.008664601 -0.042369895 -0.022706311 0.28329265 -0.017424606 0.32862055
-0.036426447 -0.057739936 0.2914749 -0.44110745 0.052867807 -0.05792556 -0.055732153 0.08935707
-0.020009913 -0.00033281263 0.2830513 0.31431285 0.2924401 0.04977365 -0.037236452 -0.008057361
0.3108412 -0.027462944 -0.029413357 0.38180768 0.05643338 0.20557927 0.05304973 0.0620137
-0.008780278 -0.50859743 0.011638746 0.019507704 -0.041975826 0.21310866 -1.8162211 0.39049643
-0.030648725 0.23712438 0.37148294 0.35560766 0.054768763 0.28091785 0.2988232 0.03473328
0.03305827 0.020758627 -1.0569205 0.34116554 -0.46821415 -0.02723407 -0.91330427 0.020116389
0.30535942 0.26850817 -0.032841817 -0.13909191 0.36611748 0.084050685 0.009442394 -0.0084254965
0.36803907 0.03631749 0.36936647 -0.046063595 0.2508368 -0.10948033 -0.17541261 -0.067106456
-0.15256418 -0.032890536 -0.8692563 -0.20369923 0.27881435 0.3635342 -1.0013562 0.1087062
00000000: 44c3 6c3e 5061 4dbf 20d5 a73c 63f3 adbd
00000010: 432c 21bf 46cc 55bc be75 2ebf bfe2 80bd
00000020: b0e2 81bd 6cb3 4bbd f075 893e e6d0 b13e
00000030: 39e5 b23b 78bd 55bd 3f57 66bf 52df fc3c
00000040: 94cc b83e 7012 dbbc daab 08be 16c1 1e3d
00000050: d199 b53e 1742 09bc 242c b33e 1013 b8bd
00000060: 67f7 b13e 2277 98bc 9d84 0c3d 188c 343c
00000070: 58ae 463d c248 44bd 2444 aabc 705f 2ebd
00000080: 40fb 25bd c62b 833e a26d 8abd 88ff 5b3e
00000090: 9ae0 db3e 6141 8b3e 7fb9 c13e 781d b83c
000000a0: fc07 823d 69b8 b93e a640 79be 7235 e53d
000000b0: c855 1e3c 0ba8 72bd e9b0 b6bc 8f6f 80bd
000000c0: 2c7b f8bc 1841 2a3d ba3e c5bc 9db1 433d
000000d0: 57b5 1ebd b0ec 123d 58fc 4dbc a40e fcbc
000000e0: 1c4a 6abd 8bdf 7fbc f814 8c3d fd73 5bbf
000000f0: 594b c8bd 455f 8d3e fc3f a5be f1cd 32be
00000100: e8cf 93bc f86c 303d 584b 0dbc 504e 5d3d
00000110: 1067 743d f711 cd3e 0c99 c23c 974d 91bd
00000120: 4435 4c3c 1c0c 3dbf 399e fabd 23c2 c1be
00000130: 7fa5 9a3e 59d6 c03e eadb 543e 9e81 adbe
00000140: f827 883b 5dd3 393d 2a31 79bb bbb3 f13c
00000150: 5eb5 073d 5367 51bf d98a 8b3d 70e9 54be
00000160: e815 75be f8aa 06c0 2a54 bb3e 60e9 773e
00000170: 0e1a 75bb 8c97 d53b a952 e3bc a8b2 ac3b
00000180: 21f3 843d 842d 4f3d b382 033c a491 0b3d
00000190: 4507 6dbd 50d0 503d 522e cd3e ba5c 4abd
000001a0: d2d5 313d 92c1 863c 586e 37bd 963e 37bf
000001b0: d088 c0bf 207b c13b 9040 adbc 7f92 c73e
000001c0: c448 74bd 95f7 a43e e646 4d3e fe62 0dbd
000001d0: c314 89bc 58f2 8a3e 626a 893d d6b6 4fbf
000001e0: 748a b7bc 9faf b23e f46b 753d 4089 4abb
000001f0: 062c 343d 9cae ec3c a807 293c be61 7b3e
00000200: cc53 db3e 86ca 2ebd c0f5 a23e 474d d63e
00000210: ed1e 903e e3a0 babf 2ac3 8dbb 187c dbbc
00000220: 9931 ea3c dc27 403d 5ff1 8e3e b516 933e
00000230: 28a0 4a3d aa65 49bd 48d9 e9bd 94f4 72bd
00000240: 7c26 183e 8692 1b3b 2437 353d e214 6c3d
00000250: 1aac d53e 7cd7 b0be a144 723e 4822 a43c
00000260: bf09 82bd b0d1 e7bc 90a3 613d a671 cbbd
00000270: 10e8 4ebd c335 3abd c85d 4bbd 84a1 213d
00000280: 025c a93d 0ef4 5cbd e247 39bd e305 8dbe
00000290: 0590 41bd 52b9 cc3e 1a29 9dbd ae37 02bd
000002a0: 168f 313d 4d25 183d e875 743c 3c6b 05bd
000002b0: 0452 563d fa49 783d 2c09 b6be a6f7 ad3c
000002c0: adf7 923e 9a9d 0e3c f8f5 0dbc 0e8c 2dbd
000002d0: 9602 babc bc0b 913e 0cbe 8ebc f440 a83e
000002e0: e633 15bd b680 6cbd 333c 953e d6d8 e1be
000002f0: ea8b 583d 5a43 6dbd 6647 64bd d700 b73d
00000300: d4eb a3bc 5b7d aeb9 1aec 903e 9ded a03e
00000310: b5ba 953e 74df 4b3d 4085 18bd 0503 04bc
00000320: 9426 9f3e f8f9 e0bc 48f4 f0bc 4c7c c33e
00000330: b026 673d 5f83 523e ac4a 593d 1402 7e3d
00000340: 28db 0fbc 7133 02bf 70b0 3e3c 9fce 9f3c
00000350: d8ee 2bbd 2839 5a3e ef79 e8bf 26ef c73e
00000360: 0913 fbbc bcd0 723e 0333 be3e 3512 b63e
00000370: 3655 603d 77d4 8f3e 5bff 983e 7c44 0e3d
00000380: 1c68 073d ff0d aa3c 2c49 87bf 40ad ae3e
00000390: c4b9 efbe fc19 dfbc 4fce 69bf 20cb a43c
000003a0: 1258 9c3e e779 893e 2485 06bd 1c6e 0ebe
000003b0: c073 bb3e c422 ac3d 45b4 1a3c 180b 0abc
000003c0: 9e6f bc3e a6c1 143d 9a1d bd3e 2ead 3cbd
000003d0: ae6d 803e 3937 e0bd 5d9f 33be 1c6f 89bd
000003e0: c939 1cbe 3ab8 06bd 9587 5ebf 8896 50be
000003f0: c1c0 8e3e 2821 ba3e 712c 80bf 5ba1 de3d

Linear2.bias f4 [3]
0.23999564 0.34757644 0.35877007
00000000: 6bc1 753e 8af5 b13e b6b0 b73e
