runs/run10/models/model1201.pth (torch, 10959 bytes, 4 tensors)

Linear1.weight f4 [256, 5]
00000000: 2d6b e4bd d541 be3e 0d63 073e 9cc2 833d
00000010: 280e bf3c d82f ea3e d33b 8f3f 3da6 e3bf
00000020: a36c 2b3e 04d0 b9bd be57 4cbe 722d 19bf
00000030: 1868 91be 67a8 f1bb cf02 683c 5391 18bf
00000040: 9510 a9be 4286 543c 2ee9 d7be 4735 10bf
00000050: b74a 0cbf 3382 49bf 7d91 643f 2105 823e
00000060: f01c aebe f77b 57be 5a27 fabd 1992 74bb
00000070: ea44 c33d 64da 243d 653c 633f 7de3 823f
00000080: 5fca c1bf e656 d83d 8dc0 063d 05e2 e9be
00000090: 96f3 7e3d 0b40 babe cded f8be 0caf 453e
000000a0: c780 9abe 118b 393d ff20 303e 5963 113d
000000b0: f545 ccbe be35 67be bc1a 253e 97ff 883e
000000c0: 0228 f0be eb02 88bd d750 303e 865b fc3e
000000d0: db49 c83e deb2 813e db6b edbd 4652 1e3f
000000e0: 8207 0f3f b23b f53d 0c12 543e 474e 193f
000000f0: d658 9ebe 2685 13bf 16f0 73be 3d13 56be
00000100: d4b0 9e3d 10c7 09be 00c8 073e 38da d6bd
00000110: 7047 4b3e ca06 88be 7a01 733e a60f 983f
00000120: c985 f8bf 29c8 c1bd 3181 5d3d 07e5 99bd
00000130: 1a91 303e 1af2 4d3e d49a fabd 8589 e33c
00000140: 9285 383f 2c01 b33e bfd4 11be eaa1 bebd
00000150: 23b7 213f e306 0fbf ba6c d7be aa7c 1a3e
00000160: 799d 1cbe a6c9 c9be 9290 3b3e 476e a13c
00000170: 50f5 ffbd 91e3 cbbe 8fbd adbd b09d afbd
00000180: 0f73 c3be cecf 8bbe 00da 163b 94ef cdbd
00000190: 5a1a 063f 43d1 f23e 33f0 b73e d2f1 d13c
000001a0: 0b97 2c3f 5f7c 593e 22d0 9cbd f60e fbbe
000001b0: 223b 7d3e 075f 883e 4a2f 253f 5061 2f3f
000001c0: 8d55 2c3f c190 bf3e 0d20 1a3f 6086 273e
000001d0: 9ce1 9bbe 6b23 0dbf 6420 1bbf f41d 253e
000001e0: 8f75 1e3f 15be 5dbd b469 143e 5d93 843e
000001f0: 88c9 ab3e 6503 75be 2f76 103d 30eb aabd
00000200: bbae b13e 686f e7bc 298b 103b 409e 0cbe
00000210: 67b3 e8bd 3c1b 07bf a056 debe e019 bc3e
00000220: 4398 99be 08c0 f6bd 271f 5ebe 6996 82be
00000230: 5c7b c93e 08e4 0f3e 64b1 b1bd 6ae0 25be
00000240: 0f42 aabe e086 a7bc dcb6 b33e 2a83 803e
00000250: 1046 7f3d 8027 ba3b 9846 6ebe 1e51 8bbe
00000260: e8e1 2bbe bb5a d3be 00c8 3fbd 16f8 8fbe
00000270: 1fae 57be afee e0be b3f3 ccbe 0a53 87be
00000280: 28d5 9fbe 889f a1be 2c1c b8bd e431 18be
00000290: 649f 913e 2b11 d23e a0fe b13e 0afe ca3e
000002a0: 0652 03bf 4e4b a03e 96a0 07bd 81bb ffbe
000002b0: a833 d9be 89b7 2b3e 9910 a93e d943 f0be
000002c0: c560 153e 6deb 743e 27b6 493e 5bf6 b2bd
000002d0: 5c80 153f 3f28 433e 2d8a d0b9 87eb 8ebd
000002e0: 8f8f 3c3f e800 ce3e 9e71 b8bd 890f 44be
000002f0: 9045 523d 89fa f33e d7c1 b63e e704 9c3e
00000300: 2b77 b73e 8040 65bd fc31 7f3f 38cb bcbc
00000310: 3ff7 2fbc 15a5 dc3d 1d02 a53d 5e46 733b
00000320: 5e7e ccbd 3c8e 03be d83d 663e 1bb7 313d
00000330: 130d 373d d77c 403f 8fd7 ba3e 2fcf fe3e
00000340: 99ea 7abc 590d 113d 5f43 acbd 4728 ac3e
00000350: 57a8 bbbe 6a49 aebe 4900 9ebd 7799 133e
00000360: 7c27 92be 9ee7 06bf 17c1 9ebe ef90 8b3d
00000370: 7cb1 313e 74dd 043e 9cce e4be c9db e2be
00000380: 7008 c0be 6d1d 223e ccf3 5cbd b0d2 13bd
00000390: e281 873e 9ff2 78be 71df b0bd 2bcb 7bbe
000003a0: 9a50 923e 0b64 753e e0dc fdba 3b9a 9fbe
000003b0: b17c 1abf a8f0 6abe fe56 dabe 09ff ae3d
000003c0: 8412 44be 7686 a9be a05e 9cbe 0440 bcbd
000003d0: dcbe dfbd 6487 16be 9c6f 5fbe 287e b2bd
000003e0: 5f22 61be e8e8 003d 25c6 74be 3422 2a3d
000003f0: daa0 c6bc 97a2 993e 7849 52be c4de c7bd
-0.11153255 0.371596 0.13221379 0.06433603 0.02332218 0.45739627 1.1190132 -1.7785107
0.1674066 -0.09072879 -0.19955346 -0.5983497 -0.2839973 -0.0073748115 0.014160826 -0.5959675
-0.33020464 0.012971463 -0.4217009 -0.56331295 -0.54801506 -0.78714293 0.892845 0.25394538
-0.34006453 -0.21043383 -0.12214537 -0.0037318526 0.09534629 0.040247336 0.8876403 1.0225674
-1.5139884 0.105634496 0.032898474 -0.45680252 0.06224402 -0.36376986 -0.48618928 0.19305056
-0.30176374 0.04529864 0.17200087 0.035495136 -0.39897123 -0.22579095 0.1612348 0.267575
-0.46905524 -0.066411816 0.17218338 0.49288577 0.39118847 0.25331777 -0.115928374 0.6184429
0.5587083 0.119742766 0.2071001 0.59885067 -0.3092715 -0.57625043 -0.23822054 -0.20905776
0.07748571 -0.13454843 0.13259888 -0.10490841 0.1985147 -0.2656768 0.23731032 1.1879776
-1.9415828 -0.09462006 0.054078285 -0.075143866 0.17242852 0.20111886 -0.12236562 0.027775535
0.7207881 0.34961832 -0.14241312 -0.093082264 0.6317007 -0.55869883 -0.4207514 0.15086618
-0.15294446 -0.39411658 0.18316868 0.019705905 -0.124979615 -0.39822057 -0.08483421 -0.085749984
-0.3817372 -0.2730698 0.0023018122 -0.100554615 0.5238396 0.4742528 0.35925445 0.025628004
0.67417973 0.2123885 -0.07656886 -0.49034852 0.24729589 0.26635 0.6452528 0.6850786
0.6731804 0.37415126 0.60205156 0.16359854 -0.30445564 -0.5513217 -0.605963 0.16124707
0.6189813 -0.054136354 0.14493448 0.2589368 0.33552194 -0.23927076 0.03526896 -0.0834564
0.3470362 -0.028251365 0.0022055602 -0.13732243 -0.11362343 -0.5277593 -0.43425465 0.3673849
-0.2999898 -0.12048346 -0.21691571 -0.2550538 0.39351928 0.14051831 -0.08676413 -0.16198888
-0.33253524 -0.020450056 0.35100448 0.2510007 0.062322676 0.0056809783 -0.23269117 -0.27210325
-0.16785395 -0.4128016 -0.046821594 -0.28118962 -0.21062516 -0.439321 -0.40029678 -0.2643054
-0.31217313 -0.31567025 -0.08989748 -0.14862782 0.28441918 0.41028723 0.34764576 0.3964694
-0.5129703 0.31307453 -0.03311213 -0.49947742 -0.42422223 0.16769232 0.33020476 -0.46926764
0.14587696 0.23917933 0.19698392 -0.08738395 0.58398986 0.19058321 -0.000397758 -0.06978517
0.73656553 0.40235066 -0.09006046 -0.19146551 0.05133587 0.4765208 0.35694763 0.3047249
0.35833105 -0.055969715 0.99685645 -0.023046121 -0.0107401 0.107736744 0.08057044 0.00371208
-0.0998504 -0.12847227 0.22484529 0.043387514 0.044690203 0.7519049 0.36492583 0.49767444
-0.0153147215 0.03541312 -0.084112875 0.3362448 -0.3665187 -0.34040385 -0.07714898 0.14414011
-0.2854575 -0.5269717 -0.3100669 0.06814753 0.17352861 0.12975103 -0.4468888 -0.44308308
-0.37506437 0.15831538 -0.05394344 -0.0360896 0.2646628 -0.24311303 -0.08636368 -0.24589221
0.2857712 0.23963945 -0.0019368194 -0.31172356 -0.60346514 -0.22943366 -0.42644495 0.08544738
-0.19147688 -0.33110398 -0.30540943 -0.091918975 -0.109250754 -0.14700085 -0.2181992 -0.08715469
-0.21985768 0.031472117 -0.23903711 0.041536525 -0.024246622 0.3000686 -0.20535839 -0.09759286

Linear1.bias f4 [256]
00000000: a924 7d3e 9c0f 2e3c 523b 0a3e bb6e 983c
00000010: 77e5 053e 437c 8abd d200 91bd c539 63bc
00000020: 284f a4bd 53a9 1cbe 14d8 6d3e 96bf 86bd
00000030: f23e 1f3e fcdc a4be 5078 713e 7ffb 45be
00000040: 2890 ae3e 162d 2dbe aa8a d4be 570e 74be
00000050: f202 8f3e c799 e1be eedb 583e a5ce 6fbe
00000060: 51dc 183f b8bb adbe a197 903e f275 81be
00000070: 5937 9fbe 01ab ddbe 627d bcbe 06f8 18be
00000080: 78f5 c4be 5878 8e3e 07cd 50be 03bc c13e
00000090: 8656 313f 514e a53e 3e6b 2c3f 33d5 4fbe
000000a0: b1c9 77be a883 063f b624 91be 348e 14be
000000b0: 45b3 c3be 4959 92bc e425 e8be 0deb 823e
000000c0: 5cb0 d4be 6046 bdbc 2c0b 54be 3e53 90bd
000000d0: c0e9 45bd 8886 c6bd b89e 96be 540f 8dbe
000000e0: 0c8a 34bb 5d40 37be 1532 f8be cfb3 023e
000000f0: 2c9c 43be 4400 113f f0be dd3e 912f 6d3e
00000100: c747 e4be 9886 03bf 06e0 9fbe f597 6dbe
00000110: dc40 edbd 8ce5 543f cfff a2be f23a 5cbd
00000120: a001 f2bd a620 c83e 492a 7dbe 18b3 48be
00000130: cf50 273f 8391 0ebe 1519 833e 987a 853e
00000140: 11bf cfbd beac 9dbe e45e f9bc e8a4 f23d
00000150: 007d 893a 5cd9 cd3e 3469 e5bd fd5a 95be
00000160: 9078 233e 6748 c83d b920 013f 13db 803e
00000170: 8d8b 363e 0eeb 4bbe f1bc 8cbd cd96 d1bb
00000180: 42fe 07bf 18a8 e1be 08c5 bf3c 8e8d 1ebe
00000190: 6051 3d3c 60e2 6d3c 6ff8 4d3f 2896 a0be
000001a0: 1c37 eebd 0ada 29be 48a9 dcbe e871 47be
000001b0: 73fd 953e 33e0 e1be 4052 1bbc 5ca2 133f
000001c0: b2eb 413e 3e8b ed3e 1d88 8f3e 380c c1be
000001d0: 3a47 fe3d 3ab9 f53e 6a16 d2be 30cf dc3e
000001e0: 60a2 aebe e517 2d3a 2799 d4be d688 5fbe
000001f0: 0a03 a1bd b0a1 2bbd 91e7 69be 2842 d73e
00000200: e410 333f 511e a2be 9143 af3e 218c 403f
00000210: 36fa 7c3d 5ccd 503e 7c0c 32bd d76a 1abe
00000220: 6712 0d3d db9b e2be 3cb6 d23e 7a9f 223f
00000230: 135d aabe 6c1d 89be 89a6 90be 0ced dbbd
00000240: 9c02 d63d 96c9 5b3e 9e53 7fbe 1aae 73be
00000250: 7236 073f 4bdc a13e f5c2 fb3c 0ccc 03be
00000260: 2c85 b4be 9f67 9cbe 3870 97bd 34a6 b1be
00000270: fe69 d7be e443 2c3e 101d afbe f18f 59be
00000280: b9de cb3c e5a6 bb3d 111b 263e a761 543e
00000290: 959c b0be 7936 4b3f f6cf 91be 8c67 99be
000002a0: 5781 49bc 1e2f e6bd b89b 91be 40a7 ff3c
000002b0: ff3a b2be 4d3f 77be dbcc 943e c0e4 a33d
000002c0: 41cd 063f aead a93d 7e14 9b3c b579 c7be
000002d0: 501e 51be 53b5 103f 9114 b0be 0c18 5c3f
000002e0: 1293 28be 7548 a1be 73a0 0a3f e09c d83e
000002f0: ce53 71be 2bbb c7be c891 aebe c74e bcbe
00000300: 68e7 ae3d 8f9c cebe 5b9f 1c3f 9188 463f
00000310: 7273 b73e 80a0 033b e0c2 fdbe 87ae aabe
00000320: 7604 6c3e ddb9 6ebe f89b e3be 75e7 c33e
00000330: b842 98be 8d1f a8bb d42a c13b 97ba 7ebe
00000340: 80a3 20be 23ea 7d3e 7490 39be 44dc bebe
00000350: e09e 6c3d 5001 df3e 5aa6 bb3e e355 313f
00000360: 4058 f2bd 6bba c03e c866 3a3f 8d18 023f
00000370: ed96 38bd d898 eb3e 9e9b ef3e 04a6 9bbe
00000380: 9782 34bd 7822 72be db4d 82bc fc50 023f
00000390: 7923 843e b0e3 37be 1cb1 283e 869b 48be
000003a0: 4a88 2b3f 3184 f33e aa5c 41be b480 1fbf
000003b0: 3c78 043f c167 713d dda9 37bd c0e5 3cbd
000003c0: 3574 a23e e62a 723b 41bc 753f 9907 ccbe
000003d0: 7a00 343e d4ae b8bd 66fc b3be d9ba c23b
000003e0: 6aec 853e ce4c 2ebe 6013 3d3e 8ae9 14bd
000003f0: 6772 093f 54fa b33e 8b89 3b3e 0e1b 7c3d
0.24721016 0.010623839 0.13499191 0.018607488 0.13075815 -0.06761982 -0.070802346 -0.013868754
-0.0802291 -0.15298967 0.23226959 -0.06579511 0.15551355 -0.32199848 0.23581052 -0.1933422
0.34094357 -0.1691173 -0.41512042 -0.23833595 0.27931935 -0.44062635 0.21177647 -0.23418672
0.59711176 -0.3393228 0.28240684 -0.25285298 -0.31096914 -0.43294528 -0.3681441 -0.14938363
-0.38468528 0.2782619 -0.20390712 0.37838754 0.6927265 0.32286313 0.6735114 -0.20296173
-0.24198033 0.5254464 -0.2834832 -0.14507371 -0.3822271 -0.01786484 -0.45341408 0.25569955
-0.41540802 -0.023104846 -0.20707387 -0.07047127 -0.048318624 -0.096936285 -0.29417968 -0.27550757
-0.0027548103 -0.17895646 -0.4847571 0.12763904 -0.19102544 0.5664103 0.43309736 0.23162676
-0.44586012 -0.5137725 -0.31225604 -0.23202498 -0.115846366 0.8316276 -0.3183579 -0.053767152
-0.11816716 0.3908741 -0.24723162 -0.19599569 0.6535768 -0.13922696 0.25605074 0.26070094
-0.10143865 -0.30795854 -0.030440755 0.118478596 0.0010489523 0.40204895 -0.112017065 -0.2917098
0.1596396 0.09779435 0.50440556 0.2516714 0.17826672 -0.19913885 -0.06871975 -0.0063961507
-0.5312234 -0.44073558 0.023409382 -0.15483686 0.011555046 0.014519304 0.80457205 -0.3136456
-0.11631605 -0.16587082 -0.430979 -0.19477046 0.2929493 -0.44116363 -0.009480059 0.57669616
0.18937567 0.46395296 0.28033534 -0.37704635 0.12415929 0.4799288 -0.41032726 0.43126822
-0.34108257 0.0006602987 -0.41523096 -0.21829543 -0.07861908 -0.041902244 -0.22842242 0.4204266
0.6994765 -0.31663755 0.34231237 0.7521382 0.061762057 0.20390838 -0.043468937 -0.15079819
0.034441378 -0.44259533 0.4115466 0.6352459 -0.33274135 -0.2678026 -0.28252056 -0.107385725
0.104497164 0.21463618 -0.24934241 -0.23796883 0.5281745 0.31613383 0.030732611 -0.12870806
-0.35257852 -0.30547807 -0.07394451 -0.34697115 -0.42073053 0.16822773 -0.3420186 -0.21246316
0.024886476 0.09162692 0.16221263 0.20740376 -0.34494463 0.79379994 -0.28478974 -0.29961812
-0.012298903 -0.11239456 -0.28439116 0.03120768 -0.34810635 -0.24145241 0.29062542 0.08002615
0.5265694 0.0828508 0.01893067 -0.38960043 -0.2042172 0.5652668 -0.3439069 0.8597419
-0.16462353 -0.31500593 0.54151076 0.42307186 -0.23567125 -0.39009985 -0.34095597 -0.36778852
0.08540231 -0.4035382 0.6118066 0.77552134 0.35830265 0.002008468 -0.4956274 -0.3333628
0.23048577 -0.23313089 -0.44454932 0.38262525 -0.29738402 -0.0051307143 0.005894998 -0.24875866
-0.1568737 0.24796347 -0.1812151 -0.37277424 0.057768703 0.4355569 0.36650354 0.6927168
-0.118332386 0.37642226 0.7281308 0.5081871 -0.04506581 0.46015048 0.46798414 -0.30400097
-0.044069853 -0.23645961 -0.015906265 0.5090482 0.25808313 -0.1795795 0.16473812 -0.19590577
0.67004836 0.47561792 -0.18883005 -0.6230576 0.51745963 0.058936838 -0.04483973 -0.046117544
0.31729284 0.003695184 0.9599038 -0.39849547 0.17578307 -0.09017721 -0.35153502 0.005942684
0.26156932 -0.17021486 0.18464422 -0.036355533 0.5369019 0.35151923 0.18314187 0.06154924

Linear2.weight f4 [3, 256]
00000000: 9754 6b3e 9729 4dbf 20d5 a73c 63f3 adbd
00000010: 831f 21bf 46cc 55bc 7c44 2ebf bfe2 80bd
00000020: b0e2 81bd 6cb3 4bbd 3bfb 883e 436d b13e
00000030: 39e5 b23b 78bd 55bd 743d 66bf 52df fc3c
00000040: 9582 b83e 7012 dbbc daab 08be 16c1 1e3d
00000050: 632f b53e 1742 09bc ddba b23e 1013 b8bd
00000060: 6f9f b13e 2277 98bc 9d84 0c3d 188c 343c
00000070: 58ae 463d c248 44bd 2444 aabc 705f 2ebd
00000080: 40fb 25bd e806 833e 317d 8abd 80c1 593e
00000090: 627c db3e 86e7 8a3e 0d3a c13e 781d b83c
000000a0: fc07 823d bc7e b93e a640 79be 7235 e53d
000000b0: c855 1e3c c2e7 6dbd e9b0 b6bc 8f6f 80bd
000000c0: 2c7b f8bc 1841 2a3d ba3e c5bc 9db1 433d
000000d0: 57b5 1ebd b0ec 123d 58fc 4dbc a40e fcbc
000000e0: 1c4a 6abd 8bdf 7fbc f814 8c3d 7025 5bbf
000000f0: 594b c8bd dacd 8c3e f488 a4be f1cd 32be
00000100: e8cf 93bc f86c 303d 584b 0dbc 504e 5d3d
00000110: 1067 743d 66b4 cc3e 0c99 c23c 974d 91bd
00000120: 4435 4c3c d72f 3dbf 399e fabd c374 c0be
00000130: b83b 9a3e d296 c03e 3d60 543e 913f adbe
00000140: f827 883b 5dd3 393d 2a31 79bb bbb3 f13c
00000150: 5eb5 073d 0154 51bf d98a 8b3d 70e9 54be
00000160: e5fd 72be 9b71 06c0 634e bb3e 5eab 763e
00000170: 0e1a 75bb 8c97 d53b a952 e3bc a8b2 ac3b
00000180: 21f3 843d 842d 4f3d b382 033c a491 0b3d
00000190: 4507 6dbd 50d0 503d 4bc4 cc3e ba5c 4abd
000001a0: d2d5 313d 92c1 863c 586e 37bd 70d2 36bf
000001b0: 7034 c0bf 207b c13b 9040 adbc cb5b c73e
000001c0: c448 74bd e18d a43e c3d3 4c3e fe62 0dbd
000001d0: c314 89bc 596c 8a3e 626a 893d 317b 4fbf
000001e0: 748a b7bc 9365 b23e f46b 753d 4089 4abb
000001f0: 062c 343d 9cae ec3c a807 293c 0c0f 7a3e
00000200: dd07 db3e 86ca 2ebd 0094 a23e a9f0 d53e
00000210: 5df0 8f3e 573a babf 2ac3 8dbb 187c dbbc
00000220: 9931 ea3c dc27 403d 333f 8e3e 458e 923e
00000230: 28a0 4a3d aa65 49bd 48d9 e9bd 94f4 72bd
00000240: 7c26 183e 8692 1b3b 2437 353d e214 6c3d
00000250: 3144 d53e 7f44 b0be 2b81 713e 4822 a43c
00000260: bf09 82bd b0d1 e7bc 90a3 613d b608 cfbd
00000270: 10e8 4ebd aa86 3bbd c85d 4bbd 84a1 213d
00000280: 025c a93d 0ef4 5cbd e247 39bd 3c2f 8ebe
00000290: 0590 41bd 425e cc3e 1a29 9dbd ae37 02bd
000002a0: 168f 313d 4d25 183d e875 743c 762d 05bd
000002b0: 0452 563d fa49 783d b67f b5be a6f7 ad3c
000002c0: fc78 923e 9a9d 0e3c f8f5 0dbc 0e8c 2dbd
000002d0: 9602 babc 5184 903e 0cbe 8ebc 63b3 a73e
000002e0: e633 15bd b680 6cbd fcff 943e 72a2 e0be
000002f0: ea8b 583d 5a43 6dbd 6647 64bd d700 b73d
00000300: d4eb a3bc 5b7d aeb9 464c 903e 0f6e a03e
00000310: e697 953e 74df 4b3d 4085 18bd 0503 04bc
00000320: 9fb4 9e3e f8f9 e0bc 48f4 f0bc 5c39 c33e
00000330: b026 673d d4d1 503e ac4a 593d 1402 7e3d
00000340: 28db 0fbc af87 02bf 70b0 3e3c 9fce 9f3c
00000350: d8ee 2bbd 9197 583e ce00 e8bf 84ab c73e
00000360: 0913 fbbc 9cac 703e e5c5 bd3e 84d3 b53e
00000370: 3655 603d 0a38 8f3e 1ad6 983e 7c44 0e3d
00000380: 1c68 073d ff0d aa3c 092e 87bf 9563 ae3e
00000390: 81bc efbe fc19 dfbc 3b5a 6abf 20cb a43c
000003a0: b1b9 9b3e 415f 893e 2485 06bd 1c6e 0ebe
000003b0: eb5a bb3e c422 ac3d 45b4 1a3c 180b 0abc
000003c0: 8f53 bc3e a6c1 143d a0b1 bc3e 2ead 3cbd
000003d0: a245 803e 1b71 e0bd 5d9f 33be 1c6f 89bd
000003e0: 8573 1ebe 3ab8 06bd d201 5fbf 8896 50be
000003f0: 3a19 8e3e 37f1 b93e 6103 80bf 5ba1 de3d
0.22981487 -0.80141586 0.020487368 -0.08493688 -0.6293871 -0.013049191 -0.6807325 -0.062932484
-0.06342065 -0.049731657 0.26754174 0.34653673 0.0054594544 -0.052182645 -0.8993752 0.030868206
0.36037126 -0.02674219 -0.13346806 0.03875836 0.35387716 -0.008377573 0.3490819 -0.08988011
0.3469195 -0.018611494 0.034306157 0.011019729 0.04850611 -0.04792095 -0.020784445 -0.042571485
-0.040522814 0.25591207 -0.067621596 0.2126522 0.42868334 0.27129763 0.37739602 0.02247499
0.06349179 0.36229503 -0.24341068 0.111918345 0.0096640065 -0.05808235 -0.022301154 -0.06271278
-0.03033217 0.041565984 -0.024077762 0.047776807 -0.038747158 0.035870254 -0.0125723705 -0.0307687
-0.057199582 -0.015617262 0.06839937 -0.85604 -0.097799964 0.27500802 -0.32135737 -0.17461373
-0.018043473 0.04307267 -0.00862392 0.054029763 0.0596686 0.39981383 0.023754619 -0.07094877
0.012463871 -0.7390112 -0.1223721 -0.37589082 0.30123687 0.37615067 0.20739837 -0.3383756
0.0041551553 0.045367587 -0.0038023689 0.029504647 0.03313195 -0.81768805 0.068135925 -0.20792174
-0.23729666 -2.100684 0.36583242 0.24088809 -0.0037399563 0.00651831 -0.027749376 0.005270321
0.06491686 0.050580516 0.008026767 0.03407444 -0.05786826 0.050979912 0.3999351 -0.049404837
0.043416806 0.016449723 -0.044782966 -0.7141485 -1.5016003 0.00590457 -0.02114895 0.3893722
-0.059639707 0.32139495 0.20002656 -0.034518234 -0.016733533 0.27035788 0.06709744 -0.8104735
-0.022404887 0.3484312 0.059917405 -0.0030904561 0.043987297 0.028891854 0.010316767 0.24419802
0.42779437 -0.04267361 0.3175354 0.41785172 0.2811307 -1.4549054 -0.004326244 -0.026792571
0.028588103 0.046913013 0.27782592 0.28624168 0.049469143 -0.04916922 -0.11418396 -0.05931528
0.1485843 0.0023738458 0.04424204 0.057637103 0.41653588 -0.34427258 0.2358443 0.020035878
-0.06349515 -0.028298229 0.055087626 -0.10109083 -0.05051428 -0.045782723 -0.049649984 0.039460674
0.08269502 -0.053943686 -0.04523457 -0.27770412 -0.04725649 0.39915663 -0.07673855 -0.03179138
0.043349348 0.037144948 0.014920689 -0.032514058 0.05232431 0.060617425 -0.35448998 0.021236252
0.2860793 0.008704567 -0.008664601 -0.042369895 -0.022706311 0.2822595 -0.017424606 0.3275405
-0.036426447 -0.057739936 0.2910155 -0.43873936 0.052867807 -0.05792556 -0.055732153 0.08935707
-0.020009913 -0.00033281263 0.28183192 0.31333968 0.29217452 0.04977365 -0.037236452 -0.008057361
0.30997178 -0.027462944 -0.029413357 0.381297 0.05643338 0.20392543 0.05304973 0.0620137
-0.008780278 -0.50988287 0.011638746 0.019507704 -0.041975826 0.21151568 -1.8125246 0.38998044
-0.030648725 0.23503345 0.37065044 0.35512936 0.054768763 0.27972442 0.29850847 0.03473328
0.03305827 0.020758627 -1.0560924 0.3406035 -0.46823505 -0.02723407 -0.9154393 0.020116389
0.3041511 0.26830485 -0.032841817 -0.13909191 0.36592802 0.084050685 0.009442394 -0.0084254965
0.367825 0.03631749 0.36854267 -0.046063595 0.25053126 -0.10959073 -0.17541261 -0.067106456
-0.15473755 -0.032890536 -0.8711215 -0.20369923 0.2775362 0.36316845 -1.0001031 0.1087062

Linear2.bias f4 [3]
00000000: 5cc0 743e 3597 b13e e447 b73e
0.23901504 0.34685674 0.35797036
