runs/run10/models/model1401.pth (torch, 10959 bytes, 4 tensors)

Linear1.weight f4 [256, 5]
00000000: 4bc9 e8bd 1111 bf3e e75d 073e a7bb 853d
00000010: 53fd c63c d0d7 ea3e 0d2c 8f3f a7ba e3bf
00000020: ff03 2b3e 8201 bbbd be57 4cbe 722d 19bf
00000030: 1868 91be 67a8 f1bb cf02 683c 5391 18bf
00000040: 9510 a9be 4286 543c 2ee9 d7be 4735 10bf
00000050: 61ea 0bbf 47a6 49bf 6ed9 643f 922d 823e
00000060: 7bc2 adbe f77b 57be 5a27 fabd 1992 74bb
00000070: ea44 c33d 64da 243d 2ab8 633f 10e0 823f
00000080: 59c1 c1bf cbda d83d 907c 063d 05e2 e9be
00000090: 96f3 7e3d 0b40 babe cded f8be 0caf 453e
000000a0: c780 9abe 118b 393d ff20 303e 5963 113d
000000b0: f545 ccbe be35 67be bc1a 253e 97ff 883e
000000c0: 0228 f0be eb02 88bd da13 2e3e de28 fd3e
000000d0: 1a4b c83e 402a 823e 9784 ebbd 3dc6 1d3f
000000e0: 326f 0f3f 9933 f53d 6d0d 553e 7c8d 193f
000000f0: d658 9ebe 2685 13bf 16f0 73be 3d13 56be
00000100: d4b0 9e3d 10c7 09be 00c8 073e 38da d6bd
00000110: 7047 4b3e ca06 88be f596 743e 6505 983f
00000120: c990 f8bf 9e35 c2bd 6085 5b3d 07e5 99bd
00000130: 1a91 303e 1af2 4d3e d49a fabd 8589 e33c
00000140: 68fd 373f dad0 b33e 9fbf 11be 0374 bcbd
00000150: d5fa 213f e306 0fbf ba6c d7be aa7c 1a3e
00000160: 799d 1cbe a6c9 c9be 9290 3b3e 476e a13c
00000170: 50f5 ffbd 91e3 cbbe 8fbd adbd b09d afbd
00000180: 0f73 c3be cecf 8bbe 00da 163b 94ef cdbd
00000190: 938b 053f 8e9e f33e 2ff3 b73e f383 d93c
000001a0: 98d4 2c3f 5f7c 593e 22d0 9cbd f60e fbbe
000001b0: 223b 7d3e 075f 883e c69d 243f 9ac6 2f3f
000001c0: ed54 2c3f 24ff bf3e 9b59 1a3f 6086 273e
000001d0: 9ce1 9bbe 6b23 0dbf 6420 1bbf f41d 253e
000001e0: 42e8 1d3f d84a 57bd b671 143e fb10 853e
000001f0: a347 ac3e 6503 75be 2f76 103d 30eb aabd
00000200: bbae b13e 686f e7bc 298b 103b 409e 0cbe
00000210: 67b3 e8bd 3c1b 07bf a056 debe e019 bc3e
00000220: 4398 99be 08c0 f6bd 271f 5ebe 6996 82be
00000230: 5c7b c93e 08e4 0f3e 64b1 b1bd 6ae0 25be
00000240: 0f42 aabe e086 a7bc dcb6 b33e 2a83 803e
00000250: 1046 7f3d 8027 ba3b 9846 6ebe 1e51 8bbe
00000260: e8e1 2bbe bb5a d3be 00c8 3fbd 16f8 8fbe
00000270: 1fae 57be afee e0be b3f3 ccbe 0a53 87be
00000280: 28d5 9fbe 889f a1be 2c1c b8bd e431 18be
00000290: 649f 913e 9003 d13e 7fcd b23e 3511 cb3e
000002a0: 6a09 03bf 49d6 a03e 05b8 08bd 4cdd ffbe
000002b0: 7355 d9be cc73 2b3e b6ee a83e 7b57 f1be
000002c0: fefd 163e a30a 753e f8cb 4a3e 33dc b0bd
000002d0: e8f3 143f c7c3 443e 547f aab9 40e6 8cbd
000002e0: afcf 3c3f 84ee cc3e 7533 b5bd a905 44be
000002f0: c87c 563d 117f f43e 5c9b b53e 8ace 9c3e
00000300: 9470 b73e 3b06 62bd 1869 7f3f 38cb bcbc
00000310: 3ff7 2fbc 15a5 dc3d 1d02 a53d 5e46 733b
00000320: 5e7e ccbd 3c8e 03be d83d 663e 1bb7 313d
00000330: 130d 373d edf1 3f3f eaa6 bb3e 0ed6 fe3e
00000340: 0a57 6abc 6125 153d 5f43 acbd 4728 ac3e
00000350: 57a8 bbbe 6a49 aebe 4900 9ebd 7799 133e
00000360: 7c27 92be 9ee7 06bf 17c1 9ebe ef90 8b3d
00000370: 7cb1 313e 74dd 043e 9cce e4be c9db e2be
00000380: 7008 c0be a961 243e e616 5dbd d896 10bd
00000390: 8dd0 873e ed9e 78be 71df b0bd 2bcb 7bbe
000003a0: 9a50 923e 0b64 753e e0dc fdba d35d 9fbe
000003b0: 7e5e 1abf c577 6abe 961a dabe ccf0 af3d
000003c0: 8412 44be 7686 a9be a05e 9cbe 0440 bcbd
000003d0: dcbe dfbd 6487 16be 9c6f 5fbe 287e b2bd
000003e0: 5f22 61be e8e8 003d 25c6 74be 3422 2a3d
000003f0: daa0 c6bc 97a2 993e 7849 52be c4de c7bd
-0.113665186 0.37317708 0.13219415 0.065299325 0.024290716 0.45867777 1.1185318 -1.7791337
0.16700743 -0.09131147 -0.19955346 -0.5983497 -0.2839973 -0.0073748115 0.014160826 -0.5959675
-0.33020464 0.012971463 -0.4217009 -0.56331295 -0.5465451 -0.78769344 0.8939427 0.25425392
-0.3393744 -0.21043383 -0.12214537 -0.0037318526 0.09534629 0.040247336 0.8895289 1.0224628
-1.513713 0.105886064 0.032833636 -0.45680252 0.06224402 -0.36376986 -0.48618928 0.19305056
-0.30176374 0.04529864 0.17200087 0.035495136 -0.39897123 -0.22579095 0.1612348 0.267575
-0.46905524 -0.066411816 0.1699976 0.49445242 0.39119798 0.2542286 -0.11499899 0.6163061
0.56029046 0.11972732 0.20805903 0.59981513 -0.3092715 -0.57625043 -0.23822054 -0.20905776
0.07748571 -0.13454843 0.13259888 -0.10490841 0.1985147 -0.2656768 0.2388571 1.1876646
-1.9419185 -0.09482883 0.053593993 -0.075143866 0.17242852 0.20111886 -0.12236562 0.027775535
0.7187104 0.3512028 -0.14233254 -0.09201815 0.63273364 -0.55869883 -0.4207514 0.15086618
-0.15294446 -0.39411658 0.18316868 0.019705905 -0.124979615 -0.39822057 -0.08483421 -0.085749984
-0.3817372 -0.2730698 0.0023018122 -0.100554615 0.521661 0.47581905 0.35927722 0.026552176
0.6751189 0.2123885 -0.07656886 -0.49034852 0.24729589 0.26635 0.64303243 0.68662417
0.67317086 0.37499344 0.6029298 0.16359854 -0.30445564 -0.5513217 -0.605963 0.16124707
0.6168252 -0.05256161 0.14496502 0.25989518 0.33648404 -0.23927076 0.03526896 -0.0834564
0.3470362 -0.028251365 0.0022055602 -0.13732243 -0.11362343 -0.5277593 -0.43425465 0.3673849
-0.2999898 -0.12048346 -0.21691571 -0.2550538 0.39351928 0.14051831 -0.08676413 -0.16198888
-0.33253524 -0.020450056 0.35100448 0.2510007 0.062322676 0.0056809783 -0.23269117 -0.27210325
-0.16785395 -0.4128016 -0.046821594 -0.28118962 -0.21062516 -0.439321 -0.40029678 -0.2643054
-0.31217313 -0.31567025 -0.08989748 -0.14862782 0.28441918 0.4082303 0.34922406 0.39661565
-0.5118624 0.31413487 -0.03337862 -0.49973524 -0.42448005 0.16743392 0.32994622 -0.47137055
0.14745328 0.23929839 0.1980437 -0.0863575 0.5818467 0.19215308 -0.00032519794 -0.06879854
0.737544 0.40025723 -0.08847705 -0.19142784 0.052365094 0.47753194 0.35470092 0.30626327
0.35828078 -0.055181723 0.99769735 -0.023046121 -0.0107401 0.107736744 0.08057044 0.00371208
-0.0998504 -0.12847227 0.22484529 0.043387514 0.044690203 0.74978524 0.36650783 0.49772686
-0.014302978 0.0364126 -0.084112875 0.3362448 -0.3665187 -0.34040385 -0.07714898 0.14414011
-0.2854575 -0.5269717 -0.3100669 0.06814753 0.17352861 0.12975103 -0.4468888 -0.44308308
-0.37506437 0.1605288 -0.053976916 -0.035300106 0.265263 -0.24279375 -0.08636368 -0.24589221
0.2857712 0.23963945 -0.0019368194 -0.3112627 -0.60300434 -0.22897251 -0.42598408 0.0859085
-0.19147688 -0.33110398 -0.30540943 -0.091918975 -0.109250754 -0.14700085 -0.2181992 -0.08715469
-0.21985768 0.031472117 -0.23903711 0.041536525 -0.024246622 0.3000686 -0.20535839 -0.09759286

Linear1.bias f4 [256]
00000000: 5c31 7e3e 757f 273c 523b 0a3e bb6e 983c
00000010: c451 063e 437c 8abd 04b9 90bd c539 63bc
00000020: 284f a4bd 53a9 1cbe 7de8 6e3e 36a4 84bd
00000030: f23e 1f3e fcdc a4be 5a42 713e 7ffb 45be
00000040: 7e1c af3e 162d 2dbe aa8a d4be 570e 74be
00000050: 218c 8f3e c799 e1be 3be7 593e a5ce 6fbe
00000060: 5221 193f b8bb adbe a197 903e f275 81be
00000070: 5937 9fbe 01ab ddbe 627d bcbe 06f8 18be
00000080: 78f5 c4be e707 8f3e 9110 51be 634a c23e
00000090: 829c 313f 0ed8 a53e 73ac 2c3f 33d5 4fbe
000000a0: b1c9 77be 48c9 063f b624 91be 348e 14be
000000b0: 45b3 c3be 5cc4 8fbc e425 e8be 7527 833e
000000c0: 5cb0 d4be 6046 bdbc 2c0b 54be 3e53 90bd
000000d0: c0e9 45bd 8886 c6bd b89e 96be 540f 8dbe
000000e0: 0c8a 34bb 5d40 37be 1532 f8be 16e0 033e
000000f0: 2c9c 43be 7540 113f 9b81 dd3e 912f 6d3e
00000100: c747 e4be 9886 03bf 06e0 9fbe f597 6dbe
00000110: dc40 edbd 622a 553f cfff a2be f23a 5cbd
00000120: a001 f2bd 640f c83e 492a 7dbe d046 47be
00000130: 5b93 273f 0b84 0dbe 36a3 833e 61f0 843e
00000140: 11bf cfbd beac 9dbe e45e f9bc e8a4 f23d
00000150: 007d 893a 42bf cd3e 3469 e5bd fd5a 95be
00000160: 4204 223e 7f4b c73d e366 013f fe5f 813e
00000170: 8d8b 363e 0eeb 4bbe f1bc 8cbd cd96 d1bb
00000180: 42fe 07bf 18a8 e1be 08c5 bf3c 8e8d 1ebe
00000190: 6051 3d3c 60e2 6d3c 1b3b 4e3f 2896 a0be
000001a0: 1c37 eebd 0ada 29be 48a9 dcbe ab8b 47be
000001b0: a5d0 953e 33e0 e1be 4052 1bbc 89e8 133f
000001c0: b2eb 413e fa14 ee3e 3019 903e 380c c1be
000001d0: 3a47 fe3d b741 f63e 6a16 d2be 0318 dd3e
000001e0: 60a2 aebe b081 de3a 2799 d4be d688 5fbe
000001f0: 0a03 a1bd b0a1 2bbd 91e7 69be 35c8 d73e
00000200: 6956 333f 511e a2be 95cd af3e 5dd2 403f
00000210: 3282 803d 7a61 503e 7c0c 32bd d76a 1abe
00000220: 6712 0d3d db9b e2be 2c40 d33e cce3 223f
00000230: 135d aabe 6c1d 89be 89a6 90be 0ced dbbd
00000240: 9c02 d63d 96c9 5b3e 9e53 7fbe 1aae 73be
00000250: 6679 073f a881 a13e 2628 023d 0ccc 03be
00000260: 2c85 b4be 9f67 9cbe 3870 97bd d8c3 b1be
00000270: fe69 d7be 7601 2c3e 101d afbe f18f 59be
00000280: b9de cb3c e5a6 bb3d 111b 263e 681f 523e
00000290: 959c b0be 347c 4b3f f6cf 91be 8c67 99be
000002a0: 5781 49bc 1e2f e6bd b89b 91be 40a7 ff3c
000002b0: ff3a b2be 4d3f 77be 28cd 943e c0e4 a33d
000002c0: 900e 073f aead a93d 7e14 9b3c b579 c7be
000002d0: 501e 51be 5af6 103f 9114 b0be ed59 5c3f
000002e0: 1293 28be 7548 a1be aee7 0a3f b187 d83e
000002f0: ce53 71be 2bbb c7be c891 aebe c74e bcbe
00000300: 68e7 ae3d 8f9c cebe 91e1 1c3f 5bca 463f
00000310: 86fb b73e 80a0 033b e0c2 fdbe 87ae aabe
00000320: 5e12 6d3e ddb9 6ebe f89b e3be e171 c43e
00000330: b842 98be 6abd 86bb d42a c13b 97ba 7ebe
00000340: 80a3 20be 4a8b 7b3e 7490 39be 44dc bebe
00000350: e09e 6c3d fc86 df3e d144 bb3e b09b 313f
00000360: 4058 f2bd ef42 c13e 78a9 3a3f 715d 023f
00000370: ed96 38bd 841e ec3e cc2b f03e 04a6 9bbe
00000380: 9782 34bd 7822 72be 0fbd 6ebc 6c96 023f
00000390: 5d0b 843e b0e3 37be 37c6 253e 869b 48be
000003a0: 11ca 2b3f 7912 f43e aa5c 41be b480 1fbf
000003b0: babe 043f c167 713d dda9 37bd c0e5 3cbd
000003c0: f8ff a23e e62a 723b 78fd 753f 9907 ccbe
000003d0: cb14 353e 6e6b b9bd 66fc b3be d9ba c23b
000003e0: a77c 853e ce4c 2ebe b6ad 3c3e 8ae9 14bd
000003f0: 4bb2 093f 3985 b43e df78 3c3e 0e1b 7c3d
0.24823517 0.010223259 0.13499191 0.018607488 0.13117129 -0.06761982 -0.07066539 -0.013868754
-0.0802291 -0.15298967 0.23330875 -0.06476633 0.15551355 -0.32199848 0.23560467 -0.1933422
0.34201425 -0.1691173 -0.41512042 -0.23833595 0.28036597 -0.44062635 0.21279614 -0.23418672
0.5981647 -0.3393228 0.28240684 -0.25285298 -0.31096914 -0.43294528 -0.3681441 -0.14938363
-0.38468528 0.27935717 -0.20416476 0.37947378 0.69379437 0.323914 0.67450637 -0.20296173
-0.24198033 0.5265088 -0.2834832 -0.14507371 -0.3822271 -0.017549686 -0.45341408 0.2561604
-0.41540802 -0.023104846 -0.20707387 -0.07047127 -0.048318624 -0.096936285 -0.29417968 -0.27550757
-0.0027548103 -0.17895646 -0.4847571 0.12878451 -0.19102544 0.5673898 0.43262944 0.23162676
-0.44586012 -0.5137725 -0.31225604 -0.23202498 -0.115846366 0.83267796 -0.3183579 -0.053767152
-0.11816716 0.39074242 -0.24723162 -0.19460607 0.6545922 -0.13819902 0.25710458 0.25964645
-0.10143865 -0.30795854 -0.030440755 0.118478596 0.0010489523 0.4018498 -0.112017065 -0.2917098
0.15821937 0.097311966 0.5054762 0.2526855 0.17826672 -0.19913885 -0.06871975 -0.0063961507
-0.5312234 -0.44073558 0.023409382 -0.15483686 0.011555046 0.014519304 0.8055894 -0.3136456
-0.11631605 -0.16587082 -0.430979 -0.19486873 0.29260746 -0.44116363 -0.009480059 0.57776695
0.18937567 0.4650038 0.28144217 -0.37704635 0.12415929 0.4809701 -0.41032726 0.43182382
-0.34108257 0.0016975906 -0.41523096 -0.21829543 -0.07861908 -0.041902244 -0.22842242 0.42144933
0.70053726 -0.31663755 0.34336534 0.7532099 0.06274833 0.20349684 -0.043468937 -0.15079819
0.034441378 -0.44259533 0.41259897 0.6362884 -0.33274135 -0.2678026 -0.28252056 -0.107385725
0.104497164 0.21463618 -0.24934241 -0.23796883 0.52919614 0.31544232 0.03177657 -0.12870806
-0.35257852 -0.30547807 -0.07394451 -0.3471973 -0.42073053 0.16797432 -0.3420186 -0.21246316
0.024886476 0.09162692 0.16221263 0.20519793 -0.34494463 0.79486394 -0.28478974 -0.29961812
-0.012298903 -0.11239456 -0.28439116 0.03120768 -0.34810635 -0.24145241 0.29062772 0.08002615
0.52756596 0.0828508 0.01893067 -0.38960043 -0.2042172 0.566259 -0.3439069 0.86074716
-0.16462353 -0.31500593 0.54259765 0.42291024 -0.23567125 -0.39009985 -0.34095597 -0.36778852
0.08540231 -0.4035382 0.6128169 0.7765252 0.35934085 0.002008468 -0.4956274 -0.3333628
0.23151538 -0.23313089 -0.44454932 0.38368133 -0.29738402 -0.0041119354 0.005894998 -0.24875866
-0.1568737 0.24564853 -0.1812151 -0.37277424 0.057768703 0.43657672 0.3657594 0.69378185
-0.118332386 0.3774638 0.7291484 0.5092383 -0.04506581 0.46117032 0.46908414 -0.30400097
-0.044069853 -0.23645961 -0.014571442 0.51010776 0.2578992 -0.1795795 0.16188894 -0.19590577
0.67105204 0.47670344 -0.18883005 -0.6230576 0.51853526 0.058936838 -0.04483973 -0.046117544
0.31835914 0.003695184 0.9608989 -0.39849547 0.17683713 -0.09053694 -0.35153502 0.005942684
0.26071665 -0.17021486 0.1842564 -0.036355533 0.5378768 0.3525789 0.18405484 0.06154924

Linear2.weight f4 [3, 256]
00000000: 7dff 6b3e 956a 4dbf 20d5 a73c 63f3 adbd
00000010: 3225 21bf 46cc 55bc a67b 2ebf bfe2 80bd
00000020: b0e2 81bd 6cb3 4bbd d02e 893e 988f b13e
00000030: 39e5 b23b 78bd 55bd ba6c 66bf 52df fc3c
00000040: a292 b83e 7012 dbbc daab 08be 16c1 1e3d
00000050: af57 b53e 1742 09bc 8fe9 b23e 1013 b8bd
00000060: 01c0 b13e 2277 98bc 9d84 0c3d 188c 343c
00000070: 58ae 463d c248 44bd 2444 aabc 705f 2ebd
00000080: 40fb 25bd dafe 823e 8a87 8abd 5601 5b3e
00000090: 24a0 db3e 3506 8b3e 6870 c13e 781d b83c
000000a0: fc07 823d 9589 b93e a640 79be 7235 e53d
000000b0: c855 1e3c dc43 71bd e9b0 b6bc 8f6f 80bd
000000c0: 2c7b f8bc 1841 2a3d ba3e c5bc 9db1 433d
000000d0: 57b5 1ebd b0ec 123d 58fc 4dbc a40e fcbc
000000e0: 1c4a 6abd 8bdf 7fbc f814 8c3d e259 5bbf
000000f0: 594b c8bd da0f 8d3e e150 a5be f1cd 32be
00000100: e8cf 93bc f86c 303d 584b 0dbc 504e 5d3d
00000110: 1067 743d 25d4 cc3e 0c99 c23c 974d 91bd
00000120: 4435 4c3c 5139 3dbf 399e fabd f45c c1be
00000130: 6367 9a3e 71a2 c03e 6576 543e be88 adbe
00000140: f827 883b 5dd3 393d 2a31 79bb bbb3 f13c
00000150: 5eb5 073d c57f 51bf d98a 8b3d 70e9 54be
00000160: d0db 74be bfa0 06c0 f036 bb3e 993a 773e
00000170: 0e1a 75bb 8c97 d53b a952 e3bc a8b2 ac3b
00000180: 21f3 843d 842d 4f3d b382 033c a491 0b3d
00000190: 4507 6dbd 50d0 503d f0ed cc3e ba5c 4abd
000001a0: d2d5 313d 92c1 863c 586e 37bd da1b 37bf
000001b0: 4380 c0bf 207b c13b 9040 adbc 3563 c73e
000001c0: c448 74bd 48b5 a43e 0de4 4c3e fe62 0dbd
000001d0: c314 89bc 61a6 8a3e 626a 893d a6a1 4fbf
000001e0: 748a b7bc 6376 b23e f46b 753d 4089 4abb
000001f0: 062c 343d 9cae ec3c a807 293c 94b5 7a3e
00000200: 141d db3e 86ca 2ebd eeb4 a23e 9d0e d63e
00000210: 51f4 8f3e 7294 babf 2ac3 8dbb 187c dbbc
00000220: 9931 ea3c dc27 403d bd96 8e3e 1fc5 923e
00000230: 28a0 4a3d aa65 49bd 48d9 e9bd 94f4 72bd
00000240: 7c26 183e 8692 1b3b 2437 353d e214 6c3d
00000250: 546e d53e 3324 b1be 07d1 713e 4822 a43c
00000260: bf09 82bd b0d1 e7bc 90a3 613d bfea ccbd
00000270: 10e8 4ebd cd5d 3bbd c85d 4bbd 84a1 213d
00000280: 025c a93d 0ef4 5cbd e247 39bd e9c0 8dbe
00000290: 0590 41bd 6c7b cc3e 1a29 9dbd ae37 02bd
000002a0: 168f 313d 4d25 183d e875 743c 762d 05bd
000002b0: 0452 563d fa49 783d 6211 b6be a6f7 ad3c
000002c0: 03b2 923e 9a9d 0e3c f8f5 0dbc 0e8c 2dbd
000002d0: 9602 babc 02c0 903e 0cbe 8ebc 57ef a73e
000002e0: e633 15bd b680 6cbd b80e 953e 1296 e1be
000002f0: ea8b 583d 5a43 6dbd 6647 64bd d700 b73d
00000300: d4eb a3bc 5b7d aeb9 419b 903e e1a4 a03e
00000310: a095 953e 74df 4b3d 4085 18bd 0503 04bc
00000320: d2e1 9e3e f8f9 e0bc 48f4 f0bc 314b c33e
00000330: b026 673d 3eaa 513e ac4a 593d 1402 7e3d
00000340: 28db 0fbc 5d7c 02bf 70b0 3e3c 9fce 9f3c
00000350: d8ee 2bbd 7f6c 593e 7c63 e8bf 6abc c73e
00000360: 0913 fbbc a8d7 713e 57f0 bd3e 64e5 b53e
00000370: 3655 603d 5080 8f3e 87d8 983e 7c44 0e3d
00000380: 1c68 073d ff0d aa3c e23f 87bf 6a79 ae3e
00000390: 7923 f0be fc19 dfbc 3929 6abf 20cb a43c
000003a0: d501 9c3e e050 893e 2485 06bd 1c6e 0ebe
000003b0: 1d50 bb3e c422 ac3d 45b4 1a3c 180b 0abc
000003c0: ed49 bc3e a6c1 143d 44de bc3e 2ead 3cbd
000003d0: 3041 803e 3937 e0bd 5d9f 33be 1c6f 89bd
000003e0: 26b1 1dbe 3ab8 06bd 78d8 5ebf 8896 50be
000003f0: 5769 8e3e 7ff3 b93e c31e 80bf 5ba1 de3d
0.2304668 -0.80240756 0.020487368 -0.08493688 -0.6294738 -0.013049191 -0.6815742 -0.062932484
-0.06342065 -0.049731657 0.26793528 0.34679866 0.0054594544 -0.052182645 -0.90009654 0.030868206
0.36049372 -0.02674219 -0.13346806 0.03875836 0.3541846 -0.008377573 0.34943816 -0.08988011
0.347168 -0.018611494 0.034306157 0.011019729 0.04850611 -0.04792095 -0.020784445 -0.042571485
-0.040522814 0.2558506 -0.06764133 0.21387228 0.42895615 0.27153173 0.37781072 0.02247499
0.06349179 0.3623778 -0.24341068 0.111918345 0.0096640065 -0.058902606 -0.022301154 -0.06271278
-0.03033217 0.041565984 -0.024077762 0.047776807 -0.038747158 0.035870254 -0.0125723705 -0.0307687
-0.057199582 -0.015617262 0.06839937 -0.85684025 -0.097799964 0.27551156 -0.32288268 -0.17461373
-0.018043473 0.04307267 -0.00862392 0.054029763 0.0596686 0.40005603 0.023754619 -0.07094877
0.012463871 -0.7391558 -0.1223721 -0.3776623 0.30157003 0.37623933 0.20748289 -0.33893389
0.0041551553 0.045367587 -0.0038023689 0.029504647 0.03313195 -0.81835586 0.068135925 -0.20792174
-0.23911977 -2.1035612 0.3656535 0.24143447 -0.0037399563 0.00651831 -0.027749376 0.005270321
0.06491686 0.050580516 0.008026767 0.03407444 -0.05786826 0.050979912 0.40025282 -0.049404837
0.043416806 0.016449723 -0.044782966 -0.71526873 -1.5039142 0.00590457 -0.02114895 0.38942876
-0.059639707 0.32169557 0.2000887 -0.034518234 -0.016733533 0.27080062 0.06709744 -0.8110603
-0.022404887 0.34855947 0.059917405 -0.0030904561 0.043987297 0.028891854 0.010316767 0.24483329
0.42795622 -0.04267361 0.31778663 0.41808024 0.28116086 -1.4576552 -0.004326244 -0.026792571
0.028588103 0.046913013 0.2784938 0.28666016 0.049469143 -0.04916922 -0.11418396 -0.05931528
0.1485843 0.0023738458 0.04424204 0.057637103 0.41685736 -0.3459793 0.23614894 0.020035878
-0.06349515 -0.028298229 0.055087626 -0.10005712 -0.05051428 -0.045743752 -0.049649984 0.039460674
0.08269502 -0.053943686 -0.04523457 -0.2768624 -0.04725649 0.39937913 -0.07673855 -0.03179138
0.043349348 0.037144948 0.014920689 -0.032514058 0.05232431 0.060617425 -0.35560137 0.021236252
0.28651437 0.008704567 -0.008664601 -0.042369895 -0.022706311 0.2827149 -0.017424606 0.3279979
-0.036426447 -0.057739936 0.29112792 -0.44059807 0.052867807 -0.05792556 -0.055732153 0.08935707
-0.020009913 -0.00033281263 0.2824345 0.31375793 0.29215717 0.04977365 -0.037236452 -0.008057361
0.31031662 -0.027462944 -0.029413357 0.38143304 0.05643338 0.20475098 0.05304973 0.0620137
-0.008780278 -0.50971013 0.011638746 0.019507704 -0.041975826 0.21232794 -1.815536 0.39010936
-0.030648725 0.23617423 0.37097427 0.35526574 0.054768763 0.28027582 0.29852697 0.03473328
0.03305827 0.020758627 -1.056637 0.34077007 -0.46902063 -0.02723407 -0.9146915 0.020116389
0.30470148 0.26819515 -0.032841817 -0.13909191 0.3658456 0.084050685 0.009442394 -0.0084254965
0.3677515 0.03631749 0.36888325 -0.046063595 0.25049734 -0.10948033 -0.17541261 -0.067106456
-0.15399608 -0.032890536 -0.87049055 -0.20369923 0.27814743 0.36318585 -1.0009388 0.1087062

Linear2.bias f4 [3]
00000000: 2c2e 753e 8ee1 b13e 1c3b b73e
0.23943394 0.34742397 0.35787284
