runs/run10/models/model801.pth (torch, 10959 bytes, 4 tensors)

Linear1.weight f4 [256, 5]
-0.09493181 0.36275464 0.1329442 0.05526891 0.014289091 0.44774655 1.119885 -1.7620974
0.17282611 -0.082991034 -0.19326597 -0.5920524 -0.27771157 -0.0010675393 0.020461727 -0.5959675
-0.33020464 0.012971463 -0.4217009 -0.56331295 -0.5568731 -0.7767874 0.8806869 0.25209594
-0.34277773 -0.21043383 -0.12214537 -0.0037318526 0.09534629 0.040247336 0.8675373 1.0162622
-1.513938 0.10017281 0.03035162 -0.45680252 0.06224402 -0.36376986 -0.48618928 0.19305056
-0.30176374 0.04529864 0.17200087 0.035495136 -0.39897123 -0.22579095 0.1612348 0.267575
-0.46905524 -0.066411816 0.18893322 0.48443753 0.3910623 0.24420604 -0.12502378 0.6349571
0.5498326 0.12031823 0.19796914 0.58975595 -0.3092715 -0.57625043 -0.23822054 -0.20905776
0.07748571 -0.13454843 0.13259888 -0.10490841 0.1985147 -0.2656768 0.22365136 1.184456
-1.9311322 -0.092581 0.05679033 -0.075143866 0.17242852 0.20111886 -0.12236562 0.027775535
0.73715997 0.3411385 -0.14238244 -0.10269266 0.6225946 -0.55869883 -0.4207514 0.15086618
-0.15294446 -0.39411658 0.18316868 0.019705905 -0.124979615 -0.39822057 -0.08483421 -0.085749984
-0.3817372 -0.2730698 0.0023018122 -0.100554615 0.5405247 0.46583888 0.35898772 0.016402053
0.6650489 0.2123885 -0.07656886 -0.49034852 0.24729589 0.26635 0.661988 0.6767651
0.6728047 0.36523718 0.59300894 0.16359854 -0.30445564 -0.5513217 -0.605963 0.16124707
0.6356195 -0.06264924 0.14484733 0.249642 0.32638198 -0.23927076 0.03526896 -0.0834564
0.3470362 -0.028251365 0.0022055602 -0.13732243 -0.11362343 -0.5277593 -0.43425465 0.3673849
-0.2999898 -0.12048346 -0.21691571 -0.2550538 0.39351928 0.14051831 -0.08676413 -0.16198888
-0.33253524 -0.020450056 0.35100448 0.2510007 0.062322676 0.0056809783 -0.23269117 -0.27210325
-0.16785395 -0.4128016 -0.046821594 -0.28118962 -0.21062516 -0.439321 -0.40029678 -0.2643054
-0.31217313 -0.31567025 -0.08989748 -0.14862782 0.28441918 0.4266409 0.3396259 0.39599216
-0.5227996 0.3040474 -0.034226548 -0.5007836 -0.4255275 0.16635732 0.32887486 -0.4525628
0.13776013 0.23881045 0.18735924 -0.0964658 0.60058767 0.18232118 -0.0009065797 -0.07930392
0.7273985 0.41877446 -0.09873109 -0.1910342 0.041976716 0.4674778 0.37367955 0.29628164
0.35816273 -0.06461716 0.9878709 -0.023046121 -0.0107401 0.107736744 0.08057044 0.00371208
-0.0998504 -0.12847227 0.22484529 0.043387514 0.044690203 0.7684174 0.35637814 0.49771166
-0.024765408 0.026273822 -0.084112875 0.3362448 -0.3665187 -0.34040385 -0.07714898 0.14414011
-0.2854575 -0.5269717 -0.3100669 0.06814753 0.17352861 0.12975103 -0.4468888 -0.44308308
-0.37506437 0.14140275 -0.053330813 -0.04083665 0.25868797 -0.24094583 -0.08636368 -0.24589221
0.2857712 0.23963945 -0.0019368194 -0.31172356 -0.60346514 -0.22943366 -0.42644495 0.08544738
-0.19147688 -0.33110398 -0.30540943 -0.091918975 -0.109250754 -0.14700085 -0.2181992 -0.08715469
-0.21985768 0.031472117 -0.23903711 0.041536525 -0.024246622 0.3000686 -0.20535839 -0.09759286
00000000: 9c6b c2bd faba b93e 8622 083e a761 623d
00000010: cb1c 6a3c 093f e53e 6458 8f3f 688c e1bf
00000020: 54f9 303e 34f7 a9bd 84e7 45be bf90 17bf
00000030: 3630 8ebe adec 8bba 5a9f a73c 5391 18bf
00000040: 9510 a9be 4286 543c 2ee9 d7be 4735 10bf
00000050: 3c8f 0ebf 8adb 46bf b274 613f b812 813e
00000060: 9080 afbe f77b 57be 5a27 fabd 1992 74bb
00000070: ea44 c33d 64da 243d ed16 5e3f e114 823f
00000080: b8c8 c1bf 6727 cd3d f6a3 f83c 05e2 e9be
00000090: 96f3 7e3d 0b40 babe cded f8be 0caf 453e
000000a0: c780 9abe 118b 393d ff20 303e 5963 113d
000000b0: f545 ccbe be35 67be bc1a 253e 97ff 883e
000000c0: 0228 f0be eb02 88bd b677 413e 3208 f83e
000000d0: 5139 c83e 2611 7a3e 3c06 00be 8c8c 223f
000000e0: d4c1 0c3f 6769 f63d 6cb8 4a3e 3ffa 163f
000000f0: d658 9ebe 2685 13bf 16f0 73be 3d13 56be
00000100: d4b0 9e3d 10c7 09be 00c8 073e 38da d6bd
00000110: 7047 4b3e ca06 88be dd04 653e 419c 973f
00000120: 572f f7bf 1b9b bdbd fa9c 683d 07e5 99bd
00000130: 1a91 303e 1af2 4d3e d49a fabd 8589 e33c
00000140: 84b6 3c3f b5a9 ae3e b4cc 11be 8850 d2bd
00000150: 5c62 1f3f e306 0fbf ba6c d7be aa7c 1a3e
00000160: 799d 1cbe a6c9 c9be 9290 3b3e 476e a13c
00000170: 50f5 ffbd 91e3 cbbe 8fbd adbd b09d afbd
00000180: 0f73 c3be cecf 8bbe 00da 163b 94ef cdbd
00000190: d45f 0a3f 6f82 ee3e 3dcd b73e 995d 863c
000001a0: a540 2a3f 5f7c 593e 22d0 9cbd f60e fbbe
000001b0: 223b 7d3e 075f 883e 0c78 293f 7a40 2d3f
000001c0: ee3c 2c3f 5e00 bb3e 6fcf 173f 6086 273e
000001d0: 9ce1 9bbe 6b23 0dbf 6420 1bbf f41d 253e
000001e0: f6b7 223f 3f4e 80bd dc52 143e 27a2 7f3e
000001f0: 8a1b a73e 6503 75be 2f76 103d 30eb aabd
00000200: bbae b13e 686f e7bc 298b 103b 409e 0cbe
00000210: 67b3 e8bd 3c1b 07bf a056 debe e019 bc3e
00000220: 4398 99be 08c0 f6bd 271f 5ebe 6996 82be
00000230: 5c7b c93e 08e4 0f3e 64b1 b1bd 6ae0 25be
00000240: 0f42 aabe e086 a7bc dcb6 b33e 2a83 803e
00000250: 1046 7f3d 8027 ba3b 9846 6ebe 1e51 8bbe
00000260: e8e1 2bbe bb5a d3be 00c8 3fbd 16f8 8fbe
00000270: 1fae 57be afee e0be b3f3 ccbe 0a53 87be
00000280: 28d5 9fbe 889f a1be 2c1c b8bd e431 18be
00000290: 649f 913e ad70 da3e 72e3 ad3e 7cbf ca3e
000002a0: 32d6 05bf 1aac 9b3e 2331 0cbd 5b33 00bf
000002b0: bede d9be 9359 2a3e 4962 a83e 50b6 e7be
000002c0: fe10 0d3e ba8a 743e 1adb 3f3e dd8f c5bd
000002d0: 1dc0 193f 67b2 3a3e 89a7 6dba 186a a2bd
000002e0: ca36 3a3f 9b69 d63e 8733 cabd 789e 43be
000002f0: c7ef 2b3d 4059 ef3e ed52 bf3e 3ab2 973e
00000300: 1b61 b73e 0056 84bd 1be5 7c3f 38cb bcbc
00000310: 3ff7 2fbc 15a5 dc3d 1d02 a53d 5e46 733b
00000320: 5e7e ccbd 3c8e 03be d83d 663e 1bb7 313d
00000330: 130d 373d 01b7 443f 3277 b63e 10d4 fe3e
00000340: d3e0 cabc 333c d73c 5f43 acbd 4728 ac3e
00000350: 57a8 bbbe 6a49 aebe 4900 9ebd 7799 133e
00000360: 7c27 92be 9ee7 06bf 17c1 9ebe ef90 8b3d
00000370: 7cb1 313e 74dd 043e 9cce e4be c9db e2be
00000380: 7008 c0be e2cb 103e 6971 5abd 5544 27bd
00000390: c072 843e 81ba 76be 71df b0bd 2bcb 7bbe
000003a0: 9a50 923e 0b64 753e e0dc fdba 3b9a 9fbe
000003b0: b17c 1abf a8f0 6abe fe56 dabe 09ff ae3d
000003c0: 8412 44be 7686 a9be a05e 9cbe 0440 bcbd
000003d0: dcbe dfbd 6487 16be 9c6f 5fbe 287e b2bd
000003e0: 5f22 61be e8e8 003d 25c6 74be 3422 2a3d
000003f0: daa0 c6bc 97a2 993e 7849 52be c4de c7bd

Linear1.bias f4 [256]
0.24125534 0.016513832 0.14129953 0.018607488 0.12643737 -0.06761982 -0.0752585 -0.013868754
-0.0802291 -0.15298967 0.22605534 -0.07186463 0.15551355 -0.32199848 0.23675878 -0.1933422
0.33499828 -0.1691173 -0.41512042 -0.23833595 0.27306467 -0.44062635 0.20545052 -0.23418672
0.59092665 -0.3393228 0.28240684 -0.25285298 -0.31096914 -0.43294528 -0.3681441 -0.14938363
-0.38468528 0.27243507 -0.20521262 0.3724528 0.68652207 0.3169529 0.6671664 -0.20296173
-0.24198033 0.5193827 -0.2834832 -0.14507371 -0.3822271 -0.02032747 -0.45341408 0.25569955
-0.41540802 -0.023104846 -0.20707387 -0.07047127 -0.048318624 -0.096936285 -0.29417968 -0.27550757
-0.0027548103 -0.17895646 -0.4847571 0.11997936 -0.19102544 0.56013536 0.43358052 0.23162676
-0.44586012 -0.5137725 -0.31225604 -0.23202498 -0.115846366 0.8253385 -0.3183579 -0.053767152
-0.114468634 0.38767692 -0.24723162 -0.20061518 0.6472704 -0.14504835 0.25013596 0.2581513
-0.10143865 -0.30795854 -0.030440755 0.118478596 0.0010489523 0.40243316 -0.112017065 -0.2917098
0.15572633 0.095844336 0.49910903 0.24563506 0.17826672 -0.19913885 -0.06871975 -0.0063961507
-0.5312234 -0.44073558 0.023409382 -0.15483686 0.011555046 0.014519304 0.79823595 -0.3136456
-0.11631605 -0.16587082 -0.430979 -0.19572434 0.2906804 -0.44116363 -0.009480059 0.5707976
0.19550636 0.4576972 0.27454066 -0.37704635 0.12415929 0.47373995 -0.41032726 0.4311675
-0.34108257 -0.005270046 -0.41523096 -0.21829543 -0.07861908 -0.041902244 -0.22842242 0.41416305
0.6932844 -0.31663755 0.3360799 0.74592954 0.05610521 0.20258406 -0.043468937 -0.15079819
0.040615294 -0.44259533 0.4053133 0.62896246 -0.33274135 -0.2678026 -0.28252056 -0.107385725
0.104497164 0.22137243 -0.24934241 -0.23796883 0.5218538 0.31314507 0.02466858 -0.12870806
-0.35257852 -0.30547807 -0.07394451 -0.34305906 -0.42073053 0.15851034 -0.3420186 -0.21246316
0.024886476 0.09162692 0.15820168 0.21357648 -0.34494463 0.78756773 -0.28478974 -0.29961812
-0.012298903 -0.11239456 -0.28439116 0.03120768 -0.34810635 -0.24145241 0.29294574 0.08002615
0.5202567 0.0828508 0.01893067 -0.38960043 -0.2042172 0.5590332 -0.3439069 0.85346484
-0.16462353 -0.31500593 0.5355194 0.42577544 -0.23567125 -0.39009985 -0.34095597 -0.36778852
0.08540231 -0.4035382 0.60551035 0.76921475 0.35261655 0.002008468 -0.4956274 -0.3333628
0.22418123 -0.23313089 -0.44454932 0.37659004 -0.29738402 -0.011020967 0.005894998 -0.24875866
-0.1568737 0.25417343 -0.1812151 -0.37277424 0.057768703 0.42969516 0.36578134 0.68664783
-0.118332386 0.37042406 0.7217911 0.50217086 -0.04506581 0.45384428 0.46225324 -0.30400097
-0.044069853 -0.23645961 -0.024898164 0.50304013 0.25310516 -0.1795795 0.17433707 -0.19590577
0.663772 0.4698759 -0.18883005 -0.6230576 0.51185554 0.058936838 -0.04483973 -0.046117544
0.31153804 0.003695184 0.95357245 -0.39849547 0.16993925 -0.09599892 -0.35153502 0.005942684
0.2758654 -0.17021486 0.17929907 -0.036355533 0.53064716 0.34575313 0.18022527 0.06154924
00000000: a40b 773e 0448 873c d3b0 103e bb6e 983c
00000010: cc78 013e 437c 8abd 2121 9abd c539 63bc
00000020: 284f a4bd 53a9 1cbe 0d7b 673e c32d 93bd
00000030: f23e 1f3e fcdc a4be e570 723e 7ffb 45be
00000040: e584 ab3e 162d 2dbe aa8a d4be 570e 74be
00000050: 22cf 8b3e c799 e1be 9f61 523e a5ce 6fbe
00000060: f846 173f b8bb adbe a197 903e f275 81be
00000070: 5937 9fbe 01ab ddbe 627d bcbe 06f8 18be
00000080: 78f5 c4be 9c7c 8b3e 4223 52be 22b2 be3e
00000090: e9bf 2f3f a747 a23e 6bcb 2a3f 33d5 4fbe
000000a0: b1c9 77be 44f6 043f b624 91be 348e 14be
000000b0: 45b3 c3be cb85 a6bc e425 e8be 0deb 823e
000000c0: 5cb0 d4be 6046 bdbc 2c0b 54be 3e53 90bd
000000d0: c0e9 45bd 8886 c6bd b89e 96be 540f 8dbe
000000e0: 0c8a 34bb 5d40 37be 1532 f8be bdb7 f53d
000000f0: 2c9c 43be 0865 0f3f 44fe dd3e 912f 6d3e
00000100: c747 e4be 9886 03bf 06e0 9fbe f597 6dbe
00000110: dc40 edbd 6249 533f cfff a2be f23a 5cbd
00000120: 886e eabd 977d c63e 492a 7dbe 116e 4dbe
00000130: 83b3 253f 8e87 14be d211 803e 682c 843e
00000140: 11bf cfbd beac 9dbe e45e f9bc e8a4 f23d
00000150: 007d 893a b80b ce3e 3469 e5bd fd5a 95be
00000160: b976 1f3e 094a c43d 388b ff3e c287 7b3e
00000170: 8d8b 363e 0eeb 4bbe f1bc 8cbd cd96 d1bb
00000180: 42fe 07bf 18a8 e1be 08c5 bf3c 8e8d 1ebe
00000190: 6051 3d3c 60e2 6d3c 3159 4c3f 2896 a0be
000001a0: 1c37 eebd 0ada 29be 48a9 dcbe f66b 48be
000001b0: 10d4 943e 33e0 e1be 4052 1bbc cb1f 123f
000001c0: d232 483e 4a57 ea3e 9890 8c3e 380c c1be
000001d0: 3a47 fe3d 0b8e f23e 6a16 d2be fdc1 dc3e
000001e0: 60a2 aebe 5ab0 acbb 2799 d4be d688 5fbe
000001f0: 0a03 a1bd b0a1 2bbd 91e7 69be 2e0d d43e
00000200: 167b 313f 511e a2be aa12 ac3e 3df5 3e3f
00000210: 94ce 653d 3272 4f3e 7c0c 32bd d76a 1abe
00000220: 395c 263d db9b e2be 3a85 cf3e af03 213f
00000230: 135d aabe 6c1d 89be 89a6 90be 0ced dbbd
00000240: 9c02 d63d 74af 623e 9e53 7fbe 1aae 73be
00000250: 3698 053f 8d54 a03e c315 ca3c 0ccc 03be
00000260: 2c85 b4be 9f67 9cbe 3870 97bd 70a5 afbe
00000270: fe69 d7be 8950 223e 101d afbe f18f 59be
00000280: b9de cb3c e5a6 bb3d 9fff 213e cbb3 5a3e
00000290: 959c b0be 0a9e 493f f6cf 91be 8c67 99be
000002a0: 5781 49bc 1e2f e6bd b89b 91be 40a7 ff3c
000002b0: ff3a b2be 4d3f 77be fcfc 953e c0e4 a33d
000002c0: 8b2f 053f aead a93d 7e14 9b3c b579 c7be
000002d0: 501e 51be cd1c 0f3f 9114 b0be ac7c 5a3f
000002e0: 1293 28be 7548 a1be cd17 093f 3dff d93e
000002f0: ce53 71be 2bbb c7be c891 aebe c74e bcbe
00000300: 68e7 ae3d 8f9c cebe ba02 1b3f 42eb 443f
00000310: 288a b43e 80a0 033b e0c2 fdbe 87ae aabe
00000320: c48f 653e ddb9 6ebe f89b e3be 69d0 c03e
00000330: b842 98be 4991 34bc d42a c13b 97ba 7ebe
00000340: 80a3 20be 0523 823e 7490 39be 44dc bebe
00000350: e09e 6c3d 0101 dc3e b147 bb3e 27c8 2f3f
00000360: 4058 f2bd 39a8 bd3e 4dc7 383f 458e 003f
00000370: ed96 38bd 475e e83e 75ac ec3e 04a6 9bbe
00000380: 9782 34bd 7822 72be 3cf7 cbbc 3dc7 003f
00000390: 0097 813e b0e3 37be 6b85 323e 869b 48be
000003a0: f6ec 293f 9393 f03e aa5c 41be b480 1fbf
000003b0: f708 033f c167 713d dda9 37bd c0e5 3cbd
000003c0: ea81 9f3e e62a 723b 531d 743f 9907 ccbe
000003d0: 8e04 2e3e 159b c4bd 66fc b3be d9ba c23b
000003e0: 3b3e 8d3e ce4c 2ebe 2d9a 373e 8ae9 14bd
000003f0: 7ed8 073f 8e06 b13e f98c 383e 0e1b 7c3d

Linear2.weight f4 [3, 256]
0.22711708 -0.793225 0.020487368 -0.08493688 -0.6154543 -0.013049191 -0.6716825 -0.062932484
-0.06342065 -0.049731657 0.26699373 0.34649387 0.0054594544 -0.052182645 -0.8936323 0.030868206
0.36128184 -0.02674219 -0.13346806 0.03875836 0.35404503 -0.008377573 0.3489587 -0.08988011
0.34768325 -0.018611494 0.034306157 0.011019729 0.04850611 -0.04792095 -0.020784445 -0.042571485
-0.040522814 0.2592483 -0.067364514 0.20700899 0.42894596 0.27182326 0.3769436 0.02247499
0.06349179 0.36427894 -0.24341068 0.111918345 0.0096640065 -0.04413337 -0.022301154 -0.06271278
-0.03033217 0.041565984 -0.024077762 0.047776807 -0.038747158 0.035870254 -0.0125723705 -0.0307687
-0.057199582 -0.015617262 0.06839937 -0.838192 -0.097799964 0.27353355 -0.31321517 -0.17461373
-0.018043473 0.04307267 -0.00862392 0.054029763 0.0596686 0.40033224 0.023754619 -0.07094877
0.015159614 -0.73842204 -0.1223721 -0.35390097 0.30140746 0.37800792 0.20908087 -0.31280294
0.0041551553 0.045367587 -0.0038023689 0.029504647 0.03313195 -0.8132987 0.068135925 -0.20792174
-0.22542137 -2.0554304 0.369938 0.2386473 -0.0037399563 0.00651831 -0.027749376 0.005270321
0.06491686 0.050580516 0.008026767 0.03407444 -0.05786826 0.050979912 0.4001912 -0.049404837
0.043416806 0.016449723 -0.044782966 -0.6965402 -1.4636877 0.00590457 -0.02114895 0.39112929
-0.05545822 0.32149753 0.20275725 -0.034518234 -0.016733533 0.2689716 0.06709744 -0.7924973
-0.022404887 0.35000354 0.059917405 -0.0030904561 0.043987297 0.028891854 0.010316767 0.24247023
0.4290154 -0.04267361 0.31770644 0.41830996 0.2834147 -1.410572 -0.004326244 -0.026792571
0.028588103 0.046913013 0.27597097 0.28477746 0.049469143 -0.04916922 -0.11418396 -0.05931528
0.1485843 0.0032768387 0.04424204 0.057637103 0.41673937 -0.31510383 0.23628174 0.020035878
-0.06349515 -0.028298229 0.055087626 -0.102170534 -0.05051428 -0.04043781 -0.049649984 0.039460674
0.08269502 -0.053943686 -0.04336097 -0.2849837 -0.04725649 0.39977038 -0.07673855 -0.03179138
0.043349348 0.037144948 0.014920689 -0.032514058 0.05232431 0.060617425 -0.34438238 0.021236252
0.2855978 0.008704567 -0.008664601 -0.042369895 -0.022706311 0.2812009 -0.017424606 0.32627377
-0.036426447 -0.057739936 0.29331192 -0.42095903 0.052867807 -0.05792556 -0.055732153 0.08935707
-0.020009913 -0.00033281263 0.28010735 0.3124016 0.29432896 0.04977365 -0.037236452 -0.008057361
0.30977517 -0.027462944 -0.029413357 0.3830289 0.05643338 0.20061828 0.05304973 0.0620137
-0.008780278 -0.51752925 0.011638746 0.019507704 -0.041975826 0.20729043 -1.7654896 0.39150414
-0.030648725 0.2289653 0.3708345 0.35677853 0.054768763 0.27766585 0.3017323 0.03473328
0.03305827 0.020758627 -1.0404414 0.34182578 -0.45123097 -0.02723407 -0.9255034 0.020116389
0.30206618 0.2712807 -0.032841817 -0.13909191 0.3690657 0.084050685 0.009442394 -0.0084254965
0.3713045 0.03631749 0.36899653 -0.046063595 0.25314084 -0.10363048 -0.17541261 -0.067106456
-0.15632547 -0.032890536 -0.8767261 -0.20369923 0.27563712 0.36555865 -0.98210114 0.1087062
00000000: 6191 683e cb10 4bbf 20d5 a73c 63f3 adbd
00000010: 6a8e 1dbf 46cc 55bc 62f3 2bbf bfe2 80bd
00000020: b0e2 81bd 6cb3 4bbd 67b3 883e a567 b13e
00000030: 39e5 b23b 78bd 55bd 16c5 64bf 52df fc3c
00000040: eff9 b83e 7012 dbbc daab 08be 16c1 1e3d
00000050: 6445 b53e 1742 09bc b7aa b23e 1013 b8bd
00000060: 8a03 b23e 2277 98bc 9d84 0c3d 188c 343c
00000070: 58ae 463d c248 44bd 2444 aabc 705f 2ebd
00000080: 40fb 25bd 31bc 843e 68f6 89bd 2afa 533e
00000090: ce9e db3e 6b2c 8b3e c0fe c03e 781d b83c
000000a0: fc07 823d c582 ba3e a640 79be 7235 e53d
000000b0: c855 1e3c 31c5 34bd e9b0 b6bc 8f6f 80bd
000000c0: 2c7b f8bc 1841 2a3d ba3e c5bc 9db1 433d
000000d0: 57b5 1ebd b0ec 123d 58fc 4dbc a40e fcbc
000000e0: 1c4a 6abd 8bdf 7fbc f814 8c3d c093 56bf
000000f0: 594b c8bd 970c 8c3e bd5d a0be f1cd 32be
00000100: e8cf 93bc f86c 303d 584b 0dbc 504e 5d3d
00000110: 1067 743d 59f8 cc3e 0c99 c23c 974d 91bd
00000120: 0860 783c 3a09 3dbf 399e fabd 8232 b5be
00000130: 1452 9a3e 418a c13e 4c19 563e b527 a0be
00000140: f827 883b 5dd3 393d 2a31 79bb bbb3 f13c
00000150: 5eb5 073d 5834 50bf d98a 8b3d 70e9 54be
00000160: dcd4 66be 2c8c 03c0 8368 bd3e f55f 743e
00000170: 0e1a 75bb 8c97 d53b a952 e3bc a8b2 ac3b
00000180: 21f3 843d 842d 4f3d b382 033c a491 0b3d
00000190: 4507 6dbd 50d0 503d dce5 cc3e ba5c 4abd
000001a0: d2d5 313d 92c1 863c 586e 37bd 7550 32bf
000001b0: 1e5a bbbf 207b c13b 9040 adbc 1942 c83e
000001c0: 2928 63bd 539b a43e 999f 4f3e fe62 0dbd
000001d0: c314 89bc a5b6 893e 626a 893d 1ae1 4abf
000001e0: 748a b7bc aa33 b33e f46b 753d 4089 4abb
000001f0: 062c 343d 9cae ec3c a807 293c 1e4a 783e
00000200: e8a7 db3e 86ca 2ebd 6baa a23e b92c d63e
00000210: bb1b 913e a08d b4bf 2ac3 8dbb 187c dbbc
00000220: 9931 ea3c dc27 403d 114c 8d3e 5ace 913e
00000230: 28a0 4a3d aa65 49bd 48d9 e9bd 94f4 72bd
00000240: 7c26 183e 3bc0 563b 2437 353d e214 6c3d
00000250: dd5e d53e 4a55 a1be d7f3 713e 4822 a43c
00000260: bf09 82bd b0d1 e7bc 90a3 613d c93e d1bd
00000270: 10e8 4ebd 1ea2 25bd c85d 4bbd 84a1 213d
00000280: 025c a93d 0ef4 5cbd 469b 31bd 62e9 91be
00000290: 0590 41bd b4ae cc3e 1a29 9dbd ae37 02bd
000002a0: 168f 313d 4d25 183d e875 743c 762d 05bd
000002b0: 0452 563d fa49 783d e352 b0be a6f7 ad3c
000002c0: e039 923e 9a9d 0e3c f8f5 0dbc 0e8c 2dbd
000002d0: 9602 babc 90f9 8f3e 0cbe 8ebc 5b0d a73e
000002e0: e633 15bd b680 6cbd fb2c 963e f187 d7be
000002f0: ea8b 583d 5a43 6dbd 6647 64bd d700 b73d
00000300: d4eb a3bc 5b7d aeb9 3b6a 8f3e 1af3 9f3e
00000310: 49b2 963e 74df 4b3d 4085 18bd 0503 04bc
00000320: da9a 9e3e f8f9 e0bc 48f4 f0bc 5d1c c43e
00000330: b026 673d e16e 4d3e ac4a 593d 1402 7e3d
00000340: 28db 0fbc cc7c 04bf 70b0 3e3c 9fce 9f3c
00000350: d8ee 2bbd f143 543e 90fb e1bf 3b73 c83e
00000360: 0913 fbbc e175 6a3e 05de bd3e adab b63e
00000370: 3655 603d 382a 8e3e a87c 9a3e 7c44 0e3d
00000380: 1c68 073d ff0d aa3c 2f2d 85bf ca03 af3e
00000390: bf07 e7be fc19 dfbc caed 6cbf 20cb a43c
000003a0: 6ba8 9a3e 4ee5 8a3e 2485 06bd 1c6e 0ebe
000003b0: 2ef6 bc3e c422 ac3d 45b4 1a3c 180b 0abc
000003c0: a01b be3e a6c1 143d 1ded bc3e 2ead 3cbd
000003d0: ad9b 813e 383c d4bd 5d9f 33be 1c6f 89bd
000003e0: c913 20be 3ab8 06bd 1f71 60bf 8896 50be
000003f0: 4f20 8d3e 812a bb3e fb6a 7bbf 5ba1 de3d

Linear2.bias f4 [3]
0.23825242 0.34433568 0.35597658
00000000: 71f8 733e c44c b03e 9042 b63e
