runs/run1/models/model401.pth (torch, 10959 bytes, 4 tensors)

Linear1.weight f4 [256, 5]
000000 b0 e1 9a 3e 9f 08 84 3e 79 e8 04 bc cf 54 da be
       0.3025031 0.25787827 -0.008112066 -0.4264283
000010 ad e2 c8 be ba 91 32 3e 8d 30 e2 3e 57 2a 9d 3e
       -0.3923544 0.17438403 0.44177666 0.30696365
000020 07 8b d5 be 09 7c 84 3e 4b bd b6 bc f1 9a 1e be
       -0.41707632 0.2587588 -0.022307059 -0.15488793
000030 64 76 b5 3d d7 85 9b 3e d9 bf ac 3e 20 7e 2f bd
       0.08860472 0.3037555 0.33740118 -0.04284489
000040 51 33 c5 be 74 83 b6 bd 70 f4 80 bd cd 4a cd be
       -0.38515714 -0.089117914 -0.06296623 -0.4009613
000050 73 32 f0 bd 32 ba ba be 84 49 27 bd 13 51 d4 3e
       -0.117283724 -0.3647018 -0.040841594 0.41468105
000060 cf 78 92 3e c2 cf 4c 3d aa 3a ba 3e bd ab 82 be
       0.28607795 0.05000282 0.36372882 -0.2552165
000070 1d 99 be 3e bc 09 89 bc 2e f2 8e be 7d 8e 63 be
       0.3722619 -0.016728275 -0.27919143 -0.22222324
000080 7a d9 87 be 9c 87 1b be c4 7c 34 be 4d 6d a7 bc
       -0.2653311 -0.1518845 -0.1762572 -0.02043786
000090 2e 5f 74 bd 65 29 39 3e d8 8c e4 3e 58 38 3b 3c
       -0.059661083 0.18082197 0.44638705 0.011427008
0000a0 d0 4b 95 be c6 62 d9 3e b0 a8 e1 be c4 40 9c be
       -0.29159403 0.4245817 -0.4407401 -0.30518162
0000b0 91 96 08 be f8 dd c7 3d 28 e1 85 bd 78 7e 19 bd
       -0.13338687 0.09759134 -0.06537086 -0.037474126
0000c0 6c 8d 50 3e e4 26 8f be 24 a2 c9 be 0c d7 07 be
       0.20366448 -0.2795936 -0.39381516 -0.13265628
0000d0 40 5e 6d 3d cc d2 6e 3e e5 7f 51 be 32 c7 d2 3e
       0.057951212 0.233226 -0.20458944 0.411676
0000e0 00 48 95 be 94 25 2b 3e e6 c9 a5 be c5 d7 ad be
       -0.29156494 0.16713554 -0.323806 -0.33953682
0000f0 0e 46 bc be 58 63 5e 3e b9 f0 c6 be 2b 2f 33 bd
       -0.36772197 0.21717584 -0.38855532 -0.043746155
000100 55 aa 05 3d 58 26 2d be f1 dd 4c be 10 a6 19 3d
       0.032633144 -0.16909158 -0.20006539 0.037511885
000110 00 75 d3 3a 50 f5 ba 3d 8b 97 bf be a4 65 7e 3e
       0.0016132891 0.09128821 -0.37420306 0.2484346
000120 c8 d3 4c 3d 66 1c aa 3e ba 0c a3 be f8 1a 24 3d
       0.050006658 0.3322479 -0.31845647 0.040064782
000130 40 22 8f bd 09 ea 83 be 90 0f d1 3d 49 37 dc be
       -0.069889545 -0.25764492 0.102080464 -0.4301093
000140 72 a2 6d 3e 5a 92 3b 3e 30 6b d8 be 42 1e c3 3e
       0.23206499 0.18317547 -0.42269278 0.38109022
000150 af 1f 77 3e 55 5f ad 3e 78 b7 b3 be 35 b4 5f be
       0.2413318 0.33861795 -0.35100913 -0.21846087
000160 a3 ce de 3e 9d c6 51 3b ca 4b e2 be c8 fc 2e 3d
       0.43517026 0.0032009252 -0.44198447 0.04272154
000170 45 75 6d be 76 fb 74 be c0 b8 12 3e de 60 cf 3e
       -0.23189266 -0.2392405 0.14328289 0.4050359
000180 e8 4b 94 3e 43 99 b0 be 9d 16 27 3e 0f 2d 83 bd
       0.28964162 -0.3449193 0.1631722 -0.064050786
000190 40 8c b0 bd 00 36 bd be c9 1e ab 3d 60 d7 b1 3e
       -0.086205006 -0.3695526 0.08355481 0.3473463
0001a0 66 43 81 3e 95 79 b0 3e 82 5f d3 be 70 2c 8a 3e
       0.25246733 0.3446776 -0.41283804 0.26987028
0001b0 1b 11 56 be 43 30 4b be c0 7a a0 bb f6 37 82 3e
       -0.20904963 -0.19842629 -0.0048974454 0.2543332
0001c0 98 08 cf 3e 2a 49 c8 be d0 0a 57 3d 94 a7 1f be
       0.40436244 -0.3911832 0.052500546 -0.1559127
0001d0 80 e4 23 3b 98 ab 3f be 48 82 7b bd 05 48 93 be
       0.0025008023 -0.18717802 -0.061403543 -0.28765884
0001e0 22 b8 56 3e aa a3 e2 bc fa 99 02 be 7b 7c 9b be
       0.20968679 -0.027665932 -0.1275405 -0.3036841
0001f0 09 28 d4 be 73 21 a8 3e 79 18 86 be 52 ba ce 3e
       -0.41436794 0.3283802 -0.26190546 0.40376526
000200 ab 54 da 3e 43 a7 5a 3e 0e 82 68 be f2 11 be 3b
       0.42642722 0.21352868 -0.22705862 0.005800479
000210 a4 90 89 3e 75 4e 0e 3e 06 5f de be 04 dd c3 be
       0.26868165 0.13897116 -0.43431872 -0.3825456
000220 8a 4a bd be 86 ea 06 3e e4 16 48 b9 e5 ed b8 3e
       -0.3697093 0.13175401 -0.00019082014 0.36119
000230 97 b1 96 3b 81 1e 51 be 4b 95 a1 be cf 52 05 be
       0.004598807 -0.20421793 -0.31559214 -0.1301987
000240 69 20 27 3d 70 dc d9 bc 94 fb 33 be 68 40 bb 3d
       0.040802393 -0.02659437 -0.17576438 0.09143144
000250 58 f7 c3 3d 20 72 66 3c 7f 65 ea bd b1 9d 0c bd
       0.095686615 0.014065295 -0.1144514 -0.034330074
000260 66 a3 18 3e 03 16 13 bd 6b 6d bf be a8 85 2c be
       0.14906082 -0.035909664 -0.37388167 -0.16847861
000270 a8 49 88 3d 80 34 c4 3d 08 2f df be 7e f0 dc 3e
       0.06654674 0.09580326 -0.4359057 0.4315223
000280 24 35 5f 3e eb 01 cd be 80 c8 a6 3e bb 04 b7 3d
       0.21797615 -0.40040526 0.32574844 0.08936449
000290 cf 00 fc 3c 13 64 c5 3e 5a 5d 9c be 77 d0 ab be
       0.030762104 0.38552913 -0.30539972 -0.33557484
0002a0 c4 d0 43 be 5f d5 d7 3e bd ca da 3d 4e 61 dc be
       -0.19122607 0.42154977 0.106832005 -0.43042988
0002b0 68 d5 46 bd 48 58 f4 3c 58 8b d4 3e 40 ff e5 3c
       -0.048543364 0.029827252 0.4151256 0.028075814
0002c0 4d 52 b0 be f8 09 22 be 52 3d 7a be 0a eb d2 3e
       -0.3443779 -0.15824115 -0.24437454 0.41194946
0002d0 cc 9e d6 3e 03 eb d2 be 78 e9 a8 be 08 48 06 bd
       0.41918027 -0.41194925 -0.32990623 -0.032783538
0002e0 55 b1 55 be c9 8d ca be 79 96 8e be eb 7f 77 3e
       -0.20868428 -0.39561298 -0.27849177 0.2416989
0002f0 24 56 63 3e 53 75 7e be cb b8 91 bd 23 87 9d 3d
       0.22200829 -0.24849443 -0.071153246 0.07691791
000300 b5 a1 5a be 4c ea cf 3e 42 ef 8f be c0 0d ee 3d
       -0.21350749 0.40608442 -0.28112227 0.11623716
000310 62 d7 8c 3e a0 48 0c 3e 90 15 d3 be 72 8c b0 3d
       0.27508074 0.13699579 -0.41227388 0.08620538
000320 50 51 17 3d 4f 04 a3 be 65 18 5b be 90 44 3f 3e
       0.03694278 -0.31839225 -0.21396025 0.18678498
000330 d4 7a 8f be 20 0b 6e 3c 48 6b 17 3e ba 21 81 be
       -0.28023398 0.01452902 0.14787018 -0.25221044
000340 a0 53 62 bc f5 12 cb be dd 37 67 be b4 0c 78 3e
       -0.013813883 -0.396629 -0.22579904 0.24223596
000350 0c e7 75 3e 42 54 e2 be e6 5b 07 be 2f 0a 7f 3e
       0.24013919 -0.4420491 -0.1321865 0.24906228
000360 58 27 d1 bd 18 37 e4 3e 61 91 44 3e 3e ce c9 be
       -0.10212582 0.44573283 0.19196083 -0.39415163
000370 f8 9c 7f 3e cf 36 38 be 2b 99 98 3e ee 13 a3 bb
       0.24962223 -0.17989658 0.29804358 -0.004976741
000380 0b ad d6 3e 56 96 b6 3e dc c7 4c 3e d0 c5 e6 be
       0.41928896 0.35661572 0.19998115 -0.45072794
000390 b6 9c 67 3e b2 4d f4 bd 11 2e 29 be a0 22 cc be
       0.22618374 -0.11928882 -0.16521479 -0.39870167
0003a0 16 63 23 3e 2c fb c5 be e4 be d8 be b4 b7 4c 3e
       0.15955767 -0.3866819 -0.42333138 0.19991952
0003b0 5c cd a1 be ef 1a c2 bd d2 ad 73 be 1d 26 c8 3e
       -0.3160199 -0.094777934 -0.23796776 0.39091578
0003c0 7f db 4d 3d 3d d3 c9 3e ed 18 3c be d0 f0 b6 3d
       0.050258156 0.39418975 -0.18368883 0.0893265
0003d0 1b 14 f2 bd b2 d3 9d 3e 15 d0 bd bd cc 3d e3 be
       -0.11820241 0.30825573 -0.09268204 -0.44383085
0003e0 ff 5d 12 ba 49 57 d7 bd cf e3 c4 be 80 cd 33 bc
       -0.00055834645 -0.10514695 -0.38455054 -0.010974288
0003f0 c3 dd 66 be 4e a7 70 be fc 88 36 be 79 ed 1f 3d
       -0.22545533 -0.23501322 -0.17825693 0.03904483

Linear1.bias f4 [256]
000000 c3 c7 17 3e 67 3b de 3d 98 fd 8a 3e 1a 71 ca be
       0.14822297 0.10851174 0.27146602 -0.39539415
000010 21 eb ff 3d 83 8d 92 bd 80 2e 14 bc 45 57 c6 3e
       0.12496019 -0.071558975 -0.00904429 0.38738456
000020 b2 4e 8f 3e 80 78 6f be f8 9c a3 be ed a6 9b be
       0.27989727 -0.23385811 -0.31955695 -0.30400792
000030 b6 14 ea 3d 6e 6e 2d be 4d ea e2 be ac 76 71 be
       0.114297315 -0.16936657 -0.44319382 -0.23580426
000040 83 16 48 3e 76 38 97 3e 54 c5 d0 bd f7 6f 94 3e
       0.19539838 0.29535264 -0.10193887 0.28991672
000050 20 48 2b bd 10 d1 70 3e d2 37 b9 be ac 0a d5 bd
       -0.04181683 0.23517251 -0.361754 -0.10402426
000060 27 2e eb 3e 34 29 2a be 01 db 07 3e 38 12 b8 3d
       0.4593365 -0.1661728 0.13267137 0.0898785
000070 e7 4e f8 3d d4 cd 17 be 57 d1 c5 3d 9c 7f 9f be
       0.121244244 -0.14824611 0.09659069 -0.31152046
000080 02 74 38 bd 2f 1f ef bc 60 bc 94 be 76 43 2b be
       -0.04503251 -0.029189674 -0.2904997 -0.16724953
000090 40 cb 68 be b1 8e 19 be ba 9a 25 3e 2e d4 86 3e
       -0.22733784 -0.14995839 0.16172305 0.26333755
0000a0 5e b6 32 be 6c 7d fb bd b4 fc ab bd 1c 53 61 be
       -0.1745238 -0.12279782 -0.08397809 -0.2200436
0000b0 24 be 61 be 06 3d 25 bd 77 b5 cf 3e ee 8a 8a 3d
       -0.22045189 -0.0403414 0.40568134 0.0676478
0000c0 23 c1 9d be da 46 82 bd 30 8e 1d 3e f3 07 a3 3d
       -0.30811414 -0.0636117 0.15386271 0.079605006
0000d0 00 b7 e5 bd 1f 7a e5 3e 9c 63 22 bc 03 b6 b2 3e
       -0.11216545 0.44819734 -0.009911444 0.3490449
0000e0 10 9a b2 3d 85 a0 8b 3e 46 2b d5 3e 09 b5 a3 be
       0.08720791 0.27270904 0.41634578 -0.31974056
0000f0 bc b4 df 3e 88 2e d6 3d 39 f1 8f 3e de 84 d8 bc
       0.43692577 0.10458094 0.28113726 -0.026430544
000100 1c d6 c0 3e b7 12 c2 3e 0a 7f d1 3e 5c ba 7d 3e
       0.37663352 0.37904903 0.40917236 0.24778122
000110 3d 83 6e be 09 aa ac 3e dc b7 01 be 1d 98 32 3e
       -0.23292251 0.33723477 -0.12667793 0.17440839
000120 8c 51 c9 3c f4 a9 4e 3e c7 52 91 3e 0c 19 c9 3b
       0.024575017 0.2018202 0.28383467 0.006137019
000130 a6 3d fb ba af fc bc 3e 42 b0 98 be b9 74 31 3e
       -0.0019168153 0.36911532 -0.29821974 0.17329682
000140 bb 9a 6f 3e ac 3c 60 3d fd 11 88 3e ee 52 1a 3e
       0.23398869 0.05474536 0.26576224 0.15070698
000150 42 0f a7 be bc eb e1 3e 87 42 f2 bc e6 61 64 be
       -0.32628828 0.44125164 -0.029572738 -0.2230297
000160 bf 88 c2 3d ba fe 63 be fb 26 ff 3d a0 f5 b2 be
       0.094987385 -0.22265139 0.12458607 -0.34953022
000170 cb 4c 34 3e 25 4c e1 be 45 ab 7e be 5b 15 45 3d
       0.17607419 -0.44003406 -0.24870022 0.04811607
000180 a8 f9 66 3d f0 d4 b6 3e 4d 70 a8 3c 21 ee 17 bc
       0.056390435 0.35709333 0.020561362 -0.009273083
000190 f4 1f a6 bd 82 72 c0 bd ad 00 7f be 77 f5 8a be
       -0.08111563 -0.09396841 -0.24902602 -0.271404
0001a0 93 36 1c be fb 4e 69 be 69 df 4a 3b 73 c1 a5 be
       -0.15255193 -0.22784035 0.0030955917 -0.32374153
0001b0 b4 30 d7 bd ba 80 b0 3d 11 67 9b be 06 28 9a 3e
       -0.10507336 0.08618303 -0.3035207 0.3010866
0001c0 95 d3 86 be 91 fc 8b be 17 d3 98 be ab 24 0f 3e
       -0.263333 -0.2734113 -0.2984855 0.13978831
0001d0 81 88 72 3d 8e d7 cb 3e 9c 28 07 be f5 b8 22 3e
       0.05921221 0.39812893 -0.13199085 0.15890868
0001e0 5a 40 74 3e f6 09 39 3c 84 43 3f 3e d5 af 78 be
       0.23852673 0.011293879 0.18678099 -0.24285825
0001f0 2b 76 a3 be ed 77 ab 3e 20 be ad be ac 50 09 be
       -0.31926093 0.33489934 -0.33934116 -0.1340968
000200 40 19 1c bc ec 2f 8a be 78 1c c3 3e 5b 3d b3 3e
       -0.009527504 -0.26989686 0.38107657 0.35007748
000210 48 4d bb 3e 93 e9 f8 3d a7 f0 f6 3d 42 27 40 be
       0.36582398 0.12153926 0.120576195 -0.18764976
000220 9a 17 84 be 5f 66 cc 3d da 65 cd 3d df 65 2b be
       -0.25799257 0.09980463 0.10029192 -0.1673808
000230 71 9c 36 be 18 0d b5 be 16 c0 d8 3e f3 99 a2 3e
       -0.17833115 -0.35361552 0.4233405 0.3175808
000240 39 c7 68 3e 84 90 85 3e ac 75 86 bd 3d c2 d6 be
       0.22732247 0.2608682 -0.06565413 -0.41945067
000250 1b 5d 9e be b1 6f 71 bd 58 c1 9c 3e a2 75 75 3d
       -0.3093041 -0.058944408 0.3061626 0.059926637
000260 5f 8c 74 3e 8d df 99 3e 8a f7 99 bd ee 7c d7 bd
       0.23881672 0.30053368 -0.075179175 -0.10521875
000270 14 8a 7d 3e 10 b1 58 be 9e c7 c5 3e eb 7f 94 3e
       0.24759704 -0.21161294 0.38628858 0.29003844
000280 e8 f8 af be d1 a2 c5 3e 7b c7 4a 3d f7 83 e2 be
       -0.34369588 0.38600782 0.049506646 -0.44241306
000290 f5 bd 89 be 36 aa f1 3d 84 25 58 3e cb dc 84 3d
       -0.26902738 0.11800043 0.21108061 0.064874254
0002a0 2b 27 d1 3e e7 19 b3 3d 58 94 1e bd a1 b6 b7 be
       0.40850195 0.08745175 -0.03871569 -0.35881522
0002b0 8c 50 d5 be 8a 04 b1 3e 76 b3 f3 3d f1 7c 45 3e
       -0.41663015 0.34573776 0.11899464 0.19285943
0002c0 ff 4e 8c 3e e6 fc 01 be 59 86 45 3a 7e 76 9e 3e
       0.2740402 -0.1269413 0.0007534973 0.30949777
0002d0 d9 be 08 be ed 2d 31 3e 33 98 cf 3e b2 7e 2d be
       -0.13354053 0.17302676 0.40545806 -0.16942862
0002e0 67 be e3 be a2 a4 db 3e 1c be c0 be 10 eb 00 bd
       -0.44481203 0.42899042 -0.37645042 -0.031474173
0002f0 77 de 99 bd a9 a5 34 be be 4f 44 3e 4c f9 58 3e
       -0.07513135 -0.1764132 0.19171044 0.21188849
000300 ca 68 35 be 12 65 96 bb 25 c0 6a be ac 80 29 3e
       -0.17715755 -0.0045896852 -0.2292486 0.1655299
000310 d8 68 8b be 2a ba 98 be 0f 30 2f be ca 85 88 be
       -0.27228427 -0.29829532 -0.17108177 -0.26664573
000320 70 d6 74 bd b3 ce 81 3e 06 18 8d be d1 b8 c6 3e
       -0.059774816 0.2535301 -0.2755739 0.3881288
000330 b3 b7 e4 bd 99 12 84 be 64 1a 03 3e 70 65 b6 3c
       -0.1116785 -0.2579544 0.12803036 0.022265166
000340 3b f5 70 be 49 5d e3 3e 5d 2c be be 1c 3a 87 be
       -0.23531048 0.44407108 -0.37143221 -0.2641152
000350 38 1f f4 3d 5a 1e 3f 3e 72 90 d7 be 3b a3 9c be
       0.11920017 0.18663922 -0.4210239 -0.30593285
000360 72 4a e2 bd fc 55 26 be 14 41 95 be ac da 18 be
       -0.110493556 -0.16243738 -0.29151213 -0.14927167
000370 43 47 a1 3e f2 be b7 be e7 44 3d bd 2a 94 d2 3d
       0.3149968 -0.35887867 -0.04620829 0.10282166
000380 98 f5 e2 3e 4a 12 cc bd 3c e5 73 3e e9 5a 75 be
       0.44327998 -0.09964426 0.23817915 -0.2396046
000390 b2 c4 01 3e 6b 14 8c bd bf 92 47 3e ea 55 9b 3e
       0.1267269 -0.06839832 0.19489573 0.30338985
0003a0 91 ce 8d be e4 53 ab be ec c5 37 bd b0 41 06 3d
       -0.2769666 -0.3346244 -0.044866487 0.03277749
0003b0 fb 03 18 3c f1 45 42 be 64 8d d9 3e 14 a5 91 3e
       0.009278293 -0.18971993 0.42490685 0.28446257
0003c0 40 9d 4b 3e a7 19 d8 bd 54 5f 33 3d c6 42 6e be
       0.19884205 -0.10551768 0.043792084 -0.2326766
0003d0 4d 0e d7 3e 46 2f a6 be 30 fa 6d 3e 7a b1 d3 be
       0.42003098 -0.32457942 0.2323997 -0.4134634
0003e0 13 65 65 3e 66 db 7e be ed 69 43 3e 0a 7e 5c 3e
       0.22401838 -0.24888381 0.19083376 0.21532455
0003f0 51 e6 11 3e 86 62 aa be d6 d3 86 be 88 ff 8d 3e
       0.14248015 -0.33278292 -0.26333493 0.27734017

Linear2.weight f4 [3, 256]
000000 bc 2e aa 39 0c 58 0d bc d0 58 7f 3d fe 98 19 3d
       0.00032459747 -0.008626949 0.062340558 0.03749942
000010 5a 55 b5 bc ee fe b5 bb de 04 5b bd b2 23 60 3d
       -0.022135425 -0.0055540716 -0.05347144 0.05472154
000020 93 78 f0 bc ae 6a 4c 3d 7c ca 50 bd 44 80 77 3d
       -0.02935437 0.049906425 -0.050974354 0.060425058
000030 26 43 80 3c 80 cf de 3a 50 81 cf bb e0 a9 88 bc
       0.015657019 0.0016999096 -0.006332554 -0.016682565
000040 60 35 b7 3c 6c e6 20 bd 6c 0f 09 bd 1e de a7 bc
       0.022364318 -0.039282247 -0.033461973 -0.020491656
000050 e6 2a 3c bd 7d 01 37 3d 00 bb 1d 3a 36 44 5f 3d
       -0.04593935 0.044679154 0.000601694 0.05450841
000060 b5 75 d0 3c 43 23 54 3c 3d 9d 91 bd dc c7 83 bc
       0.025446752 0.01294786 -0.07110069 -0.016086511
000070 be 01 19 3d a0 cf 6f 3b b0 be 19 3d fc fe 2e 3d
       0.037355177 0.003659226 0.03753537 0.04272364
000080 75 7c dc ba 69 e0 14 bd 78 3c 65 3d bc 76 a5 3c
       -0.0016821759 -0.036346827 0.05596587 0.020198219
000090 98 6e 6c bc 62 1e 6a bc 72 34 2d 3d 39 7f 25 3c
       -0.0144306645 -0.01428947 0.042286344 0.010101133
0000a0 12 2d 0c 3d 34 2f e4 bc 08 9c e5 3c 87 41 73 bd
       0.03422267 -0.02785454 0.028028503 -0.059388664
0000b0 57 b5 1d bd 44 05 b0 3c 4b 39 ce bc ce af c3 3c
       -0.038503017 0.021486886 -0.025173804 0.023887541
0000c0 89 90 38 3d 90 27 1b bc 1e 64 2f 3d 07 d9 2e bd
       0.045059714 -0.009469882 0.04282009 -0.042687442
0000d0 ca 5b 45 3d ef e0 12 bd fd ee 6d 3d b2 48 c7 bb
       0.04818324 -0.035859045 0.058089245 -0.006081664
0000e0 a6 3c 2f bd e6 ec a6 3b a9 e8 9c bc e3 d5 7f bd
       -0.04278245 0.0050941585 -0.01915391 -0.062459838
0000f0 78 da 77 3d b8 98 4f bd 10 cd 3c 3d 55 d1 55 3d
       0.060511082 -0.050682753 0.046094 0.052201588
000100 ea 88 18 3d e5 99 44 bd 74 92 0b bd 5f dd 5e bd
       0.037239946 -0.047998328 -0.034075215 -0.054410335
000110 32 e2 5b 3d e7 40 13 3d b4 ca 94 bc 4f 9d f9 bc
       0.053682514 0.035950568 -0.018163063 -0.030470518
000120 17 1c 72 3d d0 b9 8a 3b d7 37 38 3c a6 5b 2f bc
       0.05910882 0.0042335764 0.011243782 -0.010703003
000130 e8 78 0c bb 33 de be bc 74 af 99 3c 0f 77 0e 3c
       -0.002143437 -0.023299312 0.01876042 0.008695378
000140 60 89 32 3d 33 ec 46 3d 61 5f 04 bd a8 4d 77 bc
       0.043588042 0.0485651 -0.032317523 -0.015094198
000150 80 97 1c 3c 87 4f 71 bd 2c 56 d6 bc 9b be 58 3c
       0.009557605 -0.058913734 -0.026164137 0.013229038
000160 46 08 01 3b 86 ce 2b bd ab 52 17 ba 36 df 4c bd
       0.001968877 -0.041945003 -0.00057725114 -0.050017558
000170 8e 23 cd bc b8 db 5b bd 56 f5 7f bd bb 9f 56 bc
       -0.025041368 -0.053676337 -0.06248983 -0.013099606
000180 82 f5 0e bc 38 1d 10 bd 9a fa 0a bd f7 cb 2a bd
       -0.008725526 -0.035184115 -0.0339304 -0.041698422
000190 b8 65 47 3d 2f c8 47 bd 28 ed 3d 3c 2f b3 4a 3d
       0.04868099 -0.048774894 0.011592187 0.04948729
0001a0 bf ca 6a 3d 40 8c 89 bc fb 22 ee bb a3 00 59 3d
       0.05732226 -0.01679051 -0.0072673536 0.052979123
0001b0 68 eb 14 ba 8b ab 9d bb 4a d9 1e 3d 24 1e 38 3b
       -0.000568083 -0.0048117093 0.03878144 0.0028094137
0001c0 08 3c 67 bc 86 17 e0 3b 90 72 66 3d ea 33 35 3d
       -0.014113434 0.0068387417 0.0562616 0.044238962
0001d0 0e 52 e6 3c f5 3e 4c 3d 64 42 3c bd 14 b1 49 bc
       0.028115299 0.049864728 -0.045961753 -0.012310285
0001e0 64 4b 78 3d c5 6e 4c b9 52 19 dc 3c de 3c 7f 3d
       0.060618773 -0.00019496221 0.026867542 0.062313907
0001f0 8a b8 24 bd 7c df 63 3c c8 b3 7f 3d d4 19 0e 3d
       -0.040215053 0.013908263 0.062427312 0.0346926
000200 d8 b6 f6 3c 52 43 18 3d fb 8f 17 bd 9d 0a 14 3d
       0.030116484 0.037173577 -0.037002545 0.036142934
000210 d8 cd 95 bc 4c fc 1c 3d d8 7e 57 3d 8a 5f 7f bd
       -0.01828663 0.038326547 0.052611202 -0.062346973
000220 d6 31 5b bd 2b 0c 82 bc c0 89 90 bc 0b 9f 08 3b
       -0.053514324 -0.015874943 -0.01764381 0.002084675
000230 15 5e 5c 3d fa 69 a6 bc af 84 07 3d 31 d9 96 bc
       0.05380066 -0.020314205 0.03308552 -0.018414112
000240 a7 63 e9 3c 0d a7 30 bd 84 2d ba bc 70 80 29 bd
       0.0284899 -0.043128062 -0.022726782 -0.041382253
000250 04 ab a5 3b 4c 15 d0 3c 99 4d 21 3a 1b 7a 2f 3d
       0.005055787 0.02540078 0.00061532255 0.04284106
000260 5c 14 8c 3c 49 c1 36 3d 4a e3 6a bd 52 34 ac bb
       0.017099552 0.044617925 -0.057345666 -0.0052552605
000270 aa 4d 1d 3d e5 6d b1 3b 9b 06 85 3c f8 95 00 3d
       0.038404144 0.005414712 0.016238501 0.03139302
000280 50 19 a5 bc 6b 6b a3 3b ea a7 4d bc fd 55 c0 bc
       -0.020153672 0.0049871705 -0.012552241 -0.023478502
000290 2d f1 83 3d 23 e5 df bc 71 47 ca 3c 6d 66 37 3d
       0.06442485 -0.02733094 0.024692269 0.044775415
0002a0 b6 c4 1c 3d 8c 99 f6 3c 4c 3d 98 3c 15 e1 02 bd
       0.038273536 0.030102514 0.018583916 -0.031952936
0002b0 c0 a1 ac 3b e2 4a 71 bd 37 16 eb bc d1 d0 73 3c
       0.0052683055 -0.058909304 -0.028697116 0.014881329
0002c0 cb 6d 20 bc e6 1d 7d 3d 4b b2 05 3d de e7 22 3c
       -0.009791802 0.06179609 0.032640737 0.009942977
0002d0 42 d4 36 bd dd 93 36 3c b4 15 43 3d 60 c1 09 bc
       -0.04463602 0.011143652 0.04762812 -0.008407921
0002e0 0c ae c1 bc f3 5a 61 bc ef 09 55 bd 00 6c 73 3d
       -0.023642562 -0.013754594 -0.052011427 0.05942917
0002f0 7b 37 e7 bc d6 6d 37 3d e1 31 47 3d dd 19 92 bc
       -0.028224697 0.044782482 0.048631553 -0.017834598
000300 90 f0 65 3c 2b 61 58 3d b3 23 44 bb c7 ae 05 3d
       0.014034405 0.05282704 -0.0029928505 0.032637384
000310 6c 3c 62 3d 08 11 52 bd 18 6f a7 3c cc 85 a2 3c
       0.055233404 -0.051285774 0.020438716 0.01983919
000320 9b ba 56 3d ad ce bc bc b4 15 0c 3d fc 51 26 bd
       0.052424055 -0.02304777 0.034200385 -0.04060553
000330 13 c0 41 3d 20 0d b1 bc 5d 4a 81 3d e8 30 4b bc
       0.047302317 -0.021612704 0.06313012 -0.012401797
000340 04 3a 02 3d 3c e6 43 3d 66 29 73 3d 3c 47 58 bd
       0.03179361 0.04782699 0.059365653 -0.05280231
000350 ae c4 09 3d 52 e5 70 bd 2c ed 53 3d 3f 08 34 bc
       0.033634834 -0.058812447 0.051739857 -0.010988294
000360 5f b5 5a bd a9 49 09 3d be da 11 bd 87 ea 3f bd
       -0.053395625 0.033517513 -0.035609 -0.046854522
000370 01 15 e3 3b 20 3a 6b 3b 44 50 35 bd b6 5f c4 bc
       0.006929994 0.00358928 -0.044266 -0.02397142
000380 84 15 75 bd 5c e2 34 bd 38 08 30 bd 5a 7d 32 bd
       -0.059834972 -0.044161186 -0.042976588 -0.043576576
000390 d2 bc 48 3d 79 e9 2c bd 62 1e 16 3d c0 0b 33 bc
       0.049008198 -0.042214844 0.03665007 -0.010928094
0003a0 ed 60 55 bd c0 21 e1 3c 3b 58 47 bd 15 a6 3d bd
       -0.05209439 0.027481914 -0.048668128 -0.046300966
0003b0 d6 6a 3a bd 95 68 11 bc 65 d4 80 bc 08 cd 99 bc
       -0.045512043 -0.008875032 -0.015726278 -0.018774524
0003c0 1b c4 5a 3d b6 a7 5a 3d 50 5f 2b 3d 18 be 1b 3b
       0.053409677 0.053382598 0.041838944 0.0023764428
0003d0 cb 2d 86 bb 9a 1c b2 bc ae 66 55 bd 50 dc 7a bd
       -0.0040948144 -0.021742154 -0.052099876 -0.061245263
0003e0 4c 86 0d bd 6f f7 79 3d f2 13 94 bc af b7 06 bd
       -0.034551904 0.061026987 -0.018075917 -0.032890018
0003f0 0a 5a 74 3d e0 dd fe 3c f0 bc 1c bc 69 29 46 3c
       0.05965618 0.031111658 -0.009566531 0.012094834

Linear2.bias f4 [3]
000000 15 d8 33 3d 92 3a 36 bd 84 26 27 bd
       0.043907244 -0.04448945 -0.040808216
