runs/run1/models/model1.pth (torch, 10959 bytes, 4 tensors)

Linear1.weight f4 [256, 5]
00000000: 181e 9b3e eec9 803e 8ee1 1abc bf26 dcbe
00000010: ac77 cbbe 7869 283e 9c26 e33e b3e2 983e
00000020: 0250 d7be 43d2 823e c53a d4bc 51ff 21be
00000030: 74ea b13d 6679 9a3e ba06 aa3e 207e 2fbd
00000040: 5133 c5be 7483 b6bd 70f4 80bd cd4a cdbe
00000050: bd56 febd bbb2 b9be 8faa 43bd 8ef7 d23e
00000060: b7c5 913e e28b 643d 5570 b83e 4a01 81be
00000070: 77fd bf3e 34e9 61bc 2ef2 8ebe 7d8e 63be
00000080: 7ad9 87be 9c87 1bbe c47c 34be f521 0fbd
00000090: c482 89bd af0d 283e 5ba8 e03e df5c 7aba
000000a0: b8c3 93be 1683 dc3e 7e24 e1be 103a 99be
000000b0: 84e3 01be f8dd c73d 28e1 85bd 787e 19bd
000000c0: 6c8d 503e e426 8fbe 24a2 c9be 0cd7 07be
000000d0: 405e 6d3d ccd2 6e3e e57f 51be 32c7 d23e
000000e0: 0048 95be 9425 2b3e e6c9 a5be c5d7 adbe
000000f0: 66ef c3be 681b 513e 1b03 c7be d9df 5cbd
00000100: ee4b c43c 5826 2dbe f1dd 4cbe 10a6 193d
00000110: 0075 d33a 50f5 ba3d 8b97 bfbe a465 7e3e
00000120: c8d3 4c3d 661c aa3e ba0c a3be f81a 243d
00000130: 4022 8fbd 09ea 83be 900f d13d 4937 dcbe
00000140: ae34 6a3e 6389 3d3e 3588 d8be 6e02 c23e
00000150: 310e 733e eed9 ae3e 2142 b3be c053 5fbe
00000160: 5d22 e03e b5ae 083c ca4b e2be c8fc 2e3d
00000170: 4575 6dbe 76fb 74be c0b8 123e 2e36 cb3e
00000180: c5e2 943e 6cb9 b4be 0875 243e 031c 86bd
00000190: 9360 84bd 03b0 b7be b9d9 cb3d a1e6 b73e
000001a0: 47b8 893e 9668 b53e 6219 cdbe e134 8e3e
000001b0: 259f 4dbe 650b 44be c07a a0bb f637 823e
000001c0: 9808 cf3e 2a49 c8be d00a 573d 94a7 1fbe
000001d0: 80e4 233b 98ab 3fbe 4882 7bbd 0548 93be
000001e0: a461 443e 6ca2 38bd a444 1abe 9ff9 a5be
000001f0: 80a6 dfbe e8a1 ad3e 5351 85be 95cd d33e
00000200: 0dff db3e 91a7 5d3e 8337 60be 8df6 ea3b
00000210: a4d4 8b3e 27b2 113e 41b5 d9be c75c bcbe
00000220: 0392 b8be f6b1 103e da1a 8a3b ce97 bc3e
00000230: 00be db3b 235b 4fbe 05fb a0be 925b 03be
00000240: d0c6 2e3d 70dc d9bc 94fb 33be 6840 bb3d
00000250: 58f7 c33d 2072 663c 9698 d4bd dabd a8bc
00000260: bd16 273e 4e5d b6bc 0c0c b9be a885 2cbe
00000270: a849 883d 8034 c43d 082f dfbe 7ef0 dc3e
00000280: 2bf5 4e3e 6b7f d7be 6479 a13e c473 a13d
00000290: 2318 9a3c f888 c63e 3840 9cbe 5109 a9be
000002a0: 7a9d 40be 783c d83e e026 d33d 424a debe
000002b0: 301d 56bd b0c8 d53c 5ea2 d23e 40ff e53c
000002c0: 4d52 b0be f809 22be 523d 7abe 0aeb d23e
000002d0: cc9e d63e 03eb d2be 78e9 a8be 0848 06bd
000002e0: 55b1 55be 861c cbbe 32a9 8fbe 24c5 753e
000002f0: b49a 613e d10f 80be 4580 bfbd 85d2 913d
00000300: ca1f 6ebe bc6e c93e fc3f 99be 896c e93d
00000310: ee06 8f3e 3df7 0c3e db9a d3be 9275 ad3d
00000320: 5051 173d 4f04 a3be 6518 5bbe 9044 3f3e
00000330: d47a 8fbe 200b 6e3c 486b 173e ba21 81be
00000340: a053 62bc f512 cbbe dd37 67be b40c 783e
00000350: 0ce7 753e 4254 e2be e65b 07be 1420 763e
00000360: b075 efbd b6bf e03e 10c6 3c3e 176a ccbe
00000370: 801c 793e 6522 39be da71 953e 3049 0fbc
00000380: d9d0 d53e ffb4 ba3e 2f74 493e 1489 e1be
00000390: a532 693e d958 f5bd 2e07 36be 5466 d3be
000003a0: 7465 143e 05c1 cdbe 9940 dfbe 5f81 4d3e
000003b0: db05 a3be 1146 c6bd 2c41 75be 9699 c73e
000003c0: 009c 5d3d 34cb cb3e c828 38be 7859 bf3d
000003d0: 3ce9 eabd fcd2 9d3e c4d2 bdbd 803e e3be
000003e0: 00b2 13ba f859 d7bd cfe3 c4be 80cd 33bc
000003f0: c3dd 66be 4ea7 70be fc88 36be b3bb 4a3d
0.30296397 0.2515406 -0.0094531905 -0.4299831 -0.3973974 0.16446483 0.44365394 0.29860458
-0.4205323 0.25551042 -0.02590693 -0.15820052 0.086872965 0.30170745 0.33208257 -0.04284489
-0.38515714 -0.089117914 -0.06296623 -0.4009613 -0.12418888 -0.36269173 -0.04777008 0.41204494
0.28471157 0.055797465 0.36023203 -0.25196296 0.37498066 -0.01378851 -0.27919143 -0.22222324
-0.2653311 -0.1518845 -0.1762572 -0.034944493 -0.06714395 0.1641147 0.43878445 -0.0009550582
-0.2886026 0.4306876 -0.43973154 -0.2992711 -0.12684447 0.09759134 -0.06537086 -0.037474126
0.20366448 -0.2795936 -0.39381516 -0.13265628 0.057951212 0.233226 -0.20458944 0.411676
-0.29156494 0.16713554 -0.323806 -0.33953682 -0.38268584 0.20420611 -0.38869557 -0.053924415
0.023961987 -0.16909158 -0.20006539 0.037511885 0.0016132891 0.09128821 -0.37420306 0.2484346
0.050006658 0.3322479 -0.31845647 0.040064782 -0.069889545 -0.25764492 0.102080464 -0.4301093
0.22871658 0.1850944 -0.42291418 0.3789248 0.23735882 0.34150642 -0.3501139 -0.21809292
0.43776217 0.008342435 -0.44198447 0.04272154 -0.23189266 -0.2392405 0.14328289 0.39689773
0.2907926 -0.35297716 0.16060269 -0.065483116 -0.064637326 -0.35876474 0.09953637 0.35918143
0.26898405 0.35431355 -0.40058428 0.27774718 -0.2008024 -0.19144972 -0.0048974454 0.2543332
0.40436244 -0.3911832 0.052500546 -0.1559127 0.0025008023 -0.18717802 -0.061403543 -0.28765884
0.19177872 -0.045076773 -0.15065247 -0.32417008 -0.43681717 0.33912587 -0.26038608 0.41367784
0.42968026 0.21645953 -0.21896176 0.0071705044 0.2731067 0.14228116 -0.42521098 -0.36789533
-0.36048898 0.14130387 0.0042146267 0.36834568 0.0067059994 -0.2024961 -0.31441513 -0.128279
0.04267007 -0.02659437 -0.17576438 0.09143144 0.095686615 0.014065295 -0.10380666 -0.02059834
0.16317268 -0.022261288 -0.36142004 -0.16847861 0.06654674 0.09580326 -0.4359057 0.4315223
0.20210712 -0.420894 0.31537926 0.07883409 0.018810337 0.38776374 -0.30517745 -0.3301492
-0.18810073 0.42233634 0.10310149 -0.4341603 -0.05227393 0.026096672 0.411395 0.028075814
-0.3443779 -0.15824115 -0.24437454 0.41194946 0.41918027 -0.41194925 -0.32990623 -0.032783538
-0.20868428 -0.396702 -0.28058773 0.24000984 0.22031671 -0.25012067 -0.09350637 0.071202315
-0.23254314 0.39342296 -0.2993163 0.113976546 0.27934974 0.13766189 -0.41329083 0.084696904
0.03694278 -0.31839225 -0.21396025 0.18678498 -0.28023398 0.01452902 0.14787018 -0.25221044
-0.013813883 -0.396629 -0.22579904 0.24223596 0.24013919 -0.4420491 -0.1321865 0.24035674
-0.11692369 0.43896264 0.1843493 -0.3992469 0.24327278 -0.18079527 0.29188424 -0.008745477
0.417609 0.36466214 0.19673227 -0.44049895 0.22773226 -0.11979837 -0.17776176 -0.41289008
0.14491826 -0.40186325 -0.43603972 0.20068882 -0.31840405 -0.09681333 -0.23950642 0.38984364
0.05410385 0.3980347 -0.17984307 0.09343237 -0.11470267 0.3082503 -0.09268716 -0.4438362
-0.0005634129 -0.10515207 -0.38455054 -0.010974288 -0.22545533 -0.23501322 -0.17825693 0.04949541

Linear1.bias f4 [256]
00000000: 0d68 123e 9b6c d83d 138b 893e 1a71 cabe
00000010: 0413 fc3d cbb6 92bd 802e 14bc 17b5 bf3e
00000020: 42be 913e 8078 6fbe f89c a3be eda6 9bbe
00000030: e7f0 d63d 6e6e 2dbe 4dea e2be ac76 71be
00000040: b3cf 483e 169a 973e 54c5 d0bd 04de 923e
00000050: fbf3 dabc 612d 7b3e d237 b9be ac0a d5bd
00000060: f106 e03e 7efe 23be a244 0b3e 0a87 cd3d
00000070: 28e6 fb3d d4cd 17be d2cf e23d 9c7f 9fbe
00000080: 593f 74bd 0078 debc 5aa5 96be 7643 2bbe
00000090: 40cb 68be a059 1bbe 346c 133e 3c17 883e
000000a0: 5eb6 32be 6c7d fbbd b4fc abbd 85d4 6abe
000000b0: 6958 65be e9e7 1fbd b43b c83e dfb7 853d
000000c0: 2cc9 9bbe 8c49 82bd 308e 1d3e 7d0e ac3d
000000d0: 00b7 e5bd 0225 e53e 2031 03bc c522 b43e
000000e0: ba9f cc3d 0e61 8b3e 16e7 dc3e 2eca a3be
000000f0: d49c df3e 882e d63d 24bf 903e d161 05bd
00000100: 0842 b83e 000c c53e 3b2e d03e 363e 8c3e
00000110: 52ab 6abe 3b97 a33e dcb7 01be cb4b 2f3e
00000120: b016 b83c f4a9 4e3e ebf5 903e 63e5 253c
00000130: ae10 6d3b 6eac bd3e 42b0 98be b54c 2c3e
00000140: 62fc 693e d3d5 533d 7b8d 893e 7368 173e
00000150: 420f a7be 271a e33e 3fc6 f6bc 38c4 67be
00000160: cc37 b63d bafe 63be 8dc0 f03d 8866 b3be
00000170: e043 333e 254c e1be 9dd0 7ebe 4af8 7b3d
00000180: 549d 733d f4f5 b03e 171e 9d3c f205 03bc
00000190: 6ccd 9fbd fc4e a2bd ad00 7fbe 14b6 8abe
000001a0: 80ac 1abe fb4e 69be 370a 9e3c 9e92 a7be
000001b0: 35d6 c1bd 7bbb c03d f198 9dbe 1ced 9c3e
000001c0: 95d3 86be 5c28 90be 17d3 98be 60ae 0b3e
000001d0: 6bdd 773d 29ec cb3e a0fd 04be 7824 2b3e
000001e0: e443 723e 2057 a73c 7304 433e d5af 78be
000001f0: cc73 a3be 964d ae3e 20be adbe be70 0cbe
00000200: 4019 1cbc ec2f 8abe 9757 c73e b827 b13e
00000210: dfec b93e 2028 fc3d 30fc fa3d 6a60 37be
00000220: 27fd 7ebe 6845 c13d c173 d73d 1ff2 22be
00000230: fe43 37be ea13 b7be 9ed7 d83e ac33 a23e
00000240: fa6a 703e 22d3 853e 4a79 82bd 3dc2 d6be
00000250: 9eec 9bbe 70f2 7bbd 400e 993e 4008 5b3d
00000260: aad7 6e3e efef 9a3e 9446 9bbd 7292 b1bd
00000270: 3717 813e d8c0 5cbe 5d4b c03e a807 873e
00000280: e8f8 afbe 958b c63e 4b8f 5e3d 3a17 e0be
00000290: bfc5 8abe 9ae9 eb3d 016b 593e a61b 833d
000002a0: ccb0 d13e 562f bb3d 4530 f5bc 6ecb b0be
000002b0: 8c50 d5be 3035 ac3e d0fe f33d 46e0 493e
000002c0: 6fb3 8b3e e6fc 01be 219c 4ebc 97ee a13e
000002d0: 64ae 0bbe 0c99 3a3e 602b c23e b27e 2dbe
000002e0: 67be e3be 0fce e33e 3ec7 c3be 10eb 00bd
000002f0: 0d24 96bd 9675 34be 3a37 413e 412b 4e3e
00000300: 04c9 32be 4965 25bc c9ac 68be 3ead 253e
00000310: d868 8bbe 2aba 98be 9467 31be ca85 88be
00000320: 1be9 96bd 7c2f 7c3e 0618 8dbe c67b cc3e
00000330: 563b dcbd 9912 84be 2751 003e 7065 b63c
00000340: 9eb9 63be d477 e33e 5d2c bebe 1c3a 87be
00000350: e0c5 f03d 3cf3 383e 7290 d7be bb9f a3be
00000360: 3e8c e0bd 0555 24be f26b 9dbe 299d 0ebe
00000370: 62bf a33e f2be b7be b89e 2dbd 2819 f83d
00000380: 190a e53e f998 cabd a9b0 753e a219 76be
00000390: 0e61 043e d82f 98bd d5c8 4a3e 7030 983e
000003a0: 93fb 89be e453 abbe 7614 29bd ff26 033d
000003b0: b3e6 7f3c e8b4 3ebe d2a4 d83e aa58 8f3e
000003c0: 7c8e 4b3e ac21 e0bd 79c3 3b3d 9f4e 70be
000003d0: b855 d33e 4925 a7be d60f 6d3e 868d d6be
000003e0: bb19 623e 5939 8bbe 6c7d 413e c5bd 753e
000003f0: 0732 0f3e 8662 aabe d6d3 86be aa48 8d3e
0.14297505 0.1056759 0.26863918 -0.39539415 0.123083144 -0.07163771 -0.00904429 0.37442848
0.28465468 -0.23385811 -0.31955695 -0.30400792 0.10495167 -0.16936657 -0.44319382 -0.23580426
0.19610481 0.29609746 -0.10193887 0.2868501 -0.026727667 0.2452903 -0.361754 -0.10402426
0.43755296 -0.1601505 0.136004 0.10035522 0.12299758 -0.14824611 0.11074795 -0.31152046
-0.059630726 -0.02715683 -0.29423028 -0.16724953 -0.22733784 -0.15170908 0.14396745 0.26580226
-0.1745238 -0.12279782 -0.08397809 -0.22932632 -0.22397007 -0.039039526 0.3910805 0.06529211
-0.3042692 -0.06361684 0.15386271 0.08401201 -0.11216545 0.44754797 -0.008007318 0.35182777
0.09991403 0.27222484 0.43145055 -0.31990188 0.43674338 0.10458094 0.2827083 -0.032563988
0.35987878 0.38485718 0.4066027 0.27391213 -0.22916916 0.31951317 -0.12667793 0.17118756
0.022471756 0.2018202 0.2831262 0.010125491 0.0036173272 0.37045616 -0.29821974 0.16826136
0.22850183 0.05171759 0.26865754 0.14785938 -0.32628828 0.4435589 -0.030123828 -0.22633445
0.08897361 -0.22265139 0.11755476 -0.35039163 0.17506361 -0.44003406 -0.24884267 0.061516084
0.05947621 0.34562647 0.019179387 -0.007997023 -0.07802853 -0.07925221 -0.24902602 -0.2709204
-0.15104866 -0.22784035 0.01929198 -0.32729048 -0.09464685 0.09410759 -0.30780748 0.3064965
-0.263333 -0.28155792 -0.2984855 0.13640738 0.060513895 0.39828613 -0.12987375 0.1671313
0.2365871 0.020427287 0.19044666 -0.24285825 -0.31924284 0.34043568 -0.33934116 -0.13714883
-0.009527504 -0.26989686 0.38934013 0.34600616 0.3631353 0.12312341 0.12255132 -0.17907873
-0.24901257 0.09437066 0.10520125 -0.15912674 -0.1789703 -0.3575738 0.42352003 0.31680048
0.23478308 0.26137644 -0.0637079 -0.41945067 -0.30453962 -0.061510503 0.29893684 0.053474665
0.23324457 0.3026118 -0.07581821 -0.0867051 0.25213024 -0.21557939 0.37557498 0.2637303
-0.34369588 0.38778368 0.054335874 -0.4376772 -0.27103993 0.11519165 0.21232225 0.06401758
0.40955198 0.09139888 -0.029930243 -0.34530205 -0.41663015 0.3363433 0.11913836 0.1971446
0.27285334 -0.1269413 -0.012610466 0.31627342 -0.13640743 0.18222445 0.37923717 -0.16942862
-0.44481203 0.44493148 -0.38237947 -0.031474173 -0.07331095 -0.1762298 0.18868724 0.20133688
-0.17459494 -0.010094949 -0.22722162 0.16179368 -0.27228427 -0.29829532 -0.17324668 -0.26664573
-0.0736868 0.24627489 -0.2755739 0.39938182 -0.10753505 -0.2579544 0.12530957 0.022265166
-0.22238776 0.4442736 -0.37143221 -0.2641152 0.11756492 0.18061537 -0.4210239 -0.31957802
-0.10964249 -0.16048057 -0.30746418 -0.1392714 0.3198195 -0.35887867 -0.042387694 0.12114173
0.44734266 -0.098924585 0.23993172 -0.24033216 0.12927648 -0.074310005 0.19803174 0.29724455
-0.26949748 -0.3346244 -0.04127928 0.03201961 0.015618968 -0.18623698 0.42313248 0.27997333
0.19878572 -0.109439224 0.045840714 -0.23467492 0.41276336 -0.32645634 0.23150572 -0.4190485
0.22080128 -0.2719219 0.18895501 0.23998173 0.13983928 -0.33278292 -0.26333493 0.275945

Linear2.weight f4 [3, 256]
00000000: 17f8 303c 875b 4ebc 1fee 6e3d fe98 193d
00000010: 212b debc 3609 08bc de04 5bbd 9d58 543d
00000020: 7766 f4bc ae6a 4c3d 7cca 50bd 4480 773d
00000030: 41ff 893c 80cf de3a 5081 cfbb e0a9 88bc
00000040: d761 953c b30a 30bd 6c0f 09bd 1701 c2bc
00000050: fc0f 50bd 74be 363d 00bb 1d3a 3644 5f3d
00000060: 2134 013d 4519 073c a256 66bd 2d8b 90bc
00000070: 824f 283d a0cf 6f3b a000 563d fcfe 2e3d
00000080: be95 c4bb 8ca7 07bd ba18 5d3d bc76 a53c
00000090: 986e 6cbc 083e 14bc 9ef5 343d df2b e43b
000000a0: 122d 0c3d 342f e4bc 089c e53c 32f4 4cbd
000000b0: daca 3fbd 7f8c b03c 3876 69bc 809e 8c3c
000000c0: a67e 443d b827 1cbc 1e64 2f3d 7eff 43bd
000000d0: ca5b 453d 48f8 1dbd d8d0 753d c3f1 0fbc
000000e0: 8c67 3cbd 1523 163b 9d51 b8bc 0a1a 7ebd
000000f0: a71f 6b3d b898 4fbd 6389 2f3d 396d 4b3d
00000100: 7427 083d e199 28bd 3d55 17bd 57b2 74bd
00000110: 1cf2 663d 0840 0b3d b4ca 94bc aab1 80bc
00000120: 862d 613d d0b9 8a3b fc85 123c a42a 80bc
00000130: 1765 733c 6ab7 dcbc 74af 993c 8cb0 ab3b
00000140: f6ba 213d 9695 763d 9d74 0abd b258 4dbc
00000150: 8097 1c3c 2205 80bd d37f e4bc f40a 033c
00000160: 73ce 8cbb 86ce 2bbd b336 dcbb b075 3dbd
00000170: 72f6 f6bc b8db 5bbd 2065 76bd b2a6 86bc
00000180: 7a56 f4ba 3313 febc 6302 06bd 6878 34bd
00000190: 8ed4 503d 1296 59bd 28ed 3d3c f5bd 363d
000001a0: dffc 5b3d 408c 89bc 2d0d 2cbc 1c6c 4d3d
000001b0: e953 56bb c832 89bb f6bf 153d bcf1 6fb8
000001c0: 083c 67bc 9006 553c 9072 663d f4c2 253d
000001d0: af36 e03c da85 5c3d 9905 4ebd dec1 40bc
000001e0: 6938 663d c04f 823b 7b80 c93c de3c 7f3d
000001f0: a247 32bd 7b79 2d3c c8b3 7f3d 5ad8 263d
00000200: d8b6 f63c 5243 183d ecd9 23bd 0f8c 143d
00000210: 13ba 3ebc e23c 6b3d 0062 5f3d 6cff 7ebd
00000220: 1aa4 7abd 0072 1cbb 2dc1 fabb b80b c73b
00000230: 3a0d 673d a86c d0bc e766 fb3c 0cb7 b3bc
00000240: c2ff 0d3d 8a38 41bd 7b7e cebc 7080 29bd
00000250: 008e 983b ec05 f93c be10 523b a23a 373d
00000260: e7ab 973c 0ae9 2f3d 2698 7ebd 9e6d 38bc
00000270: ba02 0b3d 000d 093b 5b16 6c3c 9133 da3c
00000280: 5019 a5bc 8b19 8d3b adbb 40bb d49f a0bc
00000290: 4918 6e3d 12fd b6bc 0338 9d3c 6410 323d
000002a0: e0eb 0e3d f751 3b3d 4dd4 c43c 54c9 15bd
000002b0: c0a1 ac3b c668 57bd c89f b9bc d97f 753c
000002c0: 9e8b 4dbc e61d 7d3d 2da5 ea3c 3b6f cc3b
000002d0: ecd4 20bd 43d2 8f3c 3b27 423d 60c1 09bc
000002e0: 0cae c1bc c1ad 77bc 5652 4fbd 006c 733d
000002f0: c9e5 cdbc 9a7d 423d 9b5e 353d 09e6 01bb
00000300: 4f98 c63c 3c35 503d 30df 0dbc 2607 e53c
00000310: 6c3c 623d 0811 52bd d834 b13c cc85 a23c
00000320: 88bf 633d 70c3 cebc b415 0c3d 44ce 20bd
00000330: 3b2a 713d 200d b1bc 09f7 773d e830 4bbc
00000340: 048f 0d3d 5853 463d 6629 733d 3c47 58bd
00000350: 3fce d63c 1289 34bd 2ced 533d 0857 00bc
00000360: 1e24 6cbd ac79 ea3c 3412 eabc cc39 56bd
00000370: 98b5 543c 203a 6b3b cc1d ffbc 8f2e e6bc
00000380: 7d8c 70bd 100b 49bd 6d46 3dbd 72bd 28bd
00000390: c780 553d 987a 0fbd 52b3 1a3d 4aa2 62bb
000003a0: 30b0 5fbd c021 e13c a637 59bd 31d7 55bd
000003b0: 111c 57bd c0d6 633b 488f 90bc 017d b9bc
000003c0: 982c 4e3d eab9 4f3d 58da 3e3d 5c7a b43a
000003d0: e8bf bfbb bc0d 87bc 4ab9 65bd 4c3d 67bd
000003e0: ba5a 00bd 5c7e 553d 70d8 b5bc 8fc4 16bd
000003f0: 816a 6c3d e0dd fe3c f0bc 1cbc 40b8 2d3c
0.010801337 -0.012595064 0.05833256 0.03749942 -0.027120175 -0.008302977 -0.05347144 0.05184232
-0.029834015 0.049906425 -0.050974354 0.060425058 0.016845347 0.0016999096 -0.006332554 -0.016682565
0.01823513 -0.042978954 -0.033461973 -0.02368216 -0.050796494 0.044615224 0.000601694 0.05450841
0.031543855 0.008245771 -0.056234963 -0.01764449 0.04109145 0.003659226 0.05224669 0.04272364
-0.005999296 -0.03311877 0.05397866 0.020198219 -0.0144306645 -0.0090479925 0.04417955 0.0069632377
0.03422267 -0.02785454 0.028028503 -0.05003757 -0.046824314 0.021551369 -0.014249377 0.017165422
0.047972344 -0.009530954 0.04282009 -0.04785108 0.04818324 -0.038566858 0.060013622 -0.008785668
-0.045997187 0.0022909094 -0.022499854 -0.06203655 0.057403233 -0.050682753 0.04285563 0.04966471
0.03324075 -0.041162375 -0.036946524 -0.05974039 0.056383237 0.03399661 -0.018163063 -0.015709717
0.054975055 0.0042335764 0.008943077 -0.015645333 0.014855645 -0.026942927 0.01876042 0.005239552
0.03948494 0.06020125 -0.033802617 -0.012533354 0.009557605 -0.06250979 -0.027892983 0.007998217
-0.0042970716 -0.041945003 -0.006720388 -0.046254814 -0.030146811 -0.053676337 -0.060155034 -0.016436908
-0.0018641495 -0.031015014 -0.03271712 -0.04406014 0.050983958 -0.053121634 0.011592187 0.04461475
0.053707954 -0.01679051 -0.010501188 0.05015193 -0.0032703823 -0.004186962 0.03656002 -5.7207173e-05
-0.014113434 0.013002053 0.0562616 0.040469125 0.027369825 0.05383859 -0.050298307 -0.011764972
0.05620614 0.003976792 0.024597397 0.062313907 -0.043525346 0.010588045 0.062427312 0.040733673
0.030116484 0.037173577 -0.04000275 0.036266383 -0.011641043 0.05743111 0.05453682 -0.062255308
-0.061191656 -0.002387166 -0.007652423 0.006074395 0.0564091 -0.025442436 0.030688716 -0.02193787
0.034667738 -0.04717306 -0.025206795 -0.041382253 0.0046555996 0.030398332 0.0032053436 0.04473365
0.018514587 0.042946853 -0.06215682 -0.0112566035 0.033938147 0.002091229 0.014409627 0.026635917
-0.020153672 0.0043060235 -0.0029408738 -0.019607462 0.05812863 -0.02233747 0.019191748 0.043472663
0.034892917 0.045732465 0.024027014 -0.036568955 0.0052683055 -0.052590154 -0.022659197 0.014984095
-0.012545494 0.06179609 0.028643215 0.0062388456 -0.039265558 0.017556315 0.047400694 -0.008407921
-0.023642562 -0.01511711 -0.05061563 0.05942917 -0.025133984 0.047483064 0.044279676 -0.001982095
0.024242548 0.05083202 -0.008659169 0.02795751 0.055233404 -0.051285774 0.021631643 0.01983919
0.05560258 -0.025239676 0.034200385 -0.03925921 0.058878165 -0.021612704 0.060538325 -0.012401797
0.03456022 0.048419327 0.059365653 -0.05280231 0.026221393 -0.044076033 0.051739857 -0.00783325
-0.05765163 0.02862247 -0.028573133 -0.052301213 0.012982748 0.00358928 -0.031142138 -0.028098373
-0.05872773 -0.049082816 -0.04620974 -0.041196294 0.052124765 -0.035029024 0.03776867 -0.0034581595
-0.054611385 0.027481914 -0.053031586 -0.052207176 -0.052517 0.0034765452 -0.017646447 -0.022642614
0.050335497 0.05071441 0.046594948 0.0013769376 -0.0058517344 -0.016486041 -0.05608491 -0.05645494
-0.031336524 0.05212246 -0.022197932 -0.036808547 0.057718758 0.031111658 -0.009566531 0.010603011

Linear2.bias f4 [3]
00000000: deba 283d 420c 4abd 7357 3fbd
0.041193835 -0.049328096 -0.046714257
