runs/run3/models/model2401.pth (torch, 10959 bytes, 4 tensors)

Linear1.weight f4 [256, 5]
0	0x3e2cff5a	0.16894284
1	0x3b96ec23	0.0046057864
2	0xbe114969	-0.1418816
3	0xbece354b	-0.40275034
4	0xbea3b181	-0.31971362
5	0xbed89551	-0.4230142
6	0xbe523039	-0.20526208
7	0x3eb1a5e8	0.3469689
8	0xbe88c314	-0.26711333
9	0xbe25a42a	-0.16175905
10	0xbe103c03	-0.14085393
11	0x3e874215	0.26417604
12	0xbed00205	-0.4062654
13	0xbdf54d9b	-0.11977693
14	0xbeaebdd3	-0.341292
15	0xbedcc7f4	-0.43121302
16	0xbe49e5e0	-0.19716597
17	0x3e210f70	0.15728545
18	0xbefe38ff	-0.4965286
19	0x3eaf3da9	0.3422673
20	0x3e2e7131	0.17035367
21	0x3ebe80bf	0.372076
22	0x3ec68597	0.38773796
23	0xbe99c8b7	-0.30035946
24	0xbe0a17b3	-0.13485603
25	0xbdb85190	-0.08999932
26	0xbe0d1b3e	-0.13779923
27	0xbe835792	-0.25652748
28	0xbe76ad62	-0.24089578
29	0xbeab3dba	-0.3344553
30	0x3ed48064	0.41504204
31	0xbd2c2f56	-0.04203733
32	0x3dfe523e	0.1241803
33	0xbe624547	-0.2209674
34	0x3bb2a82d	0.005452177
35	0x3d9824a0	0.07428861
36	0x3e6c51ec	0.23078126
37	0x3dbbb2c0	0.09164953
38	0xbe7d2783	-0.24722104
39	0xbecde439	-0.40213183
40	0x3e3fcc09	0.18730177
41	0xbf0f16d5	-0.55894214
42	0xbe70e925	-0.23526438
43	0xbecabe1a	-0.3959816
44	0x3e2c3e53	0.1682065
45	0x3daad133	0.08340683
46	0xbf026a69	-0.5094362
47	0xbe45db88	-0.19322026
48	0xbf0e34ed	-0.5554951
49	0x3d40de8d	0.04708724
50	0xbee629ce	-0.4495377
51	0xbeec0070	-0.46094084
52	0x3e09ad75	0.13445075
53	0xbdcae9c6	-0.0990787
54	0xbe727b38	-0.23679817
55	0xbe9b9714	-0.303887
56	0xbea9dc4a	-0.3317588
57	0x3e2ee879	0.17080869
58	0x3d8eab35	0.06966249
59	0xbe4a3b01	-0.1974907
60	0xbd963f75	-0.07336322
61	0xbe939725	-0.28826252
62	0x3e0663a8	0.13123953
63	0xbf2062e3	-0.6265089
64	0xbe498b76	-0.19682106
65	0xbf86f43c	-1.0543284
66	0x3e0cc1d7	0.13745819
67	0x3c27f117	0.010250351
68	0x3f03eeaa	0.5153605
69	0xbdb7ac54	-0.08968416
70	0xbfb51b2f	-1.4148921
71	0x3e970e7a	0.29503232
72	0xbe86a00e	-0.26293987
73	0x3f1515c0	0.5823631
74	0x3e8a0c2c	0.2696241
75	0xbdb1f0c4	-0.086885005
76	0xbf033fa0	-0.5126896
77	0x3e940593	0.28910503
78	0xbe94047a	-0.28909665
79	0x3e814f67	0.25255892
80	0x3e357efc	0.17724222
81	0xbe71e406	-0.2362214
82	0x3d9e064c	0.07716045
83	0xbd1c352d	-0.03813665
84	0xbe90d6cf	-0.28288886
85	0xbe69e90a	-0.22842804
86	0x3cb3b87e	0.021938559
87	0xbd83abcd	-0.06429253
88	0xbe1534e2	-0.14570954
89	0x3dfe2284	0.12408927
90	0x3e8e5d9a	0.27805787
91	0xbf119f88	-0.5688405
92	0x3f031b29	0.5121332
93	0xbe8f03c7	-0.2793257
94	0x3e8f50d3	0.2799135
95	0xbe78b05d	-0.24286027
96	0xbdf5db94	-0.12004772
97	0xbe482d3e	-0.19548509
98	0xbed1156c	-0.40836656
99	0x3e9ab2b4	0.30214465
100	0x3e65afbd	0.2243032
101	0x3e11d23d	0.14240356
102	0xbd78234f	-0.060580548
103	0xbec179f5	-0.37788358
104	0x3d9844ef	0.07435023
105	0x3e9b5e76	0.30345505
106	0xbe066ba4	-0.13126999
107	0x3e07c261	0.13257743
108	0xbdccf346	-0.10007338
109	0xbf24b8f1	-0.643447
110	0xbeb1602e	-0.34643692
111	0xbdae958b	-0.08524617
112	0x3dd32844	0.103104144
113	0x3aded9e8	0.0017002197
114	0xbe84b986	-0.25922793
115	0x3e11a951	0.14224745
116	0x3e82823e	0.25489992
117	0x3e174734	0.14773256
118	0xbca6edfe	-0.020377155
119	0xbb2d65ee	-0.002645846
120	0x3d774897	0.06037196
121	0x3e8edfad	0.27905026
122	0x3f13447f	0.5752639
123	0xbe46ae14	-0.19402343
124	0x3e2de381	0.16981317
125	0x3e074249	0.1320888
126	0x3ead7578	0.33878684
127	0xbedf1202	-0.43568426
128	0xbe3b6b53	-0.1830266
129	0x3db4c898	0.08827323
130	0xbeaa5e83	-0.33275232
131	0xbcd0035d	-0.025392229
132	0xbf06478c	-0.5245292
133	0xbe46b609	-0.19405378
134	0xbecbaa62	-0.3977843
135	0xbf31e596	-0.69490945
136	0xbdb1a6b4	-0.08674374
137	0xbe24995e	-0.1607413
138	0xbe05b9db	-0.1305918
139	0xbedf89e9	-0.43659905
140	0x3d8d0cb5	0.06887189
141	0xbf01f069	-0.5075746
142	0xbed54346	-0.41652888
143	0xbe6575ee	-0.22408268
144	0xbea0eca4	-0.31430542
145	0xbeb66641	-0.3562489
146	0x3e4650ef	0.19366811
147	0x3ddec1d3	0.10876813
148	0x3dba3bcc	0.090934366
149	0xbf386be8	-0.7203965
150	0xbedd3ccd	-0.4321045
151	0xbee28324	-0.44240677
152	0xbed829a3	-0.42219266
153	0x3e2aa6c4	0.16665179
154	0x3e01cbd8	0.12675416
155	0xbed0606d	-0.40698567
156	0xbe13bb79	-0.14426984
157	0x3d65bf19	0.056090448
158	0xbceab5e4	-0.028651185
159	0xbf07f8d4	-0.53114057
160	0xbecbeb70	-0.39828062
161	0x3e923468	0.28555608
162	0xbe9ebcc8	-0.31003404
163	0xbe2d26e1	-0.16909362
164	0xbef8e299	-0.4861038
165	0xbf1c46bf	-0.6104545
166	0x3e9e9e78	0.30980277
167	0xbea6cd07	-0.32578298
168	0x3eaa7807	0.332947
169	0x3e9a2ac7	0.30110762
170	0xbeb3f316	-0.35146397
171	0x3e7e58e4	0.24838597
172	0xbe3ac9d0	-0.18241048
173	0xbe8e4cd5	-0.27792993
174	0xbd850614	-0.064953
175	0x3ea635ee	0.3246302
176	0xbd8cdb7b	-0.068778
177	0xbef13cb9	-0.4711664
178	0xbdc51fa5	-0.09625176
179	0xbf19c55a	-0.6006676
180	0x3e172add	0.14762445
181	0xbf41d5c9	-0.75716835
182	0x3f083bf5	0.5321649
183	0xbce41fa9	-0.027847128
184	0xbe23b494	-0.15986854
185	0xbbf7c1a9	-0.007560928
186	0xbe454cf3	-0.19267635
187	0x3d67676d	0.05649512
188	0xbf157c08	-0.5839238
189	0xbe857fa1	-0.26073936
190	0x3e71cc6d	0.23613138
191	0x3e64c5fa	0.22341147
192	0x3e839401	0.25698856
193	0x3ca496fc	0.020091526
194	0xbe42ce21	-0.19023944
195	0xbb9dcf59	-0.0048159775
196	0x3c9c0174	0.019043662
197	0xbf1e1568	-0.61751413
198	0x3d1ee766	0.038794897
199	0xbdefbeef	-0.117063396
200	0xbe0dcb12	-0.13846996
201	0xbcc15e30	-0.023604482
202	0x3cae2c50	0.021261364
203	0x3e4fa548	0.20277894
204	0xbe34f468	-0.17671359
205	0x3e33c644	0.17556101
206	0x3e2694c1	0.16267683
207	0xbf008906	-0.5020908
208	0xbedbc009	-0.4291995
209	0x3e9cf80b	0.30657992
210	0x3d2e27eb	0.042518537
211	0xbecd112b	-0.4005216
212	0x3d8e5d24	0.06951359
213	0xbe879d6c	-0.2648729
214	0xbf09de09	-0.53854424
215	0x3d593f65	0.053038973
216	0x3f0dd632	0.5540496
217	0xbf99338e	-1.1968858
218	0x3d6a4650	0.05719596
219	0xbe0aba4e	-0.13547632
220	0x3e66bcfc	0.2253303
221	0x3eb518ea	0.3537057
222	0xbd281f90	-0.041045725
223	0xbeaa20b8	-0.33228087
224	0xbed0b9d0	-0.40766764
225	0xbea83b69	-0.32857826
226	0xbde0a4d3	-0.10968938
227	0xbdb0ffa9	-0.08642513
228	0xbcc0fc7c	-0.023557894
229	0xbc6be3b8	-0.014397554
230	0x3d2e8132	0.04260368
231	0xbd8bf6d8	-0.06834191
232	0x3d957eb4	0.07299557
233	0xbe5d1f50	-0.21593976
234	0x3e0dfb91	0.13865496
235	0x3e54cb6c	0.20780724
236	0xbe4943b0	-0.19654727
237	0x3e32f904	0.17477804
238	0xbd4c9370	-0.049945295
239	0xbe99f972	-0.30073124
240	0xbecd70d1	-0.40125135
241	0xbe9b7431	-0.30362085
242	0xbc388f1f	-0.0112645915
243	0xbe92783f	-0.28607365
244	0x3c262ded	0.0101427855
245	0x3dcc1794	0.09965435
246	0x3cb9df79	0.022689568
247	0xbdf6c658	-0.1204955
248	0xbef1d23d	-0.47230712
249	0xbea2ff10	-0.31835222
250	0xbf506fad	-0.81420404
251	0xbf688ff1	-0.9084464
252	0x3f536375	0.82573634
253	0x3f0bd901	0.54627997
254	0xbdb0d948	-0.08635193
255	0xbb1f271c	-0.0024284786

Linear1.bias f4 [256]
0	0xbda4bfd5	-0.080444016
1	0xbdf11b28	-0.11772758
2	0xbe0787e6	-0.13235435
3	0x3d00a206	0.031404518
4	0xbeacb4f2	-0.337318
5	0xbe14e856	-0.14541754
6	0xbeaad473	-0.3336521
7	0xbeb12f9a	-0.3460663
8	0xbe0d9fc7	-0.13830481
9	0x3de908d0	0.11378634
10	0x3ecc132b	0.39858374
11	0xbe796af4	-0.24357206
12	0x3d6c8a39	0.057749007
13	0x3ac12bc9	0.001473778
14	0xbcea21a9	-0.028580504
15	0xbe9f42eb	-0.31105742
16	0xbdcd0db4	-0.10012379
17	0xbe41eb1b	-0.18937342
18	0xbe4f3cd2	-0.20238045
19	0xbd1b4778	-0.037909955
20	0xbe84730a	-0.25869018
21	0xbeaeb1ac	-0.34119928
22	0xbccb3684	-0.024806269
23	0xbe982246	-0.2971365
24	0x3f4ff68a	0.81235564
25	0xbea08af7	-0.31356022
26	0x3d909334	0.07059327
27	0x3e8e04f2	0.27738148
28	0x3df0dbae	0.117606506
29	0xbd0e716c	-0.034776136
30	0xbe9b7340	-0.30361366
31	0x3d9ba4b4	0.07599774
32	0xbe92c396	-0.28664845
33	0xbde6386a	-0.11241229
34	0xbedbeda2	-0.42954737
35	0x3db2ff91	0.08740152
36	0x3d2fb4a4	0.04289688
37	0x3e03a313	0.12855177
38	0xbeefc68d	-0.4683117
39	0x3c9d6e02	0.019217495
40	0xbe65939f	-0.22419594
41	0xbe6fb3b3	-0.23408394
42	0x3d712cde	0.05888068
43	0x3e9982be	0.2998256
44	0xbebdbdda	-0.37058908
45	0xbd8a1542	-0.06742336
46	0xbe383590	-0.17989182
47	0xbe2d2728	-0.16909468
48	0x3ddbd430	0.10733831
49	0xbb115826	-0.0022177785
50	0xbd6a83c5	-0.05725457
51	0xbc149934	-0.00906973
52	0x3de466ad	0.11152396
53	0xbe78cbca	-0.2429649
54	0xbe80959d	-0.25114146
55	0xbed2063f	-0.4102039
56	0xbecc3808	-0.39886498
57	0xbe8f8cf1	-0.28037217
58	0xbc89b998	-0.01681213
59	0x3e8de9fa	0.27717572
60	0x3e135057	0.14386116
61	0xbe6de716	-0.23232684
62	0x3e0538d5	0.13009961
63	0x3fbe17b2	1.4850981
64	0xbeffed58	-0.49985766
65	0x3d816256	0.06317584
66	0xbe926513	-0.28592739
67	0xbdc542a1	-0.09631849
68	0xbe195bea	-0.14976469
69	0xbebdb4ed	-0.37052098
70	0xbe8c0616	-0.27348393
71	0x3cb2871a	0.021792937
72	0xbe256a10	-0.16153741
73	0xbe8c4acd	-0.27400818
74	0x3eb047c1	0.34429744
75	0xbe76dc11	-0.24107386
76	0xbd897211	-0.067112096
77	0x3be976d9	0.0071247634
78	0xbe264b6f	-0.16239713
79	0x3e81f1a7	0.2537968
80	0xbe9dfb54	-0.3085581
81	0xbd835eca	-0.06414564
82	0xbdcbae7c	-0.0994539
83	0xbd21f0c2	-0.039536245
84	0x3c72d31b	0.014820839
85	0xbdf6cc2c	-0.120506614
86	0x3d55d030	0.052200496
87	0xbdb1dd87	-0.08684831
88	0xbe0fdaa0	-0.14048243
89	0xbea65f84	-0.32494748
90	0x3c4aa3dd	0.01236817
91	0x3dbb0ffd	0.09133909
92	0xbce80d9d	-0.028326804
93	0x3e1c9271	0.15290238
94	0x3dd0cf0e	0.101957425
95	0x3dd20673	0.10255136
96	0x3c86afc0	0.016441226
97	0x3e873e9e	0.2641496
98	0xbc2be25c	-0.01049098
99	0xbd982af8	-0.07430071
100	0xbd49a8e0	-0.049233317
101	0xbc2c4f25	-0.010516916
102	0xbd7e95b6	-0.062154494
103	0xbe6bea19	-0.2303852
104	0x3ebbcf65	0.36681667
105	0xbe74849d	-0.23878713
106	0xbd8fdcb6	-0.07024519
107	0xbea27819	-0.31732252
108	0xbe7fbf41	-0.24975301
109	0x3db78c31	0.08962286
110	0xbdb81135	-0.08987657
111	0xbea006b6	-0.3125512
112	0xbed1a28c	-0.40944326
113	0xbece5cf0	-0.4030528
114	0xbd2ca86a	-0.0421528
115	0x3d5a234c	0.053256318
116	0xbecf756a	-0.40519267
117	0xbe2bb001	-0.16766359
118	0x3e0aa05b	0.13537733
119	0x3d716d01	0.058941845
120	0xbd914080	-0.070923805
121	0xbebcd8b2	-0.36884075
122	0xbe64238a	-0.22279182
123	0xbddc8b79	-0.1076879
124	0x3ba72041	0.0051002805
125	0xbecc0fda	-0.39855844
126	0xbed2e121	-0.41187385
127	0xbcb1354f	-0.021631865
128	0xbe5f6c39	-0.21818627
129	0x3debddd1	0.115169175
130	0x3d642070	0.055694997
131	0xbd2f263c	-0.042761073
132	0x3e119fe8	0.14221156
133	0xbedb32f1	-0.42812303
134	0xbe4fbf61	-0.20287849
135	0xbe232bd4	-0.15934688
136	0xbe80b4ce	-0.25137943
137	0xbece1559	-0.40250662
138	0xbeee0ebf	-0.46495625
139	0xbea04fd5	-0.31310907
140	0xbecc8aa8	-0.39949536
141	0xbee1f4df	-0.44132134
142	0x3d58f65b	0.052969318
143	0xbd9e624e	-0.07733594
144	0x3df37348	0.118872225
145	0xbee08659	-0.438525
146	0xbed263fd	-0.4109191
147	0xbedea3ba	-0.43484288
148	0xbe508cad	-0.20366164
149	0xbd9b5800	-0.07585144
150	0xbea5bec4	-0.32372105
151	0xbea70688	-0.3262217
152	0xbdb71a1c	-0.08940527
153	0xbe993f43	-0.29931077
154	0xbe15bff2	-0.14624003
155	0xbebd3cfc	-0.3696059
156	0xbe9a0053	-0.30078372
157	0xbed94fe0	-0.42443752
158	0x3d49fef5	0.04931541
159	0xbf070302	-0.52738965
160	0xbd177e40	-0.036985636
161	0xbe49db0b	-0.19712465
162	0xbecc1dfe	-0.39866632
163	0xbe573063	-0.21014552
164	0x3e3282d1	0.17432715
165	0xbe5bca8c	-0.21463984
166	0xbca502c6	-0.020142924
167	0x3c20b7e3	0.009809467
168	0xbec2a063	-0.3801299
169	0xbd59ef8a	-0.053206958
170	0xbe056196	-0.13025507
171	0xbe65d8b6	-0.2244595
172	0xbd637b20	-0.055537343
173	0xbeb8a0ac	-0.36060083
174	0x3e235a04	0.15952307
175	0xbe39b7a4	-0.1813646
176	0xbc67f521	-0.014157564
177	0x3da8620e	0.082218274
178	0xbe847821	-0.258729
179	0x3e5a231e	0.21302459
180	0x3d4a1d03	0.049344074
181	0xbdc4b5ac	-0.09604964
182	0xbe87fda6	-0.26560706
183	0xbeaac566	-0.33353728
184	0x3d030416	0.03198632
185	0xbebe60f0	-0.37183332
186	0x3f9ccb93	1.2249626
187	0x3ddb566e	0.107098445
188	0xbeb68de2	-0.35655123
189	0x3de3b36a	0.11118205
190	0xbe3f6280	-0.18689919
191	0xbe797e94	-0.24364692
192	0xbdcb21d4	-0.099185616
193	0xbe9b7bec	-0.30367982
194	0xbe24b338	-0.16083992
195	0xbe4e1369	-0.20124592
196	0xbeab03e1	-0.33401397
197	0x3e86bfa8	0.26318097
198	0xbe884e10	-0.26622057
199	0xbeda8bf3	-0.42684898
200	0xbe91fe0a	-0.2851413
201	0x3ec11088	0.37707925
202	0x3d7cb8aa	0.061699547
203	0xbe574210	-0.21021295
204	0xbda82b20	-0.082113504
205	0xbdb1210e	-0.08648883
206	0xbdca4868	-0.09877092
207	0xbdb46150	-0.088076234
208	0x3d8ed3b5	0.06973974
209	0xbd94b3a2	-0.07260825
210	0x3e45d660	0.19320059
211	0x3e1c5fd1	0.15270926
212	0xbeb1b500	-0.34708405
213	0xbe0f2ad1	-0.13981177
214	0x3dedf5fb	0.11619183
215	0x3ec1245d	0.37723055
216	0x3dd36f75	0.10323993
217	0xbea694f9	-0.32535532
218	0xbe483721	-0.1955228
219	0xbb8b9b31	-0.0042604436
220	0xbe71212c	-0.2354781
221	0x3dd7cd37	0.105371885
222	0xbed08bd4	-0.4073168
223	0xbed73a81	-0.42036822
224	0xbec8128c	-0.3907665
225	0x3e9a5a42	0.30146986
226	0xbecee43f	-0.40408513
227	0xbedcecde	-0.43149465
228	0xbd386a9d	-0.04502355
229	0x3e11cd3b	0.14238445
230	0xbd93fda2	-0.07226111
231	0xbee066c6	-0.4382841
232	0x3d985f08	0.07440001
233	0xbe554a0e	-0.20829031
234	0xbd775290	-0.060381472
235	0xbe4c2cf1	-0.19939019
236	0xbde22c17	-0.11043566
237	0xbe2507d2	-0.16116264
238	0xbeda712e	-0.42664474
239	0x3e2b2efe	0.16717145
240	0xbdb7e9a8	-0.08980113
241	0xbe6e85f8	-0.23293293
242	0x3e6b56d8	0.22982347
243	0x3d1fc47b	0.039005738
244	0xbdf906dc	-0.121595114
245	0x3d907720	0.07053971
246	0xbe249242	-0.16071418
247	0xbd3a4aa0	-0.045481324
248	0xbdde3da1	-0.108515985
249	0xbe40ec8a	-0.18840232
250	0xbe4b00a3	-0.19824462
251	0xbd91356d	-0.07090268
252	0xbeb6de89	-0.35716656
253	0xbe9376da	-0.28801614
254	0xbd7012b1	-0.058611576
255	0x3ed91c41	0.4240437

Linear2.weight f4 [3, 256]
0	0xbd8bef12	-0.068327084
1	0x3d178826	0.036995076
2	0xbd152eec	-0.0364217
3	0xbe798682	-0.24367717
4	0xbb8f84ee	-0.00437986
5	0x3c7ca030	0.015419051
6	0x3d0e4c21	0.03474057
7	0xbd50184c	-0.05080442
8	0xbc0de84e	-0.008661343
9	0x3ceb94aa	0.028757412
10	0xbe562f22	-0.20916417
11	0x3d3e0c28	0.04639831
12	0x3cecee79	0.028922306
13	0xbf4dc646	-0.80380666
14	0xbf6d1701	-0.92613226
15	0xbd5c4171	-0.053773347
16	0x3e06ee26	0.13176784
17	0x3d5b9002	0.053604133
18	0x3d00dc53	0.031460118
19	0xbc5c4080	-0.013443112
20	0xbb4e8fcc	-0.0031518815
21	0xbd263346	-0.040576242
22	0x3d6d1986	0.05788567
23	0x3dd31845	0.103073634
24	0x3e6ff7c2	0.23434356
25	0xbc4ecf70	-0.012622699
26	0x3c336044	0.0109482445
27	0xbd9b83f0	-0.075935245
28	0x3de489df	0.11159109
29	0x3d9f9f2f	0.07794034
30	0xbd76f194	-0.06028898
31	0xbd6c25c1	-0.057653192
32	0xbb19e780	-0.0023483932
33	0xbeafc861	-0.34332564
34	0x3cafa0a4	0.021438904
35	0x3c3307de	0.010927169
36	0xbe3a5b0a	-0.18198791
37	0x3d3f9661	0.046774272
38	0x3c8cecaa	0.017202694
39	0x3c2a91e0	0.010410756
40	0xbc8e96c4	-0.017405875
41	0xbd6121a8	-0.054963738
42	0x3db05258	0.08609456
43	0xbea2cdfa	-0.31797773
44	0xbd11d830	-0.035606563
45	0xbc647418	-0.0139436945
46	0x3d2f0f58	0.042739242
47	0xbcf00c04	-0.029302604
48	0xbbcda72c	-0.006276032
49	0xbc1745da	-0.0092329625
50	0xbf4811df	-0.7815227
51	0x3e13cdca	0.14433971
52	0xbc20eeaa	-0.009822527
53	0xbd6f6698	-0.05844745
54	0xbc276e90	-0.010219231
55	0xbcd32ab4	-0.025777198
56	0x3b69ea3c	0.0035692593
57	0xbe390e26	-0.18071803
58	0xbd18cb90	-0.037303507
59	0xbea29800	-0.31756592
60	0x3dd166a8	0.10224658
61	0xbd2dc09e	-0.042420022
62	0x3ce3d286	0.027810346
63	0x3f0c3303	0.5476534
64	0x3e05288c	0.13003749
65	0xbde16b0f	-0.11006748
66	0xbf31ec9c	-0.6950166
67	0x3b73842f	0.0037157645
68	0x3d780685	0.060553093
69	0xbe61d291	-0.22052981
70	0x3c13f0d0	0.009029582
71	0x3bd6e57a	0.0065581175
72	0xbd16d579	-0.036824677
73	0x3c946768	0.018115714
74	0xbe4ecdfb	-0.20195763
75	0xbc1c5e46	-0.009543961
76	0x3d9d4e0e	0.076809034
77	0x3d84a1d8	0.06476182
78	0xbde6cf99	-0.11270065
79	0xbe8dc336	-0.27687997
80	0xbcb3e2e0	-0.021958768
81	0x3cd8f863	0.026485628
82	0x3b65f700	0.003508985
83	0xbd359e81	-0.044340614
84	0x3d596c20	0.05308163
85	0xbd1fe835	-0.03903981
86	0xbec3c9b8	-0.38239837
87	0xbdad0ab6	-0.084493086
88	0x3d3bcd74	0.045850232
89	0x3bb3f06d	0.0054913075
90	0xbd796037	-0.060882773
91	0xbe4b323f	-0.19843386
92	0x3d66b094	0.05632074
93	0x3cb58200	0.022156715
94	0x3d9b6799	0.07588119
95	0xbc22c899	-0.0099355215
96	0x3d654b64	0.0559801
97	0xbead3ff6	-0.3383786
98	0x3d4d9208	0.050188094
99	0xbd0c279f	-0.034217473
100	0xbc804710	-0.015658885
101	0xbc8baac4	-0.0170492
102	0x3dd66575	0.1046857
103	0x3d2c9584	0.042134777
104	0xbe1e8d0d	-0.15483494
105	0x3d1615c9	0.03664187
106	0x3c5e38de	0.013563363
107	0xbd4d7e9c	-0.050169572
108	0xbc07b819	-0.008283638
109	0xbdad751a	-0.08469601
110	0xbabc2c0f	-0.0014356392
111	0x3d2caa2d	0.04215448
112	0xbca82ce4	-0.020529218
113	0x3d6eba50	0.05828315
114	0xbcb19850	-0.021679074
115	0x3e018fb9	0.12652482
116	0xbdfdd71e	-0.12394546
117	0xbd14b167	-0.036301997
118	0xbd48f3c8	-0.049060613
119	0xbd1f15f0	-0.03883928
120	0xbd3073fa	-0.043079354
121	0x3c2d88f0	0.0105917305
122	0xbd7e70ae	-0.06211918
123	0xbc984586	-0.018587839
124	0x3d2492ff	0.04017925
125	0x3a9fbff5	0.0012187945
126	0x3d58b238	0.052904338
127	0xbc1e02d8	-0.009644233
128	0x3d44cd20	0.048047185
129	0xbd33c209	-0.04388622
130	0xbc3242e8	-0.0108802095
131	0x3d42af46	0.047530435
132	0x3dcd9433	0.100380324
133	0xbc69c16e	-0.014267309
134	0xbe41ee5e	-0.18938586
135	0xbf43b62d	-0.76449853
136	0x3d2e1348	0.042498857
137	0x3d7d0102	0.06176854
138	0x3d4c114a	0.049821176
139	0xbd7e1ce9	-0.06203929
140	0xbc3ac9a0	-0.01140061
141	0x3d153c80	0.03643465
142	0x3e04fc3f	0.12986849
143	0x3c838169	0.016052919
144	0xbc80deb4	-0.015731193
145	0xbdeb953c	-0.115030736
146	0x3cf0dc00	0.02940178
147	0x3c610d56	0.01373609
148	0xbd3d5140	-0.046220064
149	0xbd331a94	-0.04372652
150	0xbd74e170	-0.059785306
151	0xbd136c10	-0.03599173
152	0xbd311dd2	-0.04324133
153	0x3cd501a0	0.026001751
154	0x3d468b9c	0.048472986
155	0x3d2b04d2	0.041752644
156	0xbeb81232	-0.35951382
157	0x3d788670	0.060675085
158	0xbf10674a	-0.56407607
159	0xbcdb7e78	-0.026793703
160	0xbd201fe5	-0.039092917
161	0xbd5807f3	-0.052741956
162	0xbc83aa8c	-0.016072534
163	0x3cf3b3e8	0.029748872
164	0xbdc6ff0f	-0.09716617
165	0x3dda8349	0.10669572
166	0x3de07167	0.1095913
167	0xbf595725	-0.84898597
168	0x3cc10bac	0.023565136
169	0x3c0d871f	0.008638172
170	0x3d799484	0.06093265
171	0xbd542f54	-0.051802948
172	0x3c6946bb	0.014238055
173	0x3d13f95e	0.036126487
174	0x3be05540	0.0068461
175	0xbd7fd016	-0.062454306
176	0x3c878c96	0.016546529
177	0xbd05ae3c	-0.032636866
178	0xbcbfbdc0	-0.02340591
179	0xbe35b2b3	-0.1774395
180	0x3ce23abb	0.027615895
181	0x3b8dee00	0.0043313503
182	0x3c019158	0.007908188
183	0xbb697328	-0.0035621617
184	0x3d5fc788	0.054633647
185	0xbdb4cf08	-0.088285506
186	0x3f00eb33	0.50358886
187	0x3c9cbca1	0.019132914
188	0x3be21d90	0.006900497
189	0x3d88e335	0.06683961
190	0xbcc52591	-0.024065765
191	0x3b7cb370	0.0038559102
192	0xbd285b36	-0.04110261
193	0xbd1c9dc4	-0.038236395
194	0xbcfa431d	-0.03054958
195	0x3e10d23d	0.141427
196	0x3dd3a4ad	0.10334144
197	0x3ccc5e88	0.02494742
198	0xbd2b6a56	-0.041849457
199	0xbd875dfe	-0.066097245
200	0xbde05968	-0.10954553
201	0xbf6449a2	-0.89174855
202	0xbc16e2ef	-0.009209379
203	0xbf5820d3	-0.84425086
204	0x3deede24	0.11663464
205	0x3dc04b23	0.09389331
206	0xbe81e38c	-0.25368917
207	0x3ca84da0	0.020544827
208	0x3c8cde69	0.017195897
209	0xbd140124	-0.0361339
210	0xbe9efb04	-0.31050885
211	0x3d135a7e	0.035974972
212	0xbc217c18	-0.009856246
213	0xbf0955b3	-0.5364639
214	0xbbcbf25c	-0.00622396
215	0xbe5d54e2	-0.21614411
216	0xbbc6e604	-0.0060699005
217	0x3c71f368	0.014767505
218	0x3d860982	0.06544782
219	0x3d475adb	0.04867063
220	0xbe38ebf9	-0.18058766
221	0x3cf9e926	0.030506682
222	0xbc9603e4	-0.018312402
223	0xbd3ee634	-0.046606258
224	0x3c204a78	0.00978338
225	0xbe275ab5	-0.16343196
226	0x3c31bad8	0.01084777
227	0xbbad0540	-0.005280167
228	0x3d097d1e	0.033566587
229	0xbc129743	-0.008947196
230	0xbe748232	-0.2387779
231	0xbd713558	-0.058888763
232	0x3d4f8afa	0.050669648
233	0xbd17be54	-0.037046745
234	0xbe7973aa	-0.24360529
235	0xbcfc35ab	-0.03078731
236	0x3c3bd75a	0.011464918
237	0xbe93473a	-0.2876528
238	0xbd1bac9a	-0.038006403
239	0xba699154	-0.00089099
240	0xbd1bec33	-0.038067054
241	0x3c773520	0.01508835
242	0x3d8cfbc1	0.06883956
243	0x3d6789c1	0.056527857
244	0x3cea9ee0	0.02864021
245	0x3d085c92	0.033291407
246	0xbccaccf0	-0.024755925
247	0x3d1ce708	0.038306266
248	0x3cd5ade8	0.026083902
249	0xbd5a252a	-0.0532581
250	0x3ce48418	0.027895018
251	0xbe6549df	-0.22391461
252	0xbaa006c0	-0.0012209043
253	0xbf248688	-0.6426778
254	0x3d8d8c7b	0.0691156
255	0xbe5678ec	-0.20944566

Linear2.bias f4 [3]
0	0x3e877617	0.26457283
1	0x3e56fb59	0.20994319
2	0x3e89915c	0.26868713
