runs/run3/models/model2001.pth (torch, 10959 bytes, 4 tensors)

Linear1.weight f4 [256, 5]
0.16894284 0.0046057864 -0.1418816 -0.40275034 -0.31971362 -0.4230142 -0.20526208 0.3469689
-0.26711333 -0.16175905 -0.14085393 0.26417604 -0.4062654 -0.11977693 -0.341292 -0.43127093
-0.19721544 0.15723126 -0.49658716 0.34221 0.17035367 0.372076 0.38773796 -0.30035946
-0.13485603 -0.08999932 -0.13779923 -0.25652748 -0.24089578 -0.3344553 0.41504204 -0.04203733
0.1241803 -0.2209674 0.005452177 0.07428861 0.23078126 0.09164953 -0.24722104 -0.40213183
0.18730177 -0.55894214 -0.23526438 -0.3959816 0.1682065 0.08340683 -0.5094362 -0.19322026
-0.5554951 0.04708724 -0.44949827 -0.46091336 0.1344934 -0.09903311 -0.23674291 -0.303887
-0.3317588 0.17080869 0.06966249 -0.1974907 -0.07336322 -0.28826252 0.13123953 -0.6265089
-0.19682106 -1.0543151 0.13747391 0.010249815 0.5153534 -0.08967456 -1.4148666 0.29507005
-0.2629419 0.58237535 0.26963896 -0.086885005 -0.5126896 0.28910503 -0.28909665 0.25255892
0.17724222 -0.2362214 0.07716045 -0.03813665 -0.28288886 -0.22842804 0.021938559 -0.06429253
-0.14570954 0.12408927 0.27807456 -0.5688157 0.5121519 -0.27929854 0.27993676 -0.24286027
-0.12004772 -0.19548509 -0.40836656 0.30214465 0.2243032 0.14240356 -0.060580548 -0.37788358
0.07435023 0.30345505 -0.13126999 0.13257743 -0.10007338 -0.643447 -0.34643692 -0.08524617
0.103104144 0.0017002197 -0.25922793 0.14224745 0.25489992 0.14773256 -0.020377155 -0.002645846
0.060252745 0.27889022 0.5751186 -0.19422138 0.16961877 0.13207236 0.33877048 -0.43570063
-0.18304303 0.08825677 -0.33275232 -0.025392229 -0.5245292 -0.19405378 -0.3977843 -0.69490945
-0.08674374 -0.1607413 -0.1305918 -0.43659905 0.06887189 -0.5075746 -0.41652888 -0.22408268
-0.31430542 -0.3562489 0.19366811 0.10876813 0.090934366 -0.7203965 -0.4321045 -0.44240677
-0.42219266 0.16665179 0.12675416 -0.40698567 -0.14426984 0.056090448 -0.028651185 -0.53114057
-0.39828062 0.28555608 -0.31003404 -0.16909362 -0.4861038 -0.6104343 0.30983675 -0.32577258
0.33296758 0.30112088 -0.35146397 0.24838597 -0.18241048 -0.27792993 -0.064953 0.32461432
-0.06879401 -0.47118202 -0.09626712 -0.60068274 0.14763336 -0.75715464 0.53217983 -0.02782317
-0.15982737 -0.007560928 -0.19267635 0.05649512 -0.5839238 -0.26073936 0.23613138 0.22341147
0.25698856 0.020091526 -0.19023944 -0.0048159775 0.019043662 -0.61751413 0.038794897 -0.117063396
-0.13846996 -0.023604482 0.021261364 0.20277894 -0.17671359 0.17556801 0.16268909 -0.5020794
-0.42919165 0.3065918 0.042518537 -0.4005216 0.06951359 -0.2648729 -0.53854424 0.05308926
0.5540895 -1.1968516 0.057249233 -0.1354431 0.2253303 0.3537057 -0.041045725 -0.33228087
-0.40766764 -0.32857826 -0.10968938 -0.08642513 -0.023557894 -0.014397554 0.04260368 -0.06834191
0.07299557 -0.21593976 0.13865496 0.20780724 -0.19654727 0.17477804 -0.049945295 -0.30073124
-0.40125135 -0.30362085 -0.0112645915 -0.28607365 0.0101427855 0.09965435 0.022689568 -0.1204955
-0.47230712 -0.31835222 -0.81418216 -0.9084393 0.8257546 0.5462948 -0.08630313 -0.0024284786
00000000: 5aff 2c3e 23ec 963b 6949 11be 4b35 cebe
00000010: 81b1 a3be 5195 d8be 3930 52be e8a5 b13e
00000020: 14c3 88be 2aa4 25be 033c 10be 1542 873e
00000030: 0502 d0be 9b4d f5bd d3bd aebe 8bcf dcbe
00000040: d8f2 49be 3b01 213e ac40 febe 2636 af3e
00000050: 3171 2e3e bf80 be3e 9785 c63e b7c8 99be
00000060: b317 0abe 9051 b8bd 3e1b 0dbe 9257 83be
00000070: 62ad 76be ba3d abbe 6480 d43e 562f 2cbd
00000080: 3e52 fe3d 4745 62be 2da8 b23b a024 983d
00000090: ec51 6c3e c0b2 bb3d 8327 7dbe 39e4 cdbe
000000a0: 09cc 3f3e d516 0fbf 25e9 70be 1abe cabe
000000b0: 533e 2c3e 33d1 aa3d 696a 02bf 88db 45be
000000c0: ed34 0ebf 8dde 403d a324 e6be d6fc ebbe
000000d0: a3b8 093e dfd1 cabd bc6c 72be 1497 9bbe
000000e0: 4adc a9be 79e8 2e3e 35ab 8e3d 013b 4abe
000000f0: 753f 96bd 2597 93be a863 063e e362 20bf
00000100: 768b 49be ccf3 86bf f6c5 0c3e d7ee 273c
00000110: 33ee 033f 4ca7 b7bd 591a b5bf 6c13 973e
00000120: 52a0 86be 8d16 153f 1e0e 8a3e c4f0 b1bd
00000130: a03f 03bf 9305 943e 7a04 94be 674f 813e
00000140: fc7e 353e 06e4 71be 4c06 9e3d 2d35 1cbd
00000150: cfd6 90be 0ae9 69be 7eb8 b33c cdab 83bd
00000160: e234 15be 8422 fe3d ca5f 8e3e e89d 11bf
00000170: 631c 033f 3800 8fbe df53 8f3e 5db0 78be
00000180: 94db f5bd 3e2d 48be 6c15 d1be b4b2 9a3e
00000190: bdaf 653e 3dd2 113e 4f23 78bd f579 c1be
000001a0: ef44 983d 765e 9b3e a46b 06be 61c2 073e
000001b0: 46f3 ccbd f1b8 24bf 2e60 b1be 8b95 aebd
000001c0: 4428 d33d e8d9 de3a 86b9 84be 51a9 113e
000001d0: 3e82 823e 3447 173e feed a6bc ee65 2dbb
000001e0: 95cb 763d b3ca 8e3e f93a 133f f8e1 46be
000001f0: 8bb0 2d3e fa3d 073e 5373 ad3e 2714 dfbe
00000200: a26f 3bbe f7bf b43d 835e aabe 5d03 d0bc
00000210: 8c47 06bf 09b6 46be 62aa cbbe 96e5 31bf
00000220: b4a6 b1bd 5e99 24be dbb9 05be e989 dfbe
00000230: b50c 8d3d 69f0 01bf 4643 d5be ee75 65be
00000240: a4ec a0be 4166 b6be ef50 463e d3c1 de3d
00000250: cc3b ba3d e86b 38bf cd3c ddbe 2483 e2be
00000260: a329 d8be c4a6 2a3e d8cb 013e 6d60 d0be
00000270: 79bb 13be 19bf 653d e4b5 eabc d4f8 07bf
00000280: 70eb cbbe 6834 923e c8bc 9ebe e126 2dbe
00000290: 99e2 f8be 6c45 1cbf eca2 9e3e aacb a6be
000002a0: ba7a aa3e 842c 9a3e 16f3 b3be e458 7e3e
000002b0: d0c9 3abe d54c 8ebe 1406 85bd d933 a63e
000002c0: e0e3 8cbd c53e f1be b227 c5bd 58c6 19bf
000002d0: 332d 173e e3d4 41bf f03c 083f 6bed e3bc
000002e0: c9a9 23be a9c1 f7bb f34c 45be 6d67 673d
000002f0: 087c 15bf a17f 85be 6dcc 713e fac5 643e
00000300: 0194 833e fc96 a43c 21ce 42be 59cf 9dbb
00000310: 7401 9c3c 6815 1ebf 66e7 1e3d efbe efbd
00000320: 12cb 0dbe 305e c1bc 502c ae3c 48a5 4f3e
00000330: 68f4 34be 1ac8 333e f897 263e 4788 00bf
00000340: 02bf dbbe 9af9 9c3e eb27 2e3d 2b11 cdbe
00000350: 245d 8e3d 6c9d 87be 09de 09bf 2074 593d
00000360: cfd8 0d3f 6f32 99bf 2c7e 6a3d 99b1 0abe
00000370: fcbc 663e ea18 b53e 901f 28bd b820 aabe
00000380: d0b9 d0be 693b a8be d3a4 e0bd a9ff b0bd
00000390: 7cfc c0bc b8e3 6bbc 3281 2e3d d8f6 8bbd
000003a0: b47e 953d 501f 5dbe 91fb 0d3e 6ccb 543e
000003b0: b043 49be 04f9 323e 7093 4cbd 72f9 99be
000003c0: d170 cdbe 3174 9bbe 1f8f 38bc 3f78 92be
000003d0: ed2d 263c 9417 cc3d 79df b93c 58c6 f6bd
000003e0: 3dd2 f1be 10ff a2be 3e6e 50bf 7a8f 68bf
000003f0: a764 533f fad9 0b3f b2bf b0bd 1c27 1fbb

Linear1.bias f4 [256]
-0.080444016 -0.11772758 -0.13235435 0.031351153 -0.337318 -0.14541754 -0.3336521 -0.3460663
-0.13830481 0.11378634 0.3986225 -0.24357206 0.057749007 0.0014843078 -0.028545683 -0.31105742
-0.10012379 -0.18937342 -0.20234746 -0.037909955 -0.25869018 -0.34119928 -0.024806269 -0.2971365
0.8120876 -0.31357658 0.07059327 0.27738148 0.117606506 -0.034776136 -0.30361366 0.07599774
-0.28664845 -0.11237994 -0.42954737 0.087385096 0.042928174 0.12855177 -0.4683117 0.019217495
-0.22419594 -0.23407167 0.05888068 0.2998734 -0.37058908 -0.06742336 -0.17989182 -0.16909468
0.10733831 -0.0022177785 -0.057221476 -0.00906973 0.11152396 -0.2429649 -0.25114146 -0.4102039
-0.39886498 -0.28037217 -0.01681213 0.2772164 0.14386116 -0.23232684 0.13009961 1.4848659
-0.49985766 0.06316711 -0.28592157 -0.09630936 -0.1497617 -0.37052184 -0.27348393 0.021792937
-0.16153741 -0.27400818 0.34433204 -0.24107386 -0.067112096 0.0071247634 -0.16239713 0.2538246
-0.3085581 -0.06414564 -0.0994539 -0.039536245 0.014820839 -0.120506614 0.05225956 -0.08684831
-0.14048243 -0.32496294 0.012373499 0.091409065 -0.028326804 0.15290238 0.101957425 0.10255136
0.016441226 0.2642076 -0.01049098 -0.07430071 -0.049233317 -0.010516916 -0.062154494 -0.2303852
0.3668731 -0.23878713 -0.07026676 -0.31732252 -0.24975301 0.08962286 -0.08987657 -0.3125512
-0.40944326 -0.4030528 -0.0421528 0.053256318 -0.40519267 -0.16766359 0.13537733 0.058941845
-0.070923805 -0.36884075 -0.22279182 -0.1076879 0.0051002805 -0.39855844 -0.41187385 -0.021631865
-0.21818627 0.11518497 0.055694997 -0.042761073 0.14220724 -0.42812303 -0.20283982 -0.15932041
-0.25137943 -0.40250662 -0.46495625 -0.31310907 -0.39949536 -0.44132134 0.052969318 -0.07733594
0.118872225 -0.438525 -0.4109191 -0.43484288 -0.20366164 -0.07585144 -0.32372105 -0.3262217
-0.08940527 -0.29931077 -0.14624003 -0.3696059 -0.30078372 -0.42443752 0.049363278 -0.52738965
-0.036985636 -0.19713652 -0.39866632 -0.21014552 0.17432715 -0.21463984 -0.020142924 0.009851832
-0.3801299 -0.053206958 -0.13025507 -0.2244595 -0.055537343 -0.36060083 0.15952307 -0.1813646
-0.014157564 0.082218274 -0.258729 0.21305119 0.049371343 -0.09604964 -0.26560706 -0.33353728
0.03198632 -0.37183332 1.2247391 0.107098445 -0.35655123 0.11118205 -0.18689919 -0.24364692
-0.099185616 -0.30367982 -0.16083992 -0.20124592 -0.33401397 0.2631768 -0.26622057 -0.42684898
-0.2851413 0.37711462 0.061699547 -0.21017712 -0.082113504 -0.08648883 -0.09877092 -0.088076234
0.06973974 -0.07260825 0.19317156 0.15270773 -0.34708405 -0.13976271 0.116173275 0.37727478
0.10323993 -0.32535532 -0.1955228 -0.0042604436 -0.2354781 0.105371885 -0.4073168 -0.42036822
-0.39076284 0.30152816 -0.40408513 -0.43149465 -0.04502355 0.14238445 -0.07221214 -0.43826842
0.07440001 -0.20829031 -0.060340784 -0.19939019 -0.11043566 -0.1611302 -0.42664474 0.16717145
-0.08980113 -0.23293293 0.22982079 0.039005738 -0.121585935 0.07053971 -0.16071418 -0.045481324
-0.108515985 -0.18840232 -0.19824462 -0.07087229 -0.35716656 -0.28797832 -0.058611576 0.42406183
00000000: d5bf a4bd 281b f1bd e687 07be 116a 003d
00000010: f2b4 acbe 56e8 14be 73d4 aabe 9a2f b1be
00000020: c79f 0dbe d008 e93d 4018 cc3e f46a 79be
00000030: 398a 6c3d 1b8d c23a a3d8 e9bc eb42 9fbe
00000040: b40d cdbd 1beb 41be 2c34 4fbe 7847 1bbd
00000050: 0a73 84be acb1 aebe 8436 cbbc 4622 98be
00000060: f9e4 4f3f 1c8d a0be 3493 903d f204 8e3e
00000070: aedb f03d 6c71 0ebd 4073 9bbe b4a4 9b3d
00000080: 96c3 92be 7427 e6bd a2ed dbbe f5f6 b23d
00000090: 74d5 2f3d 13a3 033e 8dc6 efbe 026e 9d3c
000000a0: 9f93 65be 7cb0 6fbe de2c 713d 0289 993e
000000b0: dabd bdbe 4215 8abd 9035 38be 2827 2dbe
000000c0: 30d4 db3d 2658 11bb 1161 6abd 3499 14bc
000000d0: ad66 e43d cacb 78be 9d95 80be 3f06 d2be
000000e0: 0838 ccbe f18c 8fbe 98b9 89bc 4fef 8d3e
000000f0: 5750 133e 16e7 6dbe d538 053e 1610 be3f
00000100: 58ed ffbe c25d 813d 5064 92be d73d c5bd
00000110: 225b 19be 0ab5 bdbe 1606 8cbe 1a87 b23c
00000120: 106a 25be cd4a 8cbe 4a4c b03e 11dc 76be
00000130: 1172 89bd d976 e93b 6f4b 26be 4cf5 813e
00000140: 54fb 9dbe ca5e 83bd 7cae cbbd c2f0 21bd
00000150: 1bd3 723c 2ccc f6bd 1f0e 563d 87dd b1bd
00000160: a0da 0fbe 8b61 a6be 37ba 4a3c ad34 bb3d
00000170: 9d0d e8bc 7192 1c3e 0ecf d03d 7306 d23d
00000180: c0af 863c 3846 873e 5ce2 2bbc f82a 98bd
00000190: e0a8 49bd 254f 2cbc b695 7ebd 19ea 6bbe
000001a0: cad6 bb3e 9d84 74be 05e8 8fbd 1978 a2be
000001b0: 41bf 7fbe 318c b73d 3511 b8bd b606 a0be
000001c0: 8ca2 d1be f05c cebe 6aa8 2cbd 4c23 5a3d
000001d0: 6a75 cfbe 01b0 2bbe 5ba0 0a3e 016d 713d
000001e0: 8040 91bd b2d8 bcbe 8a23 64be 798b dcbd
000001f0: 4120 a73b da0f ccbe 21e1 d2be 4f35 b1bc
00000200: 396c 5fbe 19e6 eb3d 7020 643d 3c26 2fbd
00000210: c69e 113e f132 dbbe 3eb5 4fbe e424 23be
00000220: ceb4 80be 5915 cebe bf0e eebe d54f a0be
00000230: a88a ccbe dff4 e1be 5bf6 583d 4e62 9ebd
00000240: 4873 f33d 5986 e0be fd63 d2be baa3 debe
00000250: ad8c 50be 0058 9bbd c4be a5be 8806 a7be
00000260: 1c1a b7bd 433f 99be f2bf 15be fc3c bdbe
00000270: 5300 9abe e04f d9be 2631 4a3d 0203 07bf
00000280: 407e 17bd 28de 49be fe1d ccbe 6330 57be
00000290: d182 323e 8cca 5bbe c602 a5bc 9469 213c
000002a0: 63a0 c2be 8aef 59bd 9661 05be b6d8 65be
000002b0: 207b 63bd aca0 b8be 045a 233e a4b7 39be
000002c0: 21f5 67bc 0e62 a83d 2178 84be 172a 5a3e
000002d0: 9b39 4a3d acb5 c4bd a6fd 87be 66c5 aabe
000002e0: 1604 033d f060 bebe 40c4 9c3f 6e56 db3d
000002f0: e28d b6be 6ab3 e33d 8062 3fbe 947e 79be
00000300: d421 cbbd ec7b 9bbe 38b3 24be 6913 4ebe
00000310: e103 abbe 1cbf 863e 104e 88be f38b dabe
00000320: 0afe 91be 2b15 c13e aab8 7c3d ac38 57be
00000330: 202b a8bd 0e21 b1bd 6848 cabd 5061 b4bd
00000340: b5d3 8e3d a2b3 94bd c4ce 453e 6a5f 1c3e
00000350: 00b5 b1be f51d 0fbe 41ec ed3d 292a c13e
00000360: 756f d33d f994 a6be 2137 48be 319b 8bbb
00000370: 2c21 71be 37cd d73d d48b d0be 813a d7be
00000380: 1112 c8be e661 9a3e 3fe4 cebe deec dcbe
00000390: 9d6a 38bd 3bcd 113e f5e3 93bd b864 e0be
000003a0: 085f 983d 0e4a 55be e627 77bd f12c 4cbe
000003b0: 172c e2bd 51ff 24be 2e71 dabe fe2e 2b3e
000003c0: a8e9 b7bd f885 6ebe 2456 6b3e 7bc4 1f3d
000003d0: 0c02 f9bd 2077 903d 4292 24be a04a 3abd
000003e0: a13d debd 8aec 40be a300 4bbe 7e25 91bd
000003f0: 89de b6be e571 93be b112 70bd a21e d93e

Linear2.weight f4 [3, 256]
-0.068327084 0.036995076 -0.0364217 -0.24364714 -0.00437986 0.015419051 0.03474057 -0.05080442
-0.008661343 0.028757412 -0.20919944 0.04639831 0.028922306 -0.8037419 -0.92608356 -0.053773347
0.13176784 0.053604133 0.031460773 -0.013443112 -0.0031518815 -0.040576242 0.05788567 0.103073634
0.23430572 -0.012609363 0.0109482445 -0.075935245 0.11159109 0.07794034 -0.06028898 -0.057653192
-0.0023483932 -0.3433201 0.021438904 0.010923218 -0.18199581 0.046774272 0.017202694 0.010410756
-0.017405875 -0.054949258 0.08609456 -0.31797886 -0.035606563 -0.0139436945 0.042739242 -0.029302604
-0.006276032 -0.0092329625 -0.78156626 0.14433971 -0.009822527 -0.05844745 -0.010219231 -0.025777198
0.0035692593 -0.18071803 -0.037303507 -0.31756663 0.10224658 -0.042420022 0.027810346 0.5476068
0.13003749 -0.110067695 -0.6949723 0.0037157645 0.06057933 -0.22051066 0.009029582 0.0065581175
-0.036824677 0.018115714 -0.20194462 -0.009543961 0.076809034 0.06476182 -0.11270065 -0.27686962
-0.021958768 0.026485628 0.003508985 -0.044340614 0.05308163 -0.03903981 -0.38241065 -0.084493086
0.045850232 0.0054783695 -0.060860418 -0.19841956 0.05632074 0.022156715 0.07588119 -0.0099355215
0.0559801 -0.3383836 0.050188094 -0.034217473 -0.015658885 -0.0170492 0.1046857 0.042134777
-0.1548355 0.03664187 0.013542416 -0.050169572 -0.008283638 -0.08469601 -0.0014356392 0.04215448
-0.020529218 0.05828315 -0.021679074 0.12652482 -0.12394546 -0.036301997 -0.049060613 -0.03883928
-0.043079354 0.0105917305 -0.06211918 -0.018587839 0.04017925 0.0012187945 0.052904338 -0.009644233
0.048047185 -0.043871563 -0.0108802095 0.047530435 0.100375704 -0.014267309 -0.18937567 -0.7644408
0.042498857 0.06176854 0.049821176 -0.06203929 -0.01140061 0.03643465 0.12986849 0.016052919
-0.015731193 -0.115030736 0.02940178 0.01373609 -0.046220064 -0.04372652 -0.059785306 -0.03599173
-0.04324133 0.026001751 0.048472986 0.041752644 -0.35951382 0.060675085 -0.56410855 -0.026793703
-0.039092917 -0.052741956 -0.016072534 0.029748872 -0.09716617 0.10669572 0.1095913 -0.84894
0.023565136 0.008638172 0.06093265 -0.051802948 0.014238055 0.036126487 0.0068461 -0.062454306
0.016546529 -0.032636866 -0.02340591 -0.17743336 0.027615363 0.0043313503 0.007908188 -0.0035621617
0.054633647 -0.088285506 0.5035424 0.019132914 0.006900497 0.06683961 -0.024065765 0.0038559102
-0.04110261 -0.038236395 -0.03054958 0.141427 0.10334144 0.024938423 -0.041849457 -0.066097245
-0.10954553 -0.89167935 -0.009209379 -0.8442433 0.11663464 0.09389331 -0.25368917 0.020544827
0.017195897 -0.0361339 -0.31047955 0.035984594 -0.009856246 -0.5365027 -0.0062110154 -0.21613158
-0.0060699005 0.014767505 0.06544782 0.04867063 -0.18058766 0.030506682 -0.018312402 -0.046606258
0.009786517 -0.16342922 0.01084777 -0.005280167 0.033566587 -0.008947196 -0.23881783 -0.058901697
0.050669648 -0.037046745 -0.24364007 -0.03078731 0.011464918 -0.2876419 -0.038006403 -0.00089099
-0.038067054 0.01508835 0.0688304 0.056527857 0.02864021 0.033291407 -0.024755925 0.038306266
0.026083902 -0.0532581 0.027895018 -0.22391272 -0.0012209043 -0.6427166 0.0691156 -0.20944986
00000000: 12ef 8bbd 2688 173d ec2e 15bd a37e 79be
00000010: ee84 8fbb 30a0 7c3c 214c 0e3d 4c18 50bd
00000020: 4ee8 0dbc aa94 eb3c 6138 56be 280c 3e3d
00000030: 79ee ec3c 07c2 4dbf d013 6dbf 7141 5cbd
00000040: 26ee 063e 0290 5b3d 03dd 003d 8040 5cbc
00000050: cc8f 4ebb 4633 26bd 8619 6d3d 4518 d33d
00000060: d7ed 6f3e 8097 4ebc 4460 333c f083 9bbd
00000070: df89 e43d 2f9f 9f3d 94f1 76bd c125 6cbd
00000080: 80e7 19bb a7c7 afbe a4a0 af3c 4cf7 323c
00000090: 1c5d 3abe 6196 3f3d aaec 8c3c e091 2a3c
000000a0: c496 8ebc 7912 61bd 5852 b03d 20ce a2be
000000b0: 30d8 11bd 1874 64bc 580f 2f3d 040c f0bc
000000c0: 2ca7 cdbb da45 17bc ba14 48bf cacd 133e
000000d0: aaee 20bc 9866 6fbd 906e 27bc b42a d3bc
000000e0: 3cea 693b 260e 39be 90cb 18bd 1898 a2be
000000f0: a866 d13d 9ec0 2dbd 86d2 e33c f62f 0c3f
00000100: 8c28 053e 2c6b e1bd b4e9 31bf 2f84 733b
00000110: 0822 783d 8ccd 61be d0f0 133c 7ae5 d63b
00000120: 79d5 16bd 6867 943c 92ca 4ebe 465e 1cbc
00000130: 0e4e 9d3d d8a1 843d 99cf e6bd dbc1 8dbe
00000140: e0e2 b3bc 63f8 d83c 00f7 653b 819e 35bd
00000150: 206c 593d 35e8 1fbd 54cb c3be b60a adbd
00000160: 74cd 3b3d e583 b33b c648 79bd 7f2e 4bbe
00000170: 94b0 663d 0082 b53c 9967 9b3d 99c8 22bc
00000180: 644b 653d 9d40 adbe 0892 4d3d 9f27 0cbd
00000190: 1047 80bc c4aa 8bbc 7565 d63d 8495 2c3d
000001a0: 338d 1ebe c915 163d 02e1 5d3c 9c7e 4dbd
000001b0: 19b8 07bc 1a75 adbd 0f2c bcba 2daa 2c3d
000001c0: e42c a8bc 50ba 6e3d 5098 b1bc b98f 013e
000001d0: 1ed7 fdbd 67b1 14bd c8f3 48bd f015 1fbd
000001e0: fa73 30bd f088 2d3c ae70 7ebd 8645 98bc
000001f0: ff92 243d f5bf 9f3a 38b2 583d d802 1ebc
00000200: 20cd 443d abb2 33bd e842 32bc 46af 423d
00000210: c791 cd3d 6ec1 69bc b2eb 41be 64b2 43bf
00000220: 4813 2e3d 0201 7d3d 4a11 4c3d e91c 7ebd
00000230: a0c9 3abc 803c 153d 3ffc 043e 6981 833c
00000240: b4de 80bc 3c95 ebbd 00dc f03c 560d 613c
00000250: 4051 3dbd 941a 33bd 70e1 74bd 106c 13bd
00000260: d21d 31bd a001 d53c 9c8b 463d d204 2b3d
00000270: 3212 b8be 7086 783d 6b69 10bf 787e dbbc
00000280: e51f 20bd f307 58bd 8caa 83bc e8b3 f33c
00000290: 0fff c6bd 4983 da3d 6771 e03d 2254 59bf
000002a0: ac0b c13c 1f87 0d3c 8494 793d 542f 54bd
000002b0: bb46 693c 5ef9 133d 4055 e03b 16d0 7fbd
000002c0: 968c 873c 3cae 05bd c0bd bfbc 17b1 35be
000002d0: 9d39 e23c 00ee 8d3b 5891 013c 2873 69bb
000002e0: 88c7 5f3d 08cf b4bd 28e8 003f a1bc 9c3c
000002f0: 901d e23b 35e3 883d 9125 c5bc 70b3 7c3b
00000300: 365b 28bd c49d 1cbd 1d43 fabc 3dd2 103e
00000310: ada4 d33d aa4b cc3c 566a 2bbd fe5d 87bd
00000320: 6859 e0bd 1945 64bf efe2 16bc 5420 58bf
00000330: 24de ee3d 234b c03d 8ce3 81be a04d a83c
00000340: 69de 8c3c 2401 14bd 2df7 9ebe 9564 133d
00000350: 187c 21bc 3e58 09bf c685 cbbb 9951 5dbe
00000360: 04e6 c6bb 68f3 713c 8209 863d db5a 473d
00000370: f9eb 38be 26e9 f93c e403 96bc 34e6 3ebd
00000380: a157 203c fd59 27be d8ba 313c 4005 adbb
00000390: 1e7d 093d 4397 12bc a98c 74be e842 71bd
000003a0: fa8a 4f3d 54be 17bd c87c 79be ab35 fcbc
000003b0: 5ad7 3b3c cd45 93be 9aac 1bbd 5491 69ba
000003c0: 33ec 1bbd 2035 773c f4f6 8c3d c189 673d
000003d0: e09e ea3c 925c 083d f0cc cabc 08e7 1c3d
000003e0: e8ad d53c 2a25 5abd 1884 e43c 6049 65be
000003f0: c006 a0ba 1389 24bf 7b8c 8d3d 067a 56be

Linear2.bias f4 [3]
0.2645335 0.20989409 0.2686576
00000000: ef70 873e 7aee 563e 7d8d 893e
