runs/run3/models/model1.pth (torch, 10959 bytes, 4 tensors)

Linear1.weight f4 [256, 5]
0	0x3ea92a8e	0.3304028
1	0x3e2e10da	0.16998616
2	0x3c205896	0.0097867455
3	0xbe8898a6	-0.26678962
4	0xbe1525c7	-0.14565192
5	0xbed89551	-0.4230142
6	0xbe523039	-0.20526208
7	0x3eb1a5e8	0.3469689
8	0xbe88c314	-0.26711333
9	0xbe25a42a	-0.16175905
10	0xbda4db95	-0.080496944
11	0x3ea62937	0.3245332
12	0xbeb11aeb	-0.3459085
13	0xbd736224	-0.059419766
14	0xbe8fd6b3	-0.2809349
15	0xbece175f	-0.40252206
16	0xbd180a85	-0.037119407
17	0x3e30db40	0.17271137
18	0xbedf7193	-0.43641338
19	0x3e5be326	0.21473369
20	0x3e2e61c4	0.17029482
21	0x3ebe7914	0.3720175
22	0x3ec67dec	0.38767946
23	0xbe99d062	-0.30041796
24	0xbe0a271e	-0.13491485
25	0xbdb85190	-0.08999932
26	0xbe0d1b3e	-0.13779923
27	0xbe835792	-0.25652748
28	0xbe76ad62	-0.24089578
29	0xbeab3dba	-0.3344553
30	0x3ee2702b	0.44226202
31	0xbd611a96	-0.054956995
32	0x3e8b2e87	0.27183935
33	0xbe0ef02d	-0.13958807
34	0x3d999e14	0.07500854
35	0x3d9824a0	0.07428861
36	0x3e6c51ec	0.23078126
37	0x3dbbb2c0	0.09164953
38	0xbe7d2783	-0.24722104
39	0xbecde439	-0.40213183
40	0x3ea760da	0.3269108
41	0xbeaaf484	-0.33389676
42	0xbd87328f	-0.0660144
43	0xbe037bbf	-0.12840174
44	0x3ecad667	0.396167
45	0x3e92c917	0.28669044
46	0xbecdfae5	-0.4023048
47	0x3d91ed98	0.071253955
48	0xbeaf4e4f	-0.34239432
49	0x3e70e109	0.23523344
50	0xbec551ee	-0.3853907
51	0xbe45e597	-0.19325863
52	0xbcd3b22c	-0.025841795
53	0xbd3dbbe7	-0.046321776
54	0xbe5005dd	-0.20314737
55	0xbe753ca0	-0.23948908
56	0xbe88e386	-0.26736087
57	0x3e70da74	0.23520833
58	0x3e094798	0.13406217
59	0xbe084946	-0.13309202
60	0xbc3b5652	-0.011434155
61	0xbde53913	-0.11192527
62	0x3e9c987d	0.3058509
63	0xbec7a54b	-0.38993296
64	0xbc7388d5	-0.014864166
65	0xbe40831e	-0.18800017
66	0x3e9a6ae8	0.30159688
67	0xbb9eb90f	-0.004843838
68	0x3e82ae49	0.25523594
69	0xbe12d80b	-0.14340226
70	0xbef7c857	-0.48395035
71	0x3ebde10d	0.37085763
72	0xbeba6ce5	-0.36411205
73	0x3e44f0d6	0.19232497
74	0x3e37617b	0.1790828
75	0x3c8898f2	0.016674493
76	0xbed5a8f1	-0.41730455
77	0x3ec56efb	0.38561234
78	0xbe385675	-0.1800173
79	0x3eb6cff2	0.35705525
80	0x3dfefb52	0.12450279
81	0xbdafeb23	-0.08589771
82	0x3e835aca	0.25655204
83	0x3e3d5c7c	0.18492311
84	0xbe1c7093	-0.15277319
85	0xbe356132	-0.17712858
86	0x3d95fef0	0.07324016
87	0xbc54e060	-0.012992948
88	0xbdc159a8	-0.09440929
89	0x3e3399ac	0.1753909
90	0x3e3136dc	0.17306083
91	0xbe66707d	-0.22503848
92	0x3e9e6f8e	0.30944484
93	0xbea5f053	-0.32409915
94	0x3e217144	0.15765864
95	0xbe78b05d	-0.24286027
96	0xbdf5db94	-0.12004772
97	0xbe482d3e	-0.19548509
98	0xbed1156c	-0.40836656
99	0x3e9ab2b4	0.30214465
100	0x3ecd3ff9	0.4008787
101	0x3ed8031d	0.42189875
102	0x3ddfcf9b	0.109282695
103	0xbdee067f	-0.11622333
104	0x3eca10c4	0.39465916
105	0x3ef7921f	0.4835367
106	0x3db5540b	0.088539205
107	0x3eaacd2b	0.33359656
108	0x3e50ef93	0.2040389
109	0xbec896a9	-0.39177445
110	0xbe11aa82	-0.142252
111	0x3d6f60b2	0.058441825
112	0x3ed68417	0.41897652
113	0x3e7bce75	0.24590476
114	0xbd615e4b	-0.055021565
115	0x3e77ab46	0.2418643
116	0x3ea199ab	0.31562552
117	0x3e989694	0.29802382
118	0x3e32f9e8	0.17478144
119	0x3e32968c	0.17440242
120	0xbe192351	-0.14954878
121	0x3e209d3a	0.15684977
122	0xbd139a7d	-0.036036003
123	0xbeccf08b	-0.4002727
124	0x3cae1814	0.021251716
125	0x3e7e36a5	0.24825533
126	0x3ec861a3	0.3913699
127	0xbea28422	-0.31741434
128	0xbdf7fc3e	-0.12108658
129	0x3e2ed0f9	0.17071904
130	0xbe102b49	-0.14079012
131	0x3e3718ef	0.17880605
132	0xbecdfe08	-0.40232873
133	0x3d4a2288	0.049349338
134	0xbe550846	-0.20803937
135	0xbed56a74	-0.4168278
136	0xbcbbc457	-0.02292077
137	0xbb420636	-0.0029605753
138	0xbcb0a2df	-0.021562038
139	0xbeb8ec85	-0.3611795
140	0x3ea3baa0	0.3197832
141	0xbeb2dc15	-0.34933534
142	0xbe12f44e	-0.14351007
143	0xbd1206ef	-0.035651144
144	0xbda036c0	-0.07822943
145	0xbd8db46a	-0.06919177
146	0x3e7dc425	0.24781854
147	0x3e6062a8	0.21912634
148	0x3e15e2f7	0.14637361
149	0xbed2bc88	-0.41159463
150	0xbedd3ccd	-0.4321045
151	0xbee28324	-0.44240677
152	0xbed829a3	-0.42219266
153	0x3e2aa6c4	0.16665179
154	0x3e01cbd8	0.12675416
155	0xbe54c4f1	-0.20778252
156	0x3c80e91b	0.015736153
157	0x3e169168	0.14703906
158	0x3e0c6325	0.13709696
159	0xbecc913e	-0.3995456
160	0xbe8b1b9e	-0.27169508
161	0x3ed30884	0.41217434
162	0xbe3bd9ec	-0.1834485
163	0xbd2e0180	-0.0424819
164	0xbeb81111	-0.3595052
165	0xbeb559fe	-0.3542022
166	0x3e84ec32	0.25961453
167	0xbe2880f7	-0.16455446
168	0x3ebaf4be	0.36514848
169	0x3e34556d	0.17610712
170	0xbeb3f316	-0.35146397
171	0x3e7e58e4	0.24838597
172	0xbe3ac9d0	-0.18241048
173	0xbe8e4cd5	-0.27792993
174	0xbd850614	-0.064953
175	0x3eee3a0e	0.46528667
176	0x3e0c0dc6	0.13677129
177	0xbeae9f5c	-0.34105957
178	0x3e5b2e06	0.21404275
179	0xbed1191d	-0.40839472
180	0x3e1c8ab7	0.1528729
181	0xbe12ba3c	-0.14328855
182	0x3eaca1d9	0.3371723
183	0xbe2f9e6e	-0.1715028
184	0xbe2f8b73	-0.1714304
185	0x3e2152ea	0.15754285
186	0xbd761295	-0.060076315
187	0x3e857fce	0.2607407
188	0xbeb000da	-0.3437565
189	0xbda6abc6	-0.08138232
190	0x3eaebdf8	0.3412931
191	0x3ea33482	0.31875998
192	0x3eafc7be	0.3433208
193	0x3df81838	0.12113994
194	0xbdc81a2f	-0.09770619
195	0x3dd87db0	0.10570848
196	0x3dec7a10	0.11546719
197	0xbed0d300	-0.4078598
198	0x3e30685b	0.17227308
199	0x3cfcfcd2	0.030882273
200	0xbe0dcb12	-0.13846996
201	0xbcc15e30	-0.023604482
202	0x3cae2c50	0.021261364
203	0x3e4fa548	0.20277894
204	0xbe34f468	-0.17671359
205	0x3e47a00a	0.19494644
206	0x3e4b08eb	0.1982762
207	0xbeca6e18	-0.3953712
208	0xbea4d615	-0.32194582
209	0x3e993c8d	0.2992901
210	0x3e65c76b	0.22439353
211	0xbe9b12dc	-0.30287826
212	0x3e70b0b7	0.23504911
213	0xbdfad4dc	-0.12247631
214	0xbed12a00	-0.40852356
215	0x3e64aa72	0.22330645
216	0x3e9ea699	0.3098648
217	0xbecfb621	-0.4056864
218	0x3d91a97a	0.07112403
219	0xbe8a97d7	-0.2706897
220	0x3e66bcfc	0.2253303
221	0x3eb518ea	0.3537057
222	0xbd281f90	-0.041045725
223	0xbeaa20b8	-0.33228087
224	0xbed0b9d0	-0.40766764
225	0xbde7b0d6	-0.11313026
226	0x3e19dde4	0.15026051
227	0x3e4a963f	0.19783877
228	0x3eb8a29a	0.36061555
229	0x3e8b4c1b	0.272065
230	0x3e0bb43c	0.13642973
231	0x3db6b513	0.08921256
232	0x3e9a0bf3	0.30087242
233	0xbc18f77c	-0.009336349
234	0x3eb8a4e8	0.36063313
235	0x3e54cb6c	0.20780724
236	0xbe4943b0	-0.19654727
237	0x3e32f904	0.17477804
238	0xbd4c9370	-0.049945295
239	0xbe99f972	-0.30073124
240	0xbea6d978	-0.3258779
241	0xbe56974f	-0.20956157
242	0x3dee765c	0.11643669
243	0xbe07526e	-0.13215038
244	0x3e0fca6b	0.1404206
245	0x3ed57bf0	0.4169612
246	0x3e91f854	0.28509772
247	0x3e8d2b1b	0.2757195
248	0xbe0779c8	-0.1323005
249	0x3c8efffe	0.017456051
250	0xbeaee915	-0.34162202
251	0xbe1a9d24	-0.15099007
252	0x3ec1aa80	0.37825394
253	0x3e24eb16	0.16105303
254	0xbd79f071	-0.06102032
255	0x3d481864	0.048851386

Linear1.bias f4 [256]
0	0x3db47e0f	0.08813106
1	0xbdf11b28	-0.11772758
2	0xbd937343	-0.07199719
3	0x3de7f6e9	0.11326391
4	0xbeacbc9d	-0.3373765
5	0xbe14e856	-0.14541754
6	0xbe87c924	-0.26520646
7	0xbeb12f9a	-0.3460663
8	0x3d954d79	0.07290167
9	0x3eb01ba0	0.34396076
10	0x3ec556b3	0.3854271
11	0xbe3778f2	-0.1791723
12	0x3e708ef3	0.23492031
13	0x3d95eb0a	0.07320221
14	0xbcd2e61f	-0.025744496
15	0xbe5a395e	-0.21310946
16	0x3dcd5087	0.10025125
17	0xbe0d62b0	-0.13807178
18	0xbe8630da	-0.26209146
19	0xbd1b4778	-0.037909955
20	0xbd2a26a2	-0.04154075
21	0xbe016c2c	-0.1263892
22	0x3e640799	0.22268523
23	0xbe306bd1	-0.17228629
24	0x3e8dceda	0.27696878
25	0xbe7c70da	-0.24652424
26	0x3e7faa95	0.24967416
27	0x3ec2117f	0.37903973
28	0x3eaff1be	0.34364122
29	0x3d7077bc	0.058707938
30	0xbe9b7340	-0.30361366
31	0x3e54413f	0.20728014
32	0xbe23de86	-0.16002855
33	0xbd4c84f6	-0.04993149
34	0xbedbeda2	-0.42954737
35	0x3e858c29	0.26083496
36	0x3da1f932	0.07908858
37	0x3ea3a3b3	0.3196083
38	0xbebf60d9	-0.37378576
39	0x3e206a3a	0.15665522
40	0xbe65939f	-0.22419594
41	0xbe368d33	-0.178273
42	0x3e570441	0.20997716
43	0x3eb8eb76	0.36117142
44	0xbebdbdda	-0.37058908
45	0x3e6b864b	0.23000447
46	0x3ccdfe08	0.025145546
47	0xbe2d2728	-0.16909468
48	0x3e6e7ed2	0.23290566
49	0x3eab717e	0.33485025
50	0xbd9bd104	-0.07608226
51	0x3e535e67	0.2064148
52	0x3e7c09a9	0.2461306
53	0xbe54d0d3	-0.20782785
54	0xbe5ba01d	-0.21447797
55	0xbed2063f	-0.4102039
56	0xbeb32bd9	-0.3499439
57	0xbdbbce46	-0.09170203
58	0x3e23b5f8	0.15987384
59	0x3e9c456a	0.3052171
60	0x3eb2ccca	0.34921867
61	0xbe6de716	-0.23232684
62	0x3ec8ed87	0.3924372
63	0x3ebb2a4c	0.36555707
64	0xbec89634	-0.39177096
65	0x3e39fd88	0.18163121
66	0xbe7287e0	-0.23684645
67	0xbc65c296	-0.014023444
68	0xbe234402	-0.15943912
69	0xbecec723	-0.40386304
70	0xbe8c0616	-0.27348393
71	0x3e6734bf	0.22578715
72	0xbda6fa6f	-0.08153235
73	0xbe8c4acd	-0.27400818
74	0x3eb0d6d4	0.345389
75	0xbdf8b8c1	-0.12144614
76	0x3d89a629	0.06721146
77	0x3e917c54	0.28415167
78	0x3bae84c9	0.005325888
79	0x3e68a207	0.22718059
80	0xbe9dfb54	-0.3085581
81	0x3e0562fc	0.13026041
82	0xbdcbae7c	-0.0994539
83	0x3d938231	0.072025664
84	0x3e12922c	0.14313573
85	0x3d038f02	0.032118805
86	0x3c759c5e	0.014990894
87	0x3d20d782	0.039268024
88	0xbe0fdaa0	-0.14048243
89	0xbe06145b	-0.13093702
90	0x3d11fc88	0.035641223
91	0x3b75f9ae	0.0037532854
92	0x3df50f1a	0.11965771
93	0x3e8f3149	0.2796729
94	0x3e82c09a	0.25537568
95	0x3e42a026	0.19006404
96	0x3c86afc0	0.016441226
97	0x3e77c728	0.24197066
98	0x3e60d40a	0.21955886
99	0x3b95813a	0.004562524
100	0xbd49a8e0	-0.049233317
101	0x3d9dbb41	0.077017315
102	0x3e03b40f	0.12861656
103	0x3d5b15c5	0.053487558
104	0x3eab5063	0.33459768
105	0xbd6d8459	-0.057987545
106	0x3d90c930	0.070696235
107	0xbe2fb554	-0.17159015
108	0xbe33d57e	-0.1756191
109	0x3eacb624	0.33732712
110	0x3d2ea943	0.04264189
111	0xbe8f6222	-0.28004557
112	0xbed1a28c	-0.40944326
113	0xbe84568e	-0.25847286
114	0x3e586fd7	0.21136414
115	0x3e899dbb	0.2687815
116	0xbe81dd04	-0.25363934
117	0x3dfced80	0.12349987
118	0x3e439444	0.19099528
119	0x3e932552	0.2873941
120	0xbd914080	-0.070923805
121	0xbebcd8b2	-0.36884075
122	0xbe64238a	-0.22279182
123	0xbd1d3e47	-0.03838947
124	0x3d4bcedc	0.049757823
125	0xbe5ca0e6	-0.21545753
126	0xbed2e121	-0.41187385
127	0x3dfa443c	0.12220046
128	0xbdd594c8	-0.104287684
129	0x3e7fae24	0.24968773
130	0x3d642070	0.055694997
131	0x3d2c4eca	0.042067327
132	0x3e95f262	0.29286486
133	0xbe95a6a5	-0.29228702
134	0xbe61890b	-0.22024934
135	0xbdc340a6	-0.09533815
136	0xbe80b4ce	-0.25137943
137	0xbea7c59d	-0.32767954
138	0xbe9f9470	-0.31167936
139	0xbe8011b7	-0.25013515
140	0xbea2a32a	-0.3176511
141	0xbee1f4df	-0.44132134
142	0x3dfd8eb8	0.12380737
143	0x3da2dc1d	0.079521395
144	0x3df37348	0.118872225
145	0xbe96bd32	-0.2944122
146	0xbed263fd	-0.4109191
147	0xbeb521f9	-0.35377482
148	0xbe02cb04	-0.12772757
149	0xbd9b5800	-0.07585144
150	0xbe9974f1	-0.29972032
151	0xbea70688	-0.3262217
152	0xbdb71a1c	-0.08940527
153	0xbe8d8d6b	-0.27646956
154	0xbe15bff2	-0.14624003
155	0xbebd3cfc	-0.3696059
156	0xbe790c9f	-0.24321221
157	0xbed94fe0	-0.42443752
158	0x3e1eab64	0.15495068
159	0xbed9fc5c	-0.42575347
160	0xbca69fe5	-0.020339916
161	0xbe39b25c	-0.18134445
162	0xbecc1dfe	-0.39866632
163	0xbe573063	-0.21014552
164	0x3e9de9f6	0.3084256
165	0xbcb5cf24	-0.022193499
166	0x3e435b65	0.19077833
167	0x3d78881f	0.06067669
168	0xbec2a063	-0.3801299
169	0x3dde9769	0.10868723
170	0xbe056196	-0.13025507
171	0xbe0ffe4b	-0.14061849
172	0xbb36e8ec	-0.0027909828
173	0xbe8ac884	-0.27106106
174	0x3e235a04	0.15952307
175	0xbe39b7a4	-0.1813646
176	0x3dea4bbb	0.11440226
177	0x3e148582	0.14504054
178	0xbe847821	-0.258729
179	0x3ea2eb6e	0.31820244
180	0x3e13481d	0.14382978
181	0xbdc4b5ac	-0.09604964
182	0xbe87fda6	-0.26560706
183	0xbe73596b	-0.23764579
184	0x3ea1b0f1	0.31580308
185	0xbe9cf927	-0.30658838
186	0x3e35877e	0.17727467
187	0x3e4cac00	0.19987488
188	0xbe51d2c5	-0.20490558
189	0x3ea01d8d	0.31272545
190	0x3c1f6a64	0.009729955
191	0xbe3baa25	-0.18326624
192	0xbdcb21d4	-0.099185616
193	0xbe9b7bec	-0.30367982
194	0xbd9089d3	-0.07057538
195	0xbdb5eed0	-0.088834405
196	0xbe785f9b	-0.2425522
197	0x3ef847e9	0.48492363
198	0xbe884e10	-0.26622057
199	0xbeb6505d	-0.35608187
200	0xbe4a2622	-0.19741109
201	0x3ececca1	0.40390494
202	0x3e88c942	0.26716048
203	0xbe448182	-0.19190028
204	0x3e255221	0.16144611
205	0x3de49ddb	0.11162921
206	0xbc772344	-0.015084092
207	0xbdb46150	-0.088076234
208	0x3e8fa1f6	0.28053254
209	0x3cd184ac	0.025575958
210	0x3e17ff37	0.1484345
211	0x3ebfd543	0.37467393
212	0xbeb1b500	-0.34708405
213	0xbdd682e1	-0.10474182
214	0x3ea5ec3c	0.32406795
215	0x3e97b871	0.29632905
216	0x3e3f4264	0.1867767
217	0xbe6516d6	-0.22371992
218	0xbdd7c652	-0.105358735
219	0x3e8e72f0	0.27822065
220	0xbd8192b4	-0.063268095
221	0x3ec9746f	0.39346644
222	0xbed08bd4	-0.4073168
223	0xbed73a81	-0.42036822
224	0xbec87209	-0.39149502
225	0x3ed00d39	0.40635088
226	0xbecee43f	-0.40408513
227	0xbedcecde	-0.43149465
228	0x3e10d26b	0.14142768
229	0x3e5226d1	0.2052262
230	0x3d9966f7	0.07490342
231	0xbee064b8	-0.43826842
232	0x3e9d407e	0.30713266
233	0xbe554a0e	-0.20829031
234	0x3d55b608	0.05217555
235	0xbe2227c6	-0.15835485
236	0x3dec6aa4	0.115437776
237	0xbe160fe5	-0.14654501
238	0xbec4da99	-0.38448027
239	0x3ebf5538	0.37369704
240	0xbd7e0b6f	-0.062022623
241	0xbe6e85f8	-0.23293293
242	0x3ec3e781	0.3826256
243	0x3ec87fee	0.39160103
244	0xbdf9020c	-0.121585935
245	0x3d907720	0.07053971
246	0xbe249242	-0.16071418
247	0xbd3a4aa0	-0.045481324
248	0x3e54e0ec	0.20788926
249	0xbe40ec8a	-0.18840232
250	0xbe4b00a3	-0.19824462
251	0xbde083ac	-0.109626144
252	0xbeb6de89	-0.35716656
253	0xbe2607db	-0.16213934
254	0x3e7b63d4	0.245498
255	0x3edb981c	0.42889488

Linear2.weight f4 [3, 256]
0	0x3d3861b2	0.045015045
1	0x3d178826	0.036995076
2	0x3c07aea5	0.008281385
3	0xbce53d55	-0.027983347
4	0xbb8ddf50	-0.0043295994
5	0x3c7ca030	0.015419051
6	0x3da31737	0.07963412
7	0xbd50184c	-0.05080442
8	0x3cc83cee	0.024443116
9	0x3cc2f497	0.02379827
10	0x3cb8e406	0.022569668
11	0x3d3e0c28	0.04639831
12	0x3d01ef9c	0.03172265
13	0xbd2f6196	-0.042817675
14	0xbda1e429	-0.07904846
15	0xbd104b7c	-0.035228238
16	0x3d8c5ef1	0.06854046
17	0x3d5b9002	0.053604133
18	0x3cdc4e3c	0.026892774
19	0xbc5c4080	-0.013443112
20	0x3cbfb1f3	0.023400282
21	0x3ccf638a	0.025316019
22	0xbc6fe024	-0.014640842
23	0x3cd01fe6	0.025405835
24	0xbd207e37	-0.039182868
25	0xbd3727ba	-0.04471562
26	0xbcce8857	-0.025211496
27	0xbd55fd10	-0.052243292
28	0x3d057994	0.03258665
29	0xbc97130a	-0.018441696
30	0xbd76f194	-0.06028898
31	0x3d0bb2f7	0.03410622
32	0xbb19e780	-0.0023483932
33	0xbd7ee6ca	-0.062231816
34	0x3cafa0a4	0.021438904
35	0x3d867419	0.065651126
36	0x3b99e57a	0.004696545
37	0xbb0dc769	-0.002163375
38	0x3cfd73ee	0.030939069
39	0xbc2b3540	-0.0104497075
40	0xbc8e96c4	-0.017405875
41	0x3cc9ef34	0.024650194
42	0x3d89f1ee	0.067355976
43	0xbd1799c8	-0.03701189
44	0xbd11d830	-0.035606563
45	0x3c022314	0.007942934
46	0x3da1c665	0.07899169
47	0xbcf00c04	-0.029302604
48	0x3bbebd28	0.005820889
49	0x3cbe20ed	0.02320906
50	0xbd7fcd36	-0.062451564
51	0x3db90415	0.09033982
52	0xbd0eeb74	-0.034892514
53	0xbd6f43dc	-0.058414325
54	0xbc276e90	-0.010219231
55	0xbcd32ab4	-0.025777198
56	0x3d278414	0.040897444
57	0xbd03243a	-0.03201697
58	0x3d77785e	0.060417525
59	0xbac5b64d	-0.0015084237
60	0x3d9d5916	0.076830074
61	0xbd2dc09e	-0.042420022
62	0x3bbecd44	0.0058228094
63	0x3db07792	0.08616556
64	0x3d5d424a	0.054018296
65	0xbd70d11d	-0.058793176
66	0xbd19ae18	-0.037519544
67	0x3d9df258	0.07712239
68	0x3d663940	0.05620694
69	0x3cd41ec3	0.025893575
70	0x3c13f0d0	0.009029582
71	0xbc98c7bb	-0.018649926
72	0xbd598e71	-0.05311436
73	0x3c946768	0.018115714
74	0x3d1acd86	0.03779366
75	0x3c9397a1	0.018016638
76	0x3d860ffd	0.06546018
77	0x3d6caede	0.057783954
78	0xbdc9c19c	-0.09851381
79	0xbd0a62b6	-0.033785544
80	0xbcb3e2e0	-0.021958768
81	0x3d24ea94	0.040262774
82	0x3b65f700	0.003508985
83	0x3c7b8b96	0.015353104
84	0x3d8b8b1d	0.06813643
85	0x3d05309e	0.032517068
86	0xbb9c787a	-0.004775104
87	0xbd27eb9b	-0.040996175
88	0x3d3bcd74	0.045850232
89	0x3c56d22a	0.01311163
90	0x3a27cc00	0.0006400943
91	0xbc00f9f6	-0.007872095
92	0x3da19f05	0.07891659
93	0x3ce1cdbd	0.027563924
94	0x3da979ab	0.082751594
95	0xbdb9aca8	-0.09066135
96	0x3d654b64	0.0559801
97	0xbd0ab209	-0.033861194
98	0x3d3ec2af	0.046572383
99	0xbc661c31	-0.014044807
100	0xbc804710	-0.015658885
101	0xbcc87393	-0.024469173
102	0x3c7df89a	0.015501166
103	0x3da729a7	0.081622414
104	0xbd091f0f	-0.033476885
105	0x3d8545da	0.06507464
106	0x3b8b5f99	0.0042533395
107	0xbd4d7e9c	-0.050169572
108	0xbbd03479	-0.0063539115
109	0xbd5e596e	-0.054284506
110	0x3cc8203e	0.024429437
111	0x3c89e87a	0.016834486
112	0xbca82ce4	-0.020529218
113	0x3d6eba50	0.05828315
114	0x3c9e7871	0.01934454
115	0x3d9f3a6d	0.07774816
116	0x3ce21454	0.027597584
117	0xbd0cd085	-0.034378547
118	0xbc289964	-0.010290477
119	0xbcafc7f8	-0.021457657
120	0xbd3073fa	-0.043079354
121	0x3c2d88f0	0.0105917305
122	0xbd7e70ae	-0.06211918
123	0xbc83ef6c	-0.016105376
124	0x3a005378	0.00048952503
125	0x3d4c5d67	0.049893763
126	0x3d58b238	0.052904338
127	0x3ca44dff	0.020056723
128	0xbd618e06	-0.055067085
129	0xbc81136d	-0.015756333
130	0xbc3242e8	-0.0108802095
131	0x3cd1c223	0.025605267
132	0x3d7c7831	0.06163806
133	0x3d1c5658	0.03816828
134	0x3cdc8427	0.026918484
135	0xbd94079d	-0.072280146
136	0x3d2e1348	0.042498857
137	0x3d488d8a	0.048963107
138	0x3d4c114a	0.049821176
139	0xbc461903	-0.012090924
140	0xbc3ac9a0	-0.01140061
141	0x3d153c80	0.03643465
142	0x3b3b8770	0.0028614663
143	0x3d9252ce	0.071447
144	0xbc80deb4	-0.015731193
145	0x3cee3c14	0.029081382
146	0x3cf0dc00	0.02940178
147	0x3d072063	0.03298987
148	0xbd94c960	-0.07264972
149	0xbd331a94	-0.04372652
150	0xbd04e100	-0.03244114
151	0xbd136c10	-0.03599173
152	0xbd311dd2	-0.04324133
153	0x3cd501a0	0.026001751
154	0x3d468b9c	0.048472986
155	0x3d2b04d2	0.041752644
156	0xbd88c96d	-0.06679044
157	0x3d788670	0.060675085
158	0xbcc41a6e	-0.023938384
159	0xbcdb7e78	-0.026793703
160	0xbcb7e384	-0.022447355
161	0xbd24195a	-0.04006324
162	0xbc83aa8c	-0.016072534
163	0x3cf3b3e8	0.029748872
164	0xbb7be3c0	-0.003843531
165	0x3d3d4a58	0.046213478
166	0xbc9d0ea9	-0.01917203
167	0xbd258e9e	-0.040419213
168	0x3cc10bac	0.023565136
169	0x3d53814d	0.051636983
170	0x3d799484	0.06093265
171	0x3aa42c64	0.0012525436
172	0x3bab9b26	0.005237001
173	0xb9e92920	-0.00044471864
174	0x3be05540	0.0068461
175	0xbd7fd016	-0.062454306
176	0x3cc00434	0.023439504
177	0xbc8d14a9	-0.017221766
178	0xbcbfbdc0	-0.02340591
179	0x3d742f7f	0.05961561
180	0x3d2b30fc	0.041794762
181	0x3b8dee00	0.0043313503
182	0x3c019158	0.007908188
183	0x3c558c60	0.013033956
184	0x3d33be1d	0.043882478
185	0xbc8b3f9e	-0.016998108
186	0x3d42e7a6	0.0475842
187	0x3bf8af5f	0.0075892652
188	0x3be21d90	0.006900497
189	0x3d737f26	0.05944743
190	0x3d59c25c	0.05316387
191	0x3d09ea31	0.033670608
192	0xbd285b36	-0.04110261
193	0xbd1c9dc4	-0.038236395
194	0xbb8cb9e1	-0.0042946194
195	0xbd686b5c	-0.05674301
196	0x3d1178f7	0.03551575
197	0x3d409965	0.04702129
198	0xbd2b6a56	-0.041849457
199	0xbc3776e6	-0.011197781
200	0xbc28447a	-0.010270232
201	0xbd74c7a3	-0.0597607
202	0x3d606b15	0.05478962
203	0xbd1df109	-0.038559947
204	0x3d9637f2	0.073348895
205	0xbc0525df	-0.008126705
206	0xbd8085c6	-0.06275515
207	0x3ca84da0	0.020544827
208	0x3b19d3bf	0.0023472158
209	0xbcdc543a	-0.026895631
210	0xbdbba211	-0.09161771
211	0x3d7568c8	0.05991438
212	0xbc217c18	-0.009856246
213	0x3c5b888d	0.013399255
214	0x3cdf7438	0.027277097
215	0xbc30c53b	-0.010789211
216	0x3c4f84b8	0.01266592
217	0x3c71f368	0.014767505
218	0x3d03c7cd	0.032172967
219	0x3da0a786	0.078444526
220	0xbd6a6b89	-0.05723146
221	0xbca3b217	-0.01998238
222	0xbc9603e4	-0.018312402
223	0xbd3ee634	-0.046606258
224	0x3c12b878	0.008955114
225	0x3cad3c23	0.02114684
226	0x3c31bad8	0.01084777
227	0xbbad0540	-0.005280167
228	0x3d17e932	0.037087627
229	0x3bc5f753	0.0060414462
230	0x3d74d029	0.05976883
231	0xbd7142e8	-0.058901697
232	0x3ca37a03	0.01995564
233	0xbd17be54	-0.037046745
234	0x3d3aefb8	0.04563877
235	0xbd4fd3b8	-0.05073902
236	0x3c140f10	0.009036794
237	0xbdd56f80	-0.104216576
238	0xbd1bac9a	-0.038006403
239	0x3d350b6e	0.044200353
240	0x3aa231fc	0.0012374516
241	0x3c773520	0.01508835
242	0x3d9c4054	0.07629457
243	0x3d823b69	0.06358988
244	0x3cea9ee0	0.02864021
245	0x3d085c92	0.033291407
246	0xbccaccf0	-0.024755925
247	0x3d1ce708	0.038306266
248	0x3cbc0cf6	0.022955399
249	0xbd5a252a	-0.0532581
250	0x3ce48418	0.027895018
251	0xbcb3e480	-0.021959543
252	0xbaa006c0	-0.0012209043
253	0x3cac6683	0.021044975
254	0x3d620f18	0.055190176
255	0x3b79240e	0.0038015875

Linear2.bias f4 [3]
0	0xbc6f5a4e	-0.014608933
1	0xbd05bdd8	-0.032651752
2	0xbc9e446e	-0.01931974
