runs/run8/models/model601.pth (torch, 10959 bytes, 4 tensors)

Linear1.weight f4 [256, 5]
1.3071891 0.44471598 0.15865818 0.0037191669 0.3227927 -0.15585175 -0.525236 0.100879304
0.1355802 0.09662363 -0.8923274 0.674586 -1.0253718 0.34594107 -0.065809 0.12659332
-0.8641538 0.47907072 -0.22793044 -0.0634299 -0.319904 0.30500263 -0.6728488 -0.36745197
-0.34211966 0.043675125 -0.06363835 -0.06261633 -0.61327046 -0.49676505 -0.14002433 0.07507992
0.046471775 0.24837172 -0.38446945 0.32332507 -0.09476262 0.2737993 0.3545299 -0.35037172
0.44892374 -0.40525854 -0.12865259 -0.40036386 0.018492345 -0.31558633 0.32055673 -0.014743185
0.11427054 -0.15015452 -1.1351626 -0.4723286 -0.17781374 0.6820712 0.17755857 -0.18119
-1.2035474 0.60898435 0.29287645 -0.22575586 -0.35015497 0.18352562 0.11663753 -0.04224348
-0.22447893 -0.3054127 -0.41186586 -0.05055505 -0.4184418 0.15117812 0.053062588 -0.041784998
0.26150665 -0.3328184 -0.28808737 -0.72535217 0.20933025 0.03073265 -0.035464287 0.026243482
-0.1884006 -0.26109782 -0.2258799 0.038876913 0.1659924 0.2793663 0.049860068 -0.5428652
-0.28775665 0.07296555 0.019338459 -0.1458799 0.04828459 -0.43082777 0.034855068 0.03549561
-0.36064392 -0.0021131933 0.09539962 -0.11542359 -0.48367307 0.08733573 -0.7408443 0.23275825
0.20945144 0.04744877 -0.22076462 0.052136727 -0.03703021 -0.25515503 -0.18243374 -0.23111375
0.2307073 -0.23590365 0.061094843 0.23874986 -0.51321965 -0.15993588 -0.07721359 0.115289345
-0.13136265 0.18618383 -0.37190068 -0.13342552 -0.4408195 0.09971273 -0.4050956 -0.08809012
-0.29570854 -0.4175913 -0.21197228 -0.05687674 -0.44128388 -0.09859496 0.06119382 -0.20334762
0.026212001 -0.23820469 0.03601411 -0.118566185 -0.35332713 0.18336669 0.33455387 0.014282606
-0.33214658 -0.18380854 -0.28072232 -0.15119442 0.07319987 -0.15367168 -0.18975148 -0.41324994
-0.21247615 0.007894874 0.2584082 0.27366748 0.15158843 -0.43701565 -0.2909554 -0.3859891
0.09306839 -0.55665994 -0.37507045 -0.55588615 0.21239765 -0.041926175 -0.36534718 -0.091767825
-0.52613723 0.2035201 -0.102592826 -0.0192523 -0.36663175 -0.2404858 -0.15034872 -0.295918
0.1458072 -0.2054483 0.0011792481 -0.17481324 0.27894044 0.035525724 -0.3990227 -0.2898295
0.31406584 -0.4306956 0.37203413 -0.3766207 -0.058422238 0.14634264 -0.43111092 -0.32982987
0.14721864 0.18756187 -0.19324106 -0.74295515 0.10157547 -0.36524817 0.47686997 -0.38955322
-0.7023031 -0.5676868 0.5858802 0.14279257 -0.4159241 -0.20445232 -0.17417267 0.2934327
0.052426353 -0.35981944 -0.09233299 0.018188953 -0.12454471 -0.29434478 0.19199556 0.15540542
0.14535655 0.117183395 0.28554386 -0.36776108 -0.579705 0.15223265 -0.49120918 -0.004299408
-0.33441612 0.2777099 0.23726456 0.2566774 -0.36236843 -0.2734606 -0.50942856 0.63984525
-0.7038832 -0.31584367 0.0634725 -0.10284721 0.10680076 -0.48633754 -0.07809189 0.044908643
-0.3270081 -0.48430142 0.12462217 0.3649718 0.14091925 -0.60470873 0.42290348 -0.70561486
-0.21521422 -0.46213424 0.21926893 -0.25268176 -0.41965795 -0.29488155 -0.22088143 0.1605046
00000000: f951 a73f d0b1 e33e 4a77 223e 44bd 733b
00000010: 1645 a53e 9a97 1fbe de75 06bf cf99 ce3d
00000020: 89d5 0a3e 9ce2 c53d 926f 64bf abb1 2c3f
00000030: 623f 83bf 301f b13e dec6 86bd aea1 013e
00000040: 2f39 5dbf c248 f53e 9966 69be 89e7 81bd
00000050: 75ca a3be 4e29 9c3e d23f 2cbf aa22 bcbe
00000060: 4f2a afbe b0e4 323d d354 82bd fe3c 80bd
00000070: 4bff 1cbf fd57 febe 8a62 0fbe 80c3 993d
00000080: 3059 3e3d 2855 7e3e 2ed9 c4be dd8a a53e
00000090: e812 c2bd 6c2f 8c3e f184 b53e ec63 b3be
000000a0: 55d9 e53e 0c7e cfbe 81bd 03be 7efc ccbe
000000b0: 427d 973c 8894 a1be 0320 a43e 668d 71bc
000000c0: ac06 ea3d 1bc2 19be 024d 91bf 0ed5 f1be
000000d0: ce14 36be 389c 2e3f ead1 353e df89 39be
000000e0: d70d 9abf 66e6 1b3f e7f3 953e 8b2c 67be
000000f0: 8347 b3be 24ee 3b3e a8df ee3d 8007 2dbd
00000100: cedd 65be 0e5f 9cbe 15e0 d2be d012 4fbd
00000110: 013e d6be 70ce 1a3e 2858 593d bf26 2bbd
00000120: 33e4 853e 2c67 aabe 3080 93be aeb0 39bf
00000130: ab5a 563e 0ac3 fb3c 0043 11bd 92fc d63c
00000140: 16ec 40be 9dae 85be 0f4d 67be 663d 1f3d
00000150: e9f9 293e 1a09 8f3e 123a 4c3d 37f9 0abf
00000160: d754 93be f66e 953d b06b 9e3c 8a61 15be
00000170: 10c6 453d 7595 dcbe 30c4 0e3d d863 113d
00000180: 52a6 b8be 807d 0abb e060 c33d 3463 ecbd
00000190: ffa3 f7be 13dd b23d f9a7 3dbf 2e58 6e3e
000001a0: 707a 563e a459 423d 1f10 62be 528d 553d
000001b0: fdac 17bd aea3 82be e9cf 3abe 15a9 6cbe
000001c0: 893e 6c3e ba90 71be 963e 7a3d d87a 743e
000001d0: 5d62 03bf 3bc6 23be 2922 9ebd d21c ec3d
000001e0: ee83 06be f9a6 3e3e c469 bebe b3a0 08be
000001f0: 18b3 e1be 3036 cc3d b168 cfbe 9868 b4bd
00000200: 1c67 97be 87ce d5be 430f 59be 96f7 68bd
00000210: f6ef e1be 28ec c9bd 5fa6 7a3d 5c3a 50be
00000220: 8dba d63c eeeb 73be 8883 133d d4d2 f2bd
00000230: 4be7 b4be 7ac4 3b3e a54a ab3e 9701 6a3c
00000240: 1e0f aabe 4e38 3cbe d6ba 8fbe b6d2 1abe
00000250: d0e9 953d 1c5c 1dbe 364e 42be 7f95 d3be
00000260: 5993 59be 8059 013c 144e 843e 251e 8c3e
00000270: ff39 1b3e 84c0 dfbe 1bf8 94be 5da0 c5be
00000280: a49a be3d 4481 0ebf 3c09 c0be 8e4e 0ebf
00000290: c57e 593e c8ba 2bbd c90e bbbe c5f0 bbbd
000002a0: eeb0 06bf 9367 503e 301c d2bd 00b7 9dbc
000002b0: 28b7 bbbe e941 76be 04f5 19be 9082 97be
000002c0: 7c4e 153e 0a61 52be 0091 9a3a 3e02 33be
000002d0: 48d1 8e3e 6c83 113d b44c ccbe 8864 94be
000002e0: 3dcd a03e 2284 dcbe 427b be3e 6ed4 c0be
000002f0: 284c 6fbd d8da 153e 92ba dcbe 76df a8be
00000300: 7cc0 163e 3810 403e fce0 45be 4f32 3ebf
00000310: cd06 d03d cf01 bbbe 4d28 f43e 8573 c7be
00000320: 23ca 33bf ec53 11bf 3ffc 153f 3738 123e
00000330: 01f4 d4be f35b 51be 525a 32be d03c 963e
00000340: 04bd 563d 413a b8be 1419 bdbd 0001 953c
00000350: 4c11 ffbd 5cb4 96be 7c9a 443e 9922 1f3e
00000360: 59d8 143e d9fd ef3d ce32 923e 2e4b bcbe
00000370: 8c67 14bf e0e2 1b3e c57f fbbe 0ce2 8cbb
00000380: 9738 abbe fe2f 8e3e 7bf5 723e 386b 833e
00000390: 5b88 b9be 0703 8cbe e969 02bf e6cc 233f
000003a0: b031 34bf 43b6 a1be dffd 813d 8fa1 d2bd
000003b0: 5bba da3d 3c01 f9be a4ee 9fbd 20f2 373d
000003c0: 9b6d a7be 5bf6 f7be e939 ff3d 95dd ba3e
000003d0: 234d 103e 31ce 1abf ce86 d83e 2da3 34bf
000003e0: 1e61 5cbe dc9c ecbe 0988 603e 815f 81be
000003f0: 68dd d6be b7fa 96be be2e 62be 515b 243e

Linear1.bias f4 [256]
0.75363255 -0.3117555 0.23471825 0.19285046 0.3298305 0.160933 -0.3930033 -0.16923591
-0.06911316 -0.41726878 0.12601392 0.1869957 -0.07481468 -0.40307978 -0.3859826 -0.16643381
-0.05829665 -0.2579666 -0.066280335 -0.33527312 0.049660303 0.025702834 -0.4072962 0.2144248
-0.07366841 0.1043157 0.0052376646 -0.034256753 0.3373759 -0.13974518 -0.39642367 -0.375011
-0.2782237 0.0648005 -0.14542851 -0.42380247 -0.35912037 -0.4149161 -0.4320363 0.25481427
0.30191264 -0.15548265 -0.11568606 -0.07884263 0.28988287 -0.54965985 0.19217153 -0.21422964
-0.43940565 0.37120405 0.16763026 -0.10766002 -0.356137 -0.22715601 -0.22288992 0.22747317
0.16623884 0.11895792 -0.13235906 0.13527367 -0.3103523 -0.071197644 -0.2881959 -0.25894526
-0.030397467 -0.20384462 0.115592554 -0.44225243 -0.098437876 -0.33494923 0.03376218 -0.3686521
-0.3043965 0.39427343 -0.43235174 -0.07362892 -0.38018525 -0.30388257 0.56030595 -0.057580076
-0.2539257 -0.29289082 -0.43868893 -0.11022588 -0.13447395 -0.2444623 0.077573515 -0.036142487
-0.25180277 0.14511783 -0.025536753 0.29163894 0.22428393 0.22645195 -0.27503273 -0.2347477
-0.21588604 -0.093309075 -0.041783832 -0.113230124 -0.38634935 -0.04354385 -0.011310769 0.36225787
-0.15989076 -0.0710321 0.00039377226 -0.517807 -0.37711588 -0.35219458 0.055370454 0.019368844
0.038299832 -0.47462735 0.1677722 -0.101344034 -0.2825924 0.27920476 -0.035341926 -0.20217304
0.020580294 -0.49803954 -0.2953461 -0.4452628 -0.07032378 0.2801397 -0.31759202 -0.4927234
0.5030357 0.23154357 0.0460614 0.16364525 0.8209362 -0.22656862 -0.2816728 0.11430771
-0.23081812 -0.059783988 -0.4346591 -0.09093795 -0.23805557 -0.16953944 0.03249071 0.049634516
0.07539739 0.1921323 0.2088222 -0.095385306 -0.014319334 0.5918941 0.15586564 -0.42624953
0.09412731 -0.13082057 0.3710055 -0.19357613 0.2012995 -0.36523482 -0.2804981 0.2466464
-0.17514384 0.08285446 0.30101523 -0.11508785 -0.2306299 -0.40435472 0.019210929 -0.0544419
-0.16287634 -0.1994034 -0.2199681 0.02536348 0.35083318 0.02845819 0.32252553 -0.15384057
0.19720373 -0.027787382 0.043276854 -0.26747295 0.18460642 -0.32872373 0.02845206 0.06946453
-0.4906428 -0.20997451 -0.22267644 -0.2838995 -0.24582718 0.25268793 -0.4167232 -0.38306186
-0.3368752 -0.33910787 -0.4391636 0.22251937 -0.20957449 0.73145056 -0.22293325 0.15523869
-0.3894586 -0.102967955 0.13840537 -0.0071555004 -0.18359034 -0.32359952 -0.26111898 -0.047867566
-0.12724315 0.0679022 -0.4151996 -0.37295863 0.013851138 0.20374303 0.20094144 -0.008097252
0.17165159 0.22517194 0.09113831 0.19815154 -0.438232 -0.02035153 -0.401427 0.05364541
0.1095257 -0.29005754 -0.37528586 0.045635834 -0.06859349 0.23937401 -0.24439384 -0.05691791
-0.23634021 -0.066444695 -0.44689047 0.018987197 -0.07396554 -0.0009105292 0.15806168 -0.30842447
-0.2646409 0.23199676 -0.026261356 0.21833721 0.10103682 0.32737893 0.051256273 -0.06598166
-0.08730384 0.06128477 -0.14588103 -0.0820185 -0.11984769 -0.23404326 0.7713429 -0.36564508
00000000: 10ee 403f 6b9e 9fbe fb59 703e 977a 453e
00000010: 8bdf a83e 9fcb 243e bb37 c9be 2e4c 2dbe
00000020: 338b 8dbd 41a4 d5be cb09 013e cd7b 3f3e
00000030: 7038 99bd 7960 cebe 839f c5be a06d 2abe
00000040: 78c8 6ebd 3314 84be fcbd 87bd eba8 abbe
00000050: 9a68 4b3d c08e d23c 2189 d0be 2d92 5b3e
00000060: 77df 96bd 78a3 d53d b7a0 ab3b cf50 0cbd
00000070: 89bc ac3e 5c19 0fbe 0bf8 cabe 7101 c0be
00000080: 5673 8ebe 20b6 843d 36eb 14be a3fc d8be
00000090: a0de b7be e26f d4be dd33 ddbe 0477 823e
000000a0: 4b94 9a3e d836 1fbe d0ec ecbd 3f78 a1bd
000000b0: 876b 943e 82b6 0cbf 9dc8 443e 045f 5bbe
000000c0: c7f9 e0be 750e be3e 44a7 2b3e db7c dcbd
000000d0: 9757 b6be 969b 68be 413d 64be baee 683e
000000e0: 843a 2a3e 36a0 f33d 2289 07be 2e85 0a3e
000000f0: 7fe6 9ebe 12d0 91bd 6a8e 93be 7994 84be
00000100: 1c04 f9bc a5bc 50be cabb ec3d e96e e2be
00000110: cc99 c9bd 777e abbe 364a 0a3d f8bf bcbe
00000120: dcd9 9bbe 35de c93e 355d ddbe c2ca 96bd
00000130: a4a7 c2be 7f96 9bbe 3670 0f3f 16d9 6bbd
00000140: 8d02 82be c9f5 95be d69b e0be 1bbe e1bd
00000150: 8ab3 09be 5354 7abe ddde 9e3d 250a 14bd
00000160: 4bec 80be c599 143e 7432 d1bc b351 953e
00000170: b0aa 653e 05e3 673e 17d1 8cbe b361 70be
00000180: 3b11 5dbe d418 bfbd 8625 2bbd 32e5 e7bd
00000190: 95cf c5be 095b 32bd ce50 39bc dd79 b93e
000001a0: 67ba 23be 4779 91bd 3873 ce39 008f 04bf
000001b0: 5515 c1be d952 b4be 21cc 623d 69ab 9e3c
000001c0: 49e0 1c3d 5b02 f3be 7acc 2b3e 768d cfbd
000001d0: f3af 90be edf3 8e3e b2c2 10bd 7306 4fbe
000001e0: 0198 a83c 0aff febe 9b37 97be 7cf9 e3be
000001f0: ea05 90bd 796e 8f3e 6c9b a2be 3e46 fcbe
00000200: f3c6 003f c219 6d3e e1aa 3c3d 9f92 273e
00000210: e028 523f 9b01 68be 6b37 90be 291a ea3d
00000220: 965b 6cbe 0ee0 74bd a38b debe ad3d babd
00000230: d7c4 73be bf9b 2dbe fb14 053d 904d 4b3d
00000240: f269 9a3d 54be 443e 7dd5 553e 5f59 c3bd
00000250: a49b 6abc 5f86 173f 3e9b 1f3e 613d dabe
00000260: d2c5 c03d d4f5 05be 6ff4 bd3e d238 46be
00000270: 7521 4e3e 0f00 bbbe 729d 8fbe e090 7c3e
00000280: e858 33be 99af a93d ab1e 9a3e 2eb3 ebbd
00000290: 3f2a 6cbe 9507 cfbe 3d60 9d3c 78fe 5ebd
000002a0: 0ec9 26be 6830 4cbe 513f 61be 13c7 cf3c
000002b0: 68a0 b33e 2621 e93c 1122 a53e 6288 1dbe
000002c0: c6ef 493e 5da2 e3bc 1243 313d 37f2 88be
000002d0: 7709 3d3e 7a4e a8be 4b14 e93c 6b43 8e3d
000002e0: 8835 fbbe 8f03 57be 4b05 64be 465b 91be
000002f0: 1fba 7bbe 5060 813e be5c d5be af20 c4be
00000300: e87a acbe 8c9f adbe 0dda e0be 1edc 633e
00000310: b29a 56be 5840 3b3f 9d48 64be e4f6 1e3e
00000320: 1e67 c7be dde0 d2bd 23ba 0d3e b078 eabb
00000330: 1bff 3bbe d6ae a5be 63b1 85be c810 44bd
00000340: 074c 02be 4f10 8b3d 0b95 d4be 6ff4 bebe
00000350: e2ef 623c 03a2 503e 98c3 4d3e 56aa 04bc
00000360: 6fc5 2f3e 7993 663e b9a6 ba3d 3de8 4a3e
00000370: f25f e0be 40b8 a6bc d787 cdbe 4abb 5b3d
00000380: 034f e03d 6c82 94be 7825 c0be a4ec 3a3d
00000390: be7a 8cbd 761e 753e 6142 7abe c122 69bd
000003a0: 2b03 72be 2814 88bd d4ce e4be 0a8b 9b3c
000003b0: 3f7b 97bd 95b0 6eba ecda 213e d0e9 9dbe
000003c0: 037f 87be 8f90 6d3e 0e22 d7bc ca93 5f3e
000003d0: 64ec ce3d 369e a73e 19f2 513d 6421 87bd
000003e0: 5bcc b2bd bd05 7b3d d661 15be 51f9 a7bd
000003f0: b572 f5bd 09a9 6fbe ba76 453f d535 bbbe

Linear2.weight f4 [3, 256]
0.5040956 0.01032699 -0.45888156 -0.21049625 -0.07953378 0.01467413 0.0362083 -0.2535019
0.21536557 -0.15221336 -0.7525159 -0.31850964 0.033365212 -0.023739688 -0.046540074 -0.025805324
-0.041045234 -0.003373865 -0.051888645 -0.008319259 -0.23397088 -0.017881222 -0.11974582 -0.021677796
-0.12229192 -0.029948242 0.024350315 -0.065574355 0.041163687 -0.02054257 0.060299918 -0.0613795
0.029270187 0.08030433 0.062429294 -0.017481714 -0.018015845 0.034291163 0.033460915 -0.37612492
-0.48189503 -0.07254585 0.050767414 0.047993507 -0.24880315 -0.112216294 -0.26867008 -0.008082489
-0.16242409 -0.14986931 0.016263321 -0.114554256 0.06048584 0.18581037 -0.09478174 0.049630277
0.109508745 -0.020452851 -0.05384066 -0.026185691 0.27345565 -0.0031162756 -0.004154615 0.082267895
-0.27879304 -0.042931676 -0.025215164 -0.03664428 0.025212876 -0.07135216 0.0091116335 -0.05547659
-0.33274707 0.18434274 -0.07832742 -0.059002534 0.05570882 0.015677704 0.3356152 -0.06430559
0.032928392 -0.057279576 -0.013883479 -0.03495928 0.057513922 -0.02488646 -0.44388294 0.010667555
-0.0136337355 0.0094896555 0.0336534 -0.45251787 -0.052138284 0.4787206 0.052875556 -0.51987857
0.020372301 0.04175003 -0.52763146 -0.083316736 0.012739927 -0.00018226147 -0.15425874 -0.42107496
0.028724229 0.026076226 0.07835233 -0.035550278 0.0055679455 0.0341345 0.061978117 -0.0036323601
-0.55477566 -0.039489005 0.010064216 0.011088189 -0.04804754 -0.25684255 -0.03136221 -0.16672404
0.007930451 -0.10351932 0.013196393 -0.071879916 -0.52083635 -0.3188798 -0.058827054 0.007933229
-0.016569074 0.02382069 0.080577925 0.068578474 0.6057754 -0.0072758514 -0.027379282 0.15566315
0.18195333 -0.036580663 -0.058438808 -0.15545619 0.0037537888 0.005684608 -0.82946473 0.15729973
-0.09327331 -0.10145811 0.1519267 -0.030010482 -0.13206609 0.24340676 0.04401334 0.016074479
-0.30241534 0.015669782 -0.061264683 -0.05520185 -0.027073545 -0.101729825 -0.0012917519 -0.11075363
0.044596642 -0.029603781 -0.07656743 -0.037554685 -0.02836026 -0.022166712 -0.34633088 0.06166482
-0.100944474 0.029400527 -0.084018506 -0.15720464 -0.19994962 0.33745024 0.06051605 0.045605645
0.37305972 0.00726339 -0.017148625 -0.108929746 0.20160294 0.029885568 0.013593771 -0.082562454
-0.021395907 -0.015799427 -0.027761124 0.0332354 -0.052032933 -0.010759261 -0.11066574 0.01709187
0.017498605 -0.038190536 0.027090982 -0.11707265 -0.043455273 0.32474586 0.02140062 -0.009468697
0.043201916 -0.044112645 -0.37217006 0.029771514 -0.08434837 -0.009462416 0.012540767 -0.05552736
0.04346432 -0.1040903 -0.00054971874 -0.032553263 0.008442807 -0.04478851 0.0028689364 -0.43472844
-0.13728495 -0.13225591 -0.944004 -0.017402733 -0.054743618 -0.015438415 0.010645606 0.011547603
0.05038478 -0.092700295 0.087842636 -0.020526731 -0.23433642 -0.08754111 -0.09252551 0.049363688
-0.046032228 0.060434386 -0.030999772 -0.017424943 0.03853538 0.014386852 0.0123094125 -0.017086387
-0.01805193 0.026300907 0.035954274 -0.70086 0.011611337 0.0035714407 -0.4212581 -0.010124236
-0.0024586737 -0.75663245 -0.04136968 -0.19059232 0.006861547 0.015589535 0.3546839 0.012512013
00000000: 690c 013f 8932 293c 86f2 eabe 548c 57be
00000010: 9be2 a2bd c36b 703c 284f 143d 00cb 81be
00000020: cb88 5c3e d2dd 1bbe e2a4 40bf b213 a3be
00000030: f6a9 083d bc79 c2bc cea0 3ebd b065 d3bc
00000040: 0c1f 28bd 101c 5dbb 3089 54bd 804d 08bc
00000050: 1096 6fbe a47b 92bc 4c3d f5bd a295 b1bc
00000060: 3074 fabd 0456 f5bc 507a c73c d94b 86bd
00000070: 419b 283d e448 a8bc 0cfd 763d 1269 7bbd
00000080: 08c8 ef3c 9976 a43d dcb5 7f3d d035 8fbc
00000090: f795 93bc e474 0c3d 500e 093d 7293 c0be
000000a0: f2ba f6be eb92 94bd 7ef1 4f3d d794 443d
000000b0: 41c6 7ebe a8d1 e5bd 208f 89be 6a6c 04bc
000000c0: 8052 26be 5777 19be a83a 853c 6c9b eabd
000000d0: 00c0 773d 1345 3e3e ee1c c2bd 1e49 4b3d
000000e0: 1f46 e03d bd8c a7bc 0688 5cbd 6083 d6bc
000000f0: 6102 8c3e 6e3a 4cbb 7023 88bb 127c a83d
00000100: f6bd 8ebe 20d9 2fbd 0890 cebc 5018 16bd
00000110: 3c8b ce3c 1521 92bd f648 153c 6c3b 63bd
00000120: d35d aabe 58c4 3c3e 206a a0bd a4ac 71bd
00000130: ee2e 643d 876e 803c c1d5 ab3e a6b2 83bd
00000140: ecdf 063d fd9d 6abd 8877 63bc 7631 0fbd
00000150: b893 6b3d b0de cbbc a044 e3be f8c6 2e3c
00000160: 0860 5fbc 807a 1b3c 26d8 093d 6cb0 e7be
00000170: f48e 55bd de1a f53e 0a94 583d c316 05bf
00000180: d0e3 a63c 1402 2b3d db12 07bf f7a1 aabd
00000190: 20bb 503c 711d 3fb9 01f6 1dbe 2397 d7be
000001a0: 134f eb3c cf9d d53c 3077 a03d 2b9d 11bd
000001b0: 5073 b63b 9ed0 0b3d c4dc 7d3d e40c 6ebb
000001c0: c705 0ebf 39bf 21bd 62e4 243c 3cab 353c
000001d0: 7fcd 44bd de80 83be a975 00bd b5b9 2abe
000001e0: b9ee 013c f001 d4bd af35 583c c735 93bd
000001f0: 8855 05bf 3744 a3be a3f4 70bd 60fa 013c
00000200: debb 87bc 9c23 c33c 0a06 a53d df72 8c3d
00000210: 1914 1b3f 446a eebb 844a e0bc 2966 1f3e
00000220: f951 3a3e 9bd5 15bd 885d 6fbd e82f 1fbe
00000230: 2002 763b f345 ba3b cd57 54bf 2e13 213e
00000240: 1406 bfbd 45c9 cfbd ac92 1b3e 8bd8 f5bc
00000250: 553c 07be 9f3f 793e 5547 343d a0ae 833c
00000260: 2fd6 9abe ea5d 803c adf0 7abd 561b 62bd
00000270: 57c9 ddbc ba57 d0bd 0050 a9ba cdd2 e2bd
00000280: f8aa 363d a183 f2bc 62cf 9cbd f1d2 19bd
00000290: c753 e8bc f796 b5bc 4852 b1be 4094 7c3d
000002a0: fabb cebd 60d9 f03c e511 acbd 41fa 20be
000002b0: 98bf 4cbe 47c6 ac3e addf 773d fccc 3a3d
000002c0: af01 bf3e bb01 ee3b 467b 8cbc 8f16 dfbd
000002d0: 0071 4e3e 94d2 f43c 68b8 5e3c 8116 a9bd
000002e0: 7846 afbc cd6d 81bc 4c6b e3bc d821 083d
000002f0: 7c20 55bd 9d47 30bc b8a4 e2bd 4004 8c3c
00000300: 3c59 8f3c ae6d 1cbd e8ed dd3c c9c3 efbd
00000310: 28fe 31bd 1745 a63e 5a50 af3c 9822 1bbc
00000320: 7ef4 303d 76af 34bd 138d bebe 64e3 f33c
00000330: d7be acbd 4008 1bbc ca77 4d3c a870 63bd
00000340: a507 323d 4c2d d5bd 001b 10ba 9256 05bd
00000350: b353 0a3c 2874 37bd c404 3c3b ba94 debe
00000360: 6d94 0cbe 186e 07be 3faa 71bf 2d90 8ebc
00000370: d83a 60bd 68f1 7cbc e86a 2e3c 2832 3d3c
00000380: 4560 4e3d a7d9 bdbd d7e6 b33d ad27 a8bc
00000390: e3f5 6fbe c148 b3bd 047e bdbd 9431 4a3d
000003a0: 4a8c 3cbd 0c8a 773d 3cf3 fdbc c1be 8ebc
000003b0: 46d7 1d3d d5b6 6b3c 6bad 493c c0f8 8bbc
000003c0: a4e1 93bc 0075 d73c ca44 133d 906b 33bf
000003d0: 7a3d 3e3c d50e 6a3b 24af d7be 20e0 25bc
000003e0: b321 21bb aab2 41bf 4173 29bd a22a 43be
000003f0: d4d6 e03b 406b 7f3c 2199 b53e 30ff 4c3c

Linear2.bias f4 [3]
0.10018071 0.15568367 0.18393753
00000000: 8b2b cd3d 8a6b 1f3e 1f5a 3c3e
