runs/run8/models/model2001.pth (torch, 10959 bytes, 4 tensors)

Linear1.weight f4 [256, 5]
0	0x3fa69131	1.3013059
1	0x3ef2a9c4	0.47395146
2	0x3e8209df	0.25398156
3	0x3dc6cb23	0.09706714
4	0x3ed47002	0.41491705
5	0xbe1f979a	-0.15585175
6	0xbf0675de	-0.525236
7	0x3dce99cf	0.100879304
8	0x3e0ad589	0.1355802
9	0x3dc5e29c	0.09662363
10	0xbf65f243	-0.8982279
11	0x3f2e8bce	0.68182075
12	0xbf8484ef	-1.0353068
13	0x3eb0a94e	0.3450417
14	0xbd89a382	-0.0672064
15	0x3e1bf230	0.15229106
16	0xbf61e5bc	-0.8824117
17	0x3ef52a45	0.47883812
18	0xbe79baa5	-0.24387605
19	0xbd9857a4	-0.07438591
20	0xbe8bbaab	-0.27290854
21	0x3eb3860b	0.35063204
22	0xbf28a648	-0.65878725
23	0xbea7c5f9	-0.3276823
24	0xbe9f62d9	-0.31130102
25	0x3d32e4b0	0.043675125
26	0xbd8254d3	-0.06363835
27	0xbd803cfe	-0.06261633
28	0xbf1cff4b	-0.61327046
29	0xbefe57fd	-0.49676505
30	0xbe0f628a	-0.14002433
31	0x3d99c380	0.07507992
32	0x3d3e5930	0.046471775
33	0x3e7e5528	0.24837172
34	0xbec4d92e	-0.38446945
35	0x3eb63a55	0.3559138
36	0xbdb4255e	-0.0879619
37	0x3e7feb49	0.24992098
38	0x3eafafd3	0.3431383
39	0xbec45d70	-0.38352537
40	0x3ee1c67c	0.44096744
41	0xbed17114	-0.40906584
42	0xbe0b140d	-0.13581868
43	0xbecfc930	-0.4058318
44	0x3c38580d	0.011251462
45	0xbea19488	-0.31558633
46	0x3ea42003	0.32055673
47	0xbc718d66	-0.014743185
48	0x3dea06ac	0.11427054
49	0xbe19c21b	-0.15015452
50	0xbf955892	-1.1667655
51	0xbee7ffa3	-0.45312223
52	0xbe46c826	-0.19412288
53	0x3f2fb6ae	0.6863812
54	0x3e3669fd	0.17813869
55	0xbe1d621c	-0.15369457
56	0xbf9ca3f7	-1.2237538
57	0x3f1adfb4	0.60497594
58	0x3e903c02	0.28170782
59	0xbe779be9	-0.24180569
60	0xbeb34783	-0.35015497
61	0x3e3bee24	0.18352562
62	0x3deedfa8	0.11663753
63	0xbd2d0780	-0.04224348
64	0xbe65ddce	-0.22447893
65	0xbe9c5f0e	-0.3054127
66	0xbed2e015	-0.41186586
67	0xbd4f12d0	-0.05055505
68	0xbed63e01	-0.4184418
69	0x3e1ace70	0.15117812
70	0x3d595828	0.053062588
71	0xbd2b26bf	-0.041784998
72	0x3e85e433	0.26150665
73	0xbeaa672c	-0.3328184
74	0xbe938030	-0.28808737
75	0xbf39b0ae	-0.72535217
76	0x3e565aab	0.20933025
77	0x3cfbc30a	0.03073265
78	0xbd114300	-0.035464287
79	0x3cd6fc92	0.026243482
80	0xbe40ec16	-0.1884006
81	0xbe85ae9d	-0.26109782
82	0xbe674d0f	-0.2258799
83	0x3d1f3d66	0.038876913
84	0x3e29f9e9	0.1659924
85	0x3e8f091a	0.2793663
86	0x3d4c3a12	0.049860068
87	0xbf0af937	-0.5428652
88	0xbe9354d7	-0.28775665
89	0x3d956ef6	0.07296555
90	0x3c9e6bb0	0.019338459
91	0xbe15618a	-0.1458799
92	0x3d45c610	0.04828459
93	0xbedc9575	-0.43082777
94	0x3d0ec430	0.034855068
95	0x3d1163d8	0.03549561
96	0xbeb8a652	-0.36064392
97	0xbb0a7d80	-0.0021131933
98	0x3dc360e0	0.09539962
99	0xbdec6334	-0.11542359
100	0xbef7b654	-0.48381293
101	0x3dbeb2b3	0.09311428
102	0xbf3d4b73	-0.7394325
103	0x3e7596d6	0.2398332
104	0x3e5be4a0	0.21473932
105	0x3d4259a4	0.04744877
106	0xbe62101f	-0.22076462
107	0x3d558d52	0.052136727
108	0xbd17acfd	-0.03703021
109	0xbe82a3ae	-0.25515503
110	0xbe3acfe9	-0.18243374
111	0xbe6ca915	-0.23111375
112	0x3e6c3e89	0.2307073
113	0xbe7190ba	-0.23590365
114	0x3d7a3e96	0.061094843
115	0x3e8a1a4b	0.26973185
116	0xbf02da76	-0.51114595
117	0xbe2db053	-0.16961794
118	0xbdc9e0c3	-0.09857323
119	0x3ddf4ecf	0.109037034
120	0xbe0683ee	-0.13136265
121	0x3e3ea6f9	0.18618383
122	0xbebe69c4	-0.37190068
123	0xbe08a0b3	-0.13342552
124	0xbee1b318	-0.4408195
125	0x3dcc3630	0.09971273
126	0xbecf68b1	-0.4050956
127	0xbdb46898	-0.08809012
128	0xbe97671c	-0.29570854
129	0xbed5ce87	-0.4175913
130	0xbe590f43	-0.21197228
131	0xbd68f796	-0.05687674
132	0xbee1eff6	-0.44128388
133	0xbdc9ec28	-0.09859496
134	0x3d7aa65f	0.06119382
135	0xbe503a5c	-0.20334762
136	0x3cd6ba8d	0.026212001
137	0xbe73ebee	-0.23820469
138	0x3d138388	0.03601411
139	0xbdf2d2d4	-0.118566185
140	0xbeb9e6ea	-0.36308986
141	0x3e47931d	0.19489713
142	0x3ecd6e84	0.4012338
143	0x3d980145	0.07422117
144	0xbe87fe31	-0.2656112
145	0xbe3c384e	-0.18380854
146	0xbe8fbad6	-0.28072232
147	0xbe1ad2b6	-0.15119442
148	0x3d95e9d0	0.07319987
149	0xbe1d5c1c	-0.15367168
150	0xbe424e36	-0.18975148
151	0xbed3957f	-0.41324994
152	0xbe599359	-0.21247615
153	0x3c015980	0.007894874
154	0x3e844e14	0.2584082
155	0x3e8c1e25	0.27366748
156	0x3e1b39ff	0.15158843
157	0xbedfc084	-0.43701565
158	0xbe94f81b	-0.2909554
159	0xbec5a05d	-0.3859891
160	0x3dbe9aa4	0.09306839
161	0xbf0e8144	-0.55665994
162	0xbec0093c	-0.37507045
163	0xbf0e4e8e	-0.55588615
164	0x3e597ec5	0.21239765
165	0xbd383fa0	-0.044982553
166	0xbebb9ef3	-0.36644706
167	0xbdbdbf61	-0.09265018
168	0xbf072f99	-0.52807003
169	0x3e4d7133	0.20062713
170	0xbdd21c30	-0.102592826
171	0xbc9db700	-0.0192523
172	0xbebbb728	-0.36663175
173	0xbe7641e9	-0.2404858
174	0xbe19f504	-0.15034872
175	0xbe978290	-0.295918
176	0x3e154e7c	0.1458072
177	0xbe52610a	-0.2054483
178	0x3a9a9100	0.0011792481
179	0xbe33023e	-0.17481324
180	0x3e8ed148	0.27894044
181	0x3d11836c	0.035525724
182	0xbecc4cb4	-0.3990227
183	0xbe946488	-0.2898295
184	0x3ea0cd3d	0.31406584
185	0xbedc8422	-0.4306956
186	0x3ebe7b42	0.37203413
187	0xbec0d46e	-0.3766207
188	0xbd6f4c28	-0.058422238
189	0x3e15dad8	0.14634264
190	0xbedcba92	-0.43111092
191	0xbea8df76	-0.32982987
192	0x3e16c07c	0.14721864
193	0x3e401038	0.18756187
194	0xbe45e0fc	-0.19324106
195	0xbf43457b	-0.76277894
196	0x3dc04ce1	0.093896635
197	0xbeb619f5	-0.3556668
198	0x3ef69eb9	0.4816797
199	0xbecb4dc2	-0.39707762
200	0xbf3a8e42	-0.7287332
201	0xbf1e6ebc	-0.6188772
202	0x3f0b4d45	0.5441478
203	0x3dc68f1d	0.096952654
204	0xbef20cca	-0.47275382
205	0xbe515bf3	-0.20445232
206	0xbe325a52	-0.17417267
207	0x3e963cd0	0.2934327
208	0x3d56bd04	0.052426353
209	0xbeb83a41	-0.35981944
210	0xbdbd1914	-0.09233299
211	0x3c950100	0.018188953
212	0xbdff114c	-0.12454471
213	0xbe96b45c	-0.29434478
214	0x3e449a7c	0.19199556
215	0x3e2569de	0.16153666
216	0x3e0ad2a3	0.13556914
217	0x3de2da52	0.110767975
218	0x3e89bab9	0.2690027
219	0xbeca123b	-0.39467034
220	0xbf0b5725	-0.54429847
221	0x3e4840bd	0.19555946
222	0xbee94783	-0.45562372
223	0x3d116104	0.035492912
224	0xbe9a71f4	-0.30165064
225	0x3e8e2ffe	0.2777099
226	0x3e72f57b	0.23726456
227	0x3e836b38	0.2566774
228	0xbeb9885b	-0.36236843
229	0xbe8c0307	-0.2734606
230	0xbf060181	-0.52346045
231	0x3f22dcbb	0.6361806
232	0xbf387d6d	-0.72066385
233	0xbea89825	-0.32928577
234	0x3d59fd1b	0.053219896
235	0xbdd2a18f	-0.10284721
236	0x3ddaba5b	0.10680076
237	0xbef9013c	-0.48633754
238	0xbd9feea4	-0.07809189
239	0x3d37f220	0.044908643
240	0xbea76d9b	-0.3270081
241	0xbef7f65b	-0.48430142
242	0x3dff39e9	0.12462217
243	0x3ebadd95	0.3649718
244	0x3e104d23	0.14091925
245	0xbf156887	-0.5836262
246	0x3ee40072	0.4453159
247	0xbf34d10d	-0.70631486
248	0xbe4e402e	-0.2014167
249	0xbee7233b	-0.45144066
250	0x3e5255b2	0.20540503
251	0xbe837a9f	-0.2567949
252	0xbedf5b82	-0.43624502
253	0xbe9cd427	-0.3063061
254	0xbe6bf73d	-0.23043533
255	0x3e245b51	0.1605046

Linear1.bias f4 [256]
0	0x3f5b675f	0.85704607
1	0xbe9f9e6b	-0.3117555
2	0x3e6d3cc4	0.23167711
3	0x3e3e8c29	0.18608154
4	0x3ebd54a8	0.3697865
5	0x3e24cb9f	0.160933
6	0xbec937bb	-0.3930033
7	0xbe39d06e	-0.18145916
8	0xbd9d4856	-0.076798126
9	0xbed5a441	-0.41726878
10	0x3dfcb873	0.123398684
11	0x3e34a75f	0.17641972
12	0xbd993870	-0.07481468
13	0xbece6079	-0.40307978
14	0xbec59f83	-0.3859826
15	0xbe2a6da0	-0.16643381
16	0xbd6ec878	-0.05829665
17	0xbe841433	-0.2579666
18	0xbd87bdfc	-0.066280335
19	0xbeaba8eb	-0.33527312
20	0x3d54b522	0.051930554
21	0x3cd28ec0	0.025702834
22	0xbed08921	-0.4072962
23	0x3e5086e5	0.20363958
24	0xbd96df77	-0.07366841
25	0x3dd5a378	0.1043157
26	0x3baba0b7	0.0052376646
27	0xbd0c50cf	-0.034256753
28	0x3ec7253a	0.3889559
29	0xbe0f195c	-0.13974518
30	0xbecaf80b	-0.39642367
31	0xbec00171	-0.375011
32	0xbe8e7356	-0.2782237
33	0x3d7eb36e	0.062182836
34	0xbe14eb36	-0.14542851
35	0xbed8fca3	-0.42380247
36	0xbeb7dea0	-0.35912037
37	0xbed46fe2	-0.4149161
38	0xbedd33dd	-0.4320363
39	0x3e8107a5	0.25201145
40	0x3e8228c3	0.25421724
41	0xbe1f36d8	-0.15548265
42	0xbdececd0	-0.11568606
43	0xbdb5dc3e	-0.088798985
44	0x3eaa2578	0.3323171
45	0xbf0cb682	-0.54965985
46	0x3e3b690c	0.18301791
47	0xbe5b5f04	-0.21422964
48	0xbee0f9c7	-0.43940565
49	0x3ec6f844	0.38861287
50	0x3e1d74eb	0.15376632
51	0xbddc7cdb	-0.10766002
52	0xbeb65797	-0.356137
53	0xbe689b96	-0.22715601
54	0xbe69e38b	-0.22840707
55	0x3e68eeba	0.22747317
56	0x3e174990	0.14774156
57	0x3e02b00d	0.1276247
58	0xbe078922	-0.13235906
59	0x3e0a852e	0.13527367
60	0xbea29e52	-0.31761414
61	0xbd91d012	-0.071197644
62	0xbe938e6a	-0.2881959
63	0xbe849479	-0.25894526
64	0xbc9354a4	-0.017984696
65	0xbe50bca5	-0.20384462
66	0x3de54f4a	0.11196764
67	0xbee26ee9	-0.44225243
68	0xbdc999cc	-0.098437876
69	0xbeab7e77	-0.33494923
70	0x3d0a4a36	0.03376218
71	0xbebcbff8	-0.3686521
72	0xbe91a5ec	-0.284469
73	0x3efced42	0.49399763
74	0xbedd5d35	-0.43235174
75	0xbdacf9ad	-0.084460594
76	0xbec2a7a4	-0.38018525
77	0xbe9bcb72	-0.30428654
78	0x3f28c4b2	0.65925133
79	0xbd6ce89a	-0.057839014
80	0xbe82028d	-0.2539257
81	0xbe95f5c9	-0.29289082
82	0xbee09bd6	-0.43868893
83	0xbde177d6	-0.11009185
84	0xbe09b38a	-0.13447395
85	0xbe7a5453	-0.2444623
86	0x3c9b903c	0.018989675
87	0xbd140a25	-0.036142487
88	0xbe80ec4b	-0.25180277
89	0x3e1324bf	0.14369486
90	0xbcd13274	-0.025536753
91	0x3e92582e	0.285829
92	0x3e65aab0	0.22428393
93	0x3ea79bcf	0.3273606
94	0xbe8cd117	-0.27503273
95	0xbe5c4c1a	-0.21513405
96	0xbe5d113b	-0.21588604
97	0xbdbf18d4	-0.093309075
98	0xbd9b524b	-0.075840555
99	0xbde7e532	-0.113230124
100	0xbec5cf95	-0.38634935
101	0xbd325b09	-0.04354385
102	0xbc3950ce	-0.011310769
103	0x3ea57364	0.323146
104	0xbe23ba67	-0.15989076
105	0xbd917947	-0.0710321
106	0x39ce7338	0.00039377226
107	0xbf048f00	-0.517807
108	0xbec11555	-0.37711588
109	0xbeb452d9	-0.35219458
110	0x3d625c9f	0.05526411
111	0x3c8b8df1	0.017035456
112	0x3d110f1f	0.03541481
113	0xbef3025b	-0.47462735
114	0x3e2bcc7a	0.1677722
115	0xbdcf8d76	-0.101344034
116	0xbe90aff3	-0.2825924
117	0x3e9851f3	0.29750022
118	0xbd10c2b2	-0.035341926
119	0xbe4f0673	-0.20217304
120	0x3ca89801	0.020580294
121	0xbefeff0a	-0.49803954
122	0xbe97379b	-0.2953461
123	0xbee3f97c	-0.4452628
124	0xbd9b8197	-0.07593077
125	0x3e817568	0.25284886
126	0xbea29b6c	-0.31759202
127	0xbefc463e	-0.4927234
128	0x3f040879	0.5157543
129	0x3e6d19c2	0.23154357
130	0x3d389a31	0.045068923
131	0x3e289a54	0.16465122
132	0x3f6746a8	0.9034219
133	0xbe68019b	-0.22656862
134	0xbe90376b	-0.2816728
135	0x3de19d56	0.110163376
136	0xbe6e4d6f	-0.23271726
137	0xbd7bbe9c	-0.061461076
138	0xbede8ba3	-0.4346591
139	0xbdc2927a	-0.095005944
140	0xbe73c4d7	-0.23805557
141	0xbe2d9bbf	-0.16953944
142	0x3c8e25ed	0.017352069
143	0x3d39eb05	0.045390148
144	0x3d9d8282	0.07690908
145	0x3e44be54	0.1921323
146	0x3e3d0333	0.18458252
147	0xbdc3595f	-0.095385306
148	0xbc92db4b	-0.017926833
149	0x3f31b922	0.69423115
150	0x3e1f9b3e	0.15586564
151	0xbeda3d61	-0.42624953
152	0x3d8c0fc6	0.06838946
153	0xbe0dada2	-0.13835767
154	0x3ebdd61e	0.3707742
155	0xbe4638d2	-0.19357613
156	0x3e43f182	0.19135097
157	0xbeba3441	-0.36367992
158	0xbe8f9d72	-0.2804981
159	0x3e843f92	0.2582975
160	0xbe3358e8	-0.17514384
161	0x3d7fdc8a	0.06246618
162	0x3e9f452f	0.3110747
163	0xbdebb32e	-0.11508785
164	0xbe6c2a3f	-0.2306299
165	0xbecf0795	-0.40435472
166	0x3d3563bb	0.044284564
167	0xbd5efe78	-0.0544419
168	0xbe26c90e	-0.16287634
169	0xbe4c3068	-0.1994034
170	0xbe5d26e6	-0.2159687
171	0x3d535378	0.051593274
172	0x3ec81ea6	0.39085883
173	0x3dbc6793	0.09199443
174	0x3ea44d39	0.32090166
175	0xbe1d8862	-0.15384057
176	0x3e920152	0.28516632
177	0xbce3a25d	-0.027787382
178	0x3d314312	0.043276854
179	0xbe88f237	-0.26747295
180	0x3e8d75fc	0.27629077
181	0xbea84e7a	-0.32872373
182	0x3ce9144b	0.02845206
183	0x3db6380a	0.08897407
184	0xbefb3588	-0.4906428
185	0xbe57038f	-0.20997451
186	0xbe64054b	-0.22267644
187	0xbe915b46	-0.2838995
188	0xbe7bba1f	-0.24582718
189	0x3e876e57	0.2645137
190	0xbed55cbe	-0.4167232
191	0xbec420af	-0.38306186
192	0xbeac7ae8	-0.3368752
193	0xbead9f8c	-0.33910787
194	0xbee0da0d	-0.4391636
195	0x3e68f8aa	0.22751108
196	0xbe569ab2	-0.20957449
197	0x3f5529c7	0.8326687
198	0xbe64489d	-0.22293325
199	0x3e2025ee	0.15639469
200	0xbec7671e	-0.3894586
201	0xbdd2e0dd	-0.102967955
202	0x3e19ee70	0.15032363
203	0xbbea78b0	-0.0071555004
204	0xbe3bff1b	-0.18359034
205	0xbea5aed6	-0.32359952
206	0xbe85b163	-0.26111898
207	0xbd4410c8	-0.047867566
208	0xbe0136e6	-0.12618598
209	0x3d8b104f	0.0679022
210	0xbed4950b	-0.4151996
211	0xbebef46f	-0.37295863
212	0x3c62efe2	0.013851138
213	0x3e67b8b3	0.22629051
214	0x3e4a7f29	0.1977507
215	0x3c7f928a	0.0155989025
216	0x3e3d8ec6	0.18511495
217	0x3e669379	0.22517194
218	0x3dc7fc34	0.09764901
219	0x3e5d5d17	0.21617542
220	0xbee05ff2	-0.438232
221	0xbca6b840	-0.02035153
222	0xbecd87d7	-0.401427
223	0x3d5bbb4a	0.05364541
224	0x3de04f03	0.1095257
225	0xbe7cf845	-0.24704082
226	0xbec02578	-0.37528586
227	0x3d35c62f	0.044378456
228	0xbd852357	-0.06500881
229	0x3e839cba	0.2570551
230	0xbe7a4261	-0.24439384
231	0xbd6922c1	-0.05691791
232	0xbe746265	-0.2386566
233	0xbd881428	-0.066444695
234	0xbee4ced4	-0.44689047
235	0x3c87edae	0.016592827
236	0xbd977b3f	-0.07396554
237	0xba6eb095	-0.0009105292
238	0x3e21c739	0.15798654
239	0xbe9de9d0	-0.30842447
240	0xbe877f03	-0.2646409
241	0x3e6dc276	0.23218712
242	0xbcd7220e	-0.026261356
243	0x3e53981e	0.20663497
244	0x3dcb93e6	0.09940319
245	0x3eab9a88	0.33516335
246	0x3d415029	0.047195587
247	0xbd872164	-0.06598166
248	0xbda42c8a	-0.08016308
249	0x3d71d0ad	0.0590369
250	0xbe1561d6	-0.14588103
251	0xbda7f951	-0.0820185
252	0xbdf572b5	-0.11984769
253	0xbe6fa909	-0.23404326
254	0x3f5f5e35	0.87253124
255	0xbebb35d5	-0.36564508

Linear2.weight f4 [3, 256]
0	0x3f0464e4	0.51716447
1	0x3c293289	0.01032699
2	0xbee7e6bf	-0.45293233
3	0xbe66885e	-0.22512957
4	0xbdad9053	-0.08474793
5	0x3c706bc3	0.01467413
6	0x3d144f28	0.0362083
7	0xbe8b880d	-0.27252236
8	0x3e5b84d1	0.21437384
9	0xbe1bddd2	-0.15221336
10	0xbf561222	-0.8362142
11	0xbea676c7	-0.32512495
12	0x3d08a9f6	0.033365212
13	0xbcc279bc	-0.023739688
14	0xbd3ea0ce	-0.046540074
15	0xbcd365b0	-0.025805324
16	0xbd281f0c	-0.041045234
17	0xbb5d1c10	-0.003373865
18	0xbd548930	-0.051888645
19	0xbc084d80	-0.008319259
20	0xbe806eb8	-0.25084472
21	0xbc927ba4	-0.017881222
22	0xbdf53d4c	-0.11974582
23	0xbd0c83be	-0.034305327
24	0xbdfa7430	-0.12229192
25	0xbcf55604	-0.029948242
26	0x3cc77a50	0.024350315
27	0xbd864bd9	-0.065574355
28	0x3d95a725	0.07307271
29	0xbca848e4	-0.02054257
30	0x3d76fd0c	0.060299918
31	0xbd7b6912	-0.0613795
32	0x3cefc808	0.029270187
33	0x3da30fe7	0.079620175
34	0x3d7fb5dc	0.062429294
35	0xbc8f35d0	-0.017481714
36	0xbc9395f7	-0.018015845
37	0x3d0c74e4	0.034291163
38	0x3d090e50	0.033460915
39	0xbee13007	-0.43981954
40	0xbef5f59b	-0.48038945
41	0xbd9492eb	-0.07254585
42	0x3d4ff17e	0.050767414
43	0x3c013e60	0.0078884065
44	0xbe9573db	-0.29189953
45	0xbde5d1a8	-0.112216294
46	0xbe862f48	-0.26207948
47	0xbc046c6a	-0.008082489
48	0xbe265280	-0.16242409
49	0xbe26c873	-0.16287403
50	0x3c7d3286	0.01545394
51	0xbdea9b6c	-0.114554256
52	0x3d77c000	0.06048584
53	0x3e3e4513	0.18581037
54	0xbdc1421f	-0.0943644
55	0x3d4b491e	0.049630277
56	0x3ddd5a39	0.10808224
57	0xbcd16ff8	-0.025566086
58	0xbd5c8806	-0.05384066
59	0xbcd68360	-0.026185691
60	0x3e8be329	0.27321747
61	0xbb4c3a6e	-0.0031162756
62	0xbb882370	-0.004154615
63	0x3da87c12	0.082267895
64	0xbe9b908c	-0.30383718
65	0xbd2fd920	-0.042931676
66	0xbcce9008	-0.025215164
67	0xbd161850	-0.03664428
68	0x3cce8b3c	0.025212876
69	0xbd922115	-0.07135216
70	0x3c1548f6	0.0091116335
71	0xbd633b6c	-0.05547659
72	0xbeae6fdc	-0.34069717
73	0x3e4d2683	0.20034222
74	0xbda06a20	-0.07832742
75	0xbd71aca4	-0.059002534
76	0x3d642eee	0.05570882
77	0x3c7a62a6	0.015282309
78	0x3eb2b298	0.3490188
79	0xbd83b2a6	-0.06430559
80	0x3d06dfec	0.032928392
81	0xbd6a9dfd	-0.057279576
82	0xbc637788	-0.013883479
83	0xbd0fc22e	-0.035097294
84	0x3d6b93b8	0.057513922
85	0xbccbdeb0	-0.02488646
86	0xbee86208	-0.45387292
87	0x3c2ec6f8	0.010667555
88	0xbc5f6008	-0.0136337355
89	0x3c2aa2ff	0.010414838
90	0x3d09d826	0.0336534
91	0xbeedaa2b	-0.4641889
92	0xbd558ef4	-0.052138284
93	0x3efb87d7	0.49127075
94	0x3d58940a	0.052875556
95	0xbf0d8ba5	-0.55291206
96	0x3ca6e3d0	0.020372301
97	0x3d2b0214	0.04175003
98	0xbf07fd63	-0.5312101
99	0xbdaaa1f7	-0.083316736
100	0x3c50bb20	0.012739927
101	0xb93f1d71	-0.00018226147
102	0xbe1df601	-0.15425874
103	0xbed7474d	-0.42046586
104	0x3ceb4f13	0.028724229
105	0x3cd59dcf	0.026076226
106	0x3da07730	0.07835233
107	0xbd119d2b	-0.035550278
108	0x3bb67350	0.0055679455
109	0x3d0bd09e	0.0341345
110	0x3d7d8ecb	0.061903756
111	0xbb6e0ce4	-0.0036323601
112	0xbf262d75	-0.6491311
113	0xbd21bf39	-0.039489005
114	0x3c24e462	0.010064216
115	0x3c35ab3c	0.011088189
116	0xbd44cd7f	-0.04804754
117	0xbeacc492	-0.3374372
118	0xbd0075a9	-0.03136221
119	0xbe2ab9b5	-0.16672404
120	0x3c01eeb9	0.007930451
121	0xbdd401f0	-0.10351932
122	0x3c5835af	0.013196393
123	0xbd9335c7	-0.071879916
124	0xbf0aa5d8	-0.5415931
125	0xbea2954d	-0.31754532
126	0xbd70f4a3	-0.058827054
127	0x3c01fa60	0.007933229
128	0x3b9bf11b	0.0047589666
129	0x3cc3239c	0.02382069
130	0x3da31282	0.079625145
131	0x3d920901	0.071306236
132	0x3f1e2c20	0.6178608
133	0xbbee6a44	-0.0072758514
134	0xbce04a84	-0.027379282
135	0x3e1d5e23	0.15367942
136	0x3e38f8ca	0.18063655
137	0xbd0d7f60	-0.034545302
138	0xbd6f5d88	-0.058438808
139	0xbe71ee26	-0.23626003
140	0x3b760220	0.0037537888
141	0x3bba45f3	0.005684608
142	0xbf5b5de6	-0.8569015
143	0x3e1ee3f9	0.15516652
144	0xbdaf3384	-0.08554748
145	0xbdcfc945	-0.10145811
146	0x3e192b49	0.14957918
147	0xbcf5d88b	-0.030010482
148	0xbe4402be	-0.19141671
149	0x3e83ba17	0.25727913
150	0x3d344755	0.04401334
151	0x3c83aea0	0.016074479
152	0xbe9e3019	-0.3089607
153	0x3bbaf57c	0.0057055335
154	0xbdc716f5	-0.097211756
155	0xbd621b56	-0.05520185
156	0xbca40b11	-0.020024808
157	0xbe05e569	-0.13075794
158	0xbaa95000	-0.0012917519
159	0xbe001bab	-0.12510554
160	0x3d36aaf8	0.044596642
161	0xbcf1586a	-0.029461104
162	0xbdbf8fa7	-0.093535714
163	0xbd19d2f1	-0.037554685
164	0xbce853c7	-0.02836026
165	0xbcb596f7	-0.022166712
166	0xbeaec10f	-0.34131667
167	0x3d7c9440	0.06166482
168	0xbdcebbfa	-0.100944474
169	0x3cf0d960	0.029400527
170	0xbdceb3eb	-0.100929104
171	0xbe4a5e79	-0.19762601
172	0xbe4c03f0	-0.19923377
173	0x3eb1c7a7	0.34722635
174	0x3d704713	0.05866153
175	0x3d3accfc	0.045605645
176	0x3ec4c51a	0.38431627
177	0x3bee01bb	0.00726339
178	0xbc8c7b46	-0.017148625
179	0xbddf168f	-0.108929746
180	0x3e5a33c9	0.21308817
181	0x3cf4d294	0.029885568
182	0x3c5eb868	0.013593771
183	0xbdc87a2a	-0.09788926
184	0xbcaf4678	-0.021395907
185	0xbc816dcd	-0.015799427
186	0xbce36b4c	-0.027761124
187	0x3d0821d8	0.0332354
188	0xbd55207c	-0.052032933
189	0xbce834bc	-0.028345458
190	0xbde2a4b8	-0.11066574
191	0x3c8c0440	0.01709187
192	0x3c8f593c	0.017498605
193	0xbd1c6dae	-0.038190536
194	0x3cddede8	0.027090982
195	0xbdf20f52	-0.11819328
196	0xbd31fe28	-0.043455273
197	0x3ead637f	0.33864972
198	0x3caf505a	0.02140062
199	0xbc3cb848	-0.011518545
200	0x3d30f47e	0.043201916
201	0xbd34af76	-0.044112645
202	0xbecdbc91	-0.40182927
203	0x3cf3e364	0.029771514
204	0xbdacbed7	-0.08434837
205	0xbc1b0840	-0.009462416
206	0x3c4d77ca	0.012540767
207	0xbd6370a8	-0.05552736
208	0x3d3706bc	0.044684157
209	0xbdd52d4c	-0.1040903
210	0xba101b00	-0.00054971874
211	0xbd055692	-0.032553263
212	0x3c0a53b3	0.008442807
213	0xbd8b2876	-0.06794827
214	0xbb82ac3c	-0.003987817
215	0xbed91f33	-0.42406616
216	0xbe143572	-0.14473513
217	0xbe076e18	-0.13225591
218	0xbf8539a7	-1.0408219
219	0xbd802f62	-0.062590376
220	0xbd603ad8	-0.054743618
221	0xbc7cf168	-0.015438415
222	0x3c2e6ae8	0.010645606
223	0x3c3d3228	0.011547603
224	0x3d4e6045	0.05038478
225	0xbe19f5ac	-0.15035123
226	0x3db3e6d7	0.087842636
227	0xbca7d4f3	-0.020487284
228	0xbe814ff4	-0.25256312
229	0xbdaa0218	-0.083011806
230	0xbdbd7e04	-0.09252551
231	0x3d4a3194	0.049363688
232	0xbd30e850	-0.0431903
233	0x3d778a0c	0.060434386
234	0xbcfdf33c	-0.030999772
235	0xbc7cd58d	-0.015431774
236	0x3d1dd746	0.03853538
237	0x3c6bb6d5	0.014386852
238	0x3c487582	0.012235047
239	0xbc8bf8c0	-0.017086387
240	0xbc93e1a4	-0.01805193
241	0x3cd76a3c	0.026295774
242	0x3d1344ca	0.035954274
243	0xbf476e75	-0.7790292
244	0x3c218e3d	0.009860572
245	0xbc8ef895	-0.017452518
246	0xbed283b4	-0.41116107
247	0xbc25e020	-0.010124236
248	0xbbea201e	-0.007144942
249	0xbf5b41bb	-0.8564717
250	0xbd297341	-0.04136968
251	0xbe432aa2	-0.19059232
252	0x3be0d6d4	0.006861547
253	0x3c7f6b40	0.015589535
254	0x3ebcfc34	0.36911166
255	0x3c4cff30	0.012512013

Linear2.bias f4 [3]
0	0x3df20305	0.11816982
1	0x3e300772	0.1719034
2	0x3e555553	0.2083333
