runs/run8/models/model1001.pth (torch, 10959 bytes, 4 tensors)

Linear1.weight f4 [256, 5]
1.299488 0.4647955 0.238922 0.0825094 0.40129718 -0.15585175 -0.525236 0.100879304
0.1355802 0.09662363 -0.89497274 0.6842831 -1.0295691 0.34905922 -0.06373751 0.14793643
-0.8789372 0.47790134 -0.2426281 -0.07402576 -0.27346686 0.35256732 -0.65291464 -0.32536373
-0.30899572 0.043675125 -0.06363835 -0.06261633 -0.61327046 -0.49676505 -0.14002433 0.07507992
0.046471775 0.24837172 -0.38446945 0.35044914 -0.090120405 0.24924797 0.3409593 -0.38289124
0.4425555 -0.40748054 -0.13391192 -0.40430447 0.012857195 -0.31558633 0.32055673 -0.014743185
0.11427054 -0.15015452 -1.1655331 -0.4546456 -0.19346705 0.68537354 0.17755288 -0.16112536
-1.2221036 0.60269254 0.2806759 -0.24273862 -0.35015497 0.18352562 0.11663753 -0.04224348
-0.22447893 -0.3054127 -0.41186586 -0.05055505 -0.4184418 0.15117812 0.053062588 -0.041784998
0.26150665 -0.3328184 -0.28808737 -0.72535217 0.20933025 0.03073265 -0.035464287 0.026243482
-0.1884006 -0.26109782 -0.2258799 0.038876913 0.1659924 0.2793663 0.049860068 -0.5428652
-0.28775665 0.07296555 0.019338459 -0.1458799 0.04828459 -0.43082777 0.034855068 0.03549561
-0.36064392 -0.0021131933 0.09539962 -0.11542359 -0.4833899 0.09452161 -0.73982024 0.23991646
0.21479167 0.04744877 -0.22076462 0.052136727 -0.03703021 -0.25515503 -0.18243374 -0.23111375
0.2307073 -0.23590365 0.061094843 0.2628624 -0.51226205 -0.16969457 -0.09826355 0.1084796
-0.13136265 0.18618383 -0.37190068 -0.13342552 -0.4408195 0.09971273 -0.4050956 -0.08809012
-0.29570854 -0.4175913 -0.21197228 -0.05687674 -0.44128388 -0.09859496 0.06119382 -0.20334762
0.026212001 -0.23820469 0.03601411 -0.118566185 -0.36495563 0.19050017 0.3900311 0.06403265
-0.27512223 -0.18380854 -0.28072232 -0.15119442 0.07319987 -0.15367168 -0.18975148 -0.41324994
-0.21247615 0.007894874 0.2584082 0.27366748 0.15158843 -0.43701565 -0.2909554 -0.3859891
0.09306839 -0.55665994 -0.37507045 -0.55588615 0.21239765 -0.044982553 -0.36644706 -0.09265018
-0.52807003 0.20062713 -0.102592826 -0.0192523 -0.36663175 -0.2404858 -0.15034872 -0.295918
0.1458072 -0.2054483 0.0011792481 -0.17481324 0.27894044 0.035525724 -0.3990227 -0.2898295
0.31406584 -0.4306956 0.37203413 -0.3766207 -0.058422238 0.14634264 -0.43111092 -0.32982987
0.14721864 0.18756187 -0.19324106 -0.759846 0.09641115 -0.35737294 0.48202664 -0.3953397
-0.7300425 -0.61608756 0.5451263 0.09849375 -0.46980035 -0.20445232 -0.17417267 0.2934327
0.052426353 -0.35981944 -0.09233299 0.018188953 -0.12454471 -0.29434478 0.19199556 0.15870792
0.13570648 0.10936548 0.26890367 -0.39299497 -0.54477364 0.19340852 -0.45722717 0.033822875
-0.30233163 0.2777099 0.23726456 0.2566774 -0.36236843 -0.2734606 -0.52207494 0.6378232
-0.7167385 -0.32659727 0.05496384 -0.10284721 0.10680076 -0.48633754 -0.07809189 0.044908643
-0.3270081 -0.48430142 0.12462217 0.3649718 0.14091925 -0.57934576 0.45135823 -0.69926274
-0.19532669 -0.44553322 0.20615877 -0.25604603 -0.43549195 -0.3055528 -0.22968154 0.1605046
00000000: 9f55 a63f adf9 ed3e f8a7 743e b0fa a83d
00000010: d376 cd3e 9a97 1fbe de75 06bf cf99 ce3d
00000020: 89d5 0a3e 9ce2 c53d ef1c 65bf 2d2d 2f3f
00000030: ecc8 83bf e4b7 b23e d088 82bd a67c 173e
00000040: 0702 61bf 7caf f43e 8073 78be d19a 97bd
00000050: d903 8cbe b483 b43e 6a25 27bf 1396 a6be
00000060: b034 9ebe b0e4 323d d354 82bd fe3c 80bd
00000070: 4bff 1cbf fd57 febe 8a62 0fbe 80c3 993d
00000080: 3059 3e3d 2855 7e3e 2ed9 c4be 126e b33e
00000090: 0c91 b8bd dc3a 7f3e 3892 ae3e 520a c4be
000000a0: a296 e23e 4aa1 d0be 3520 09be ff00 cfbe
000000b0: fca6 523c 8894 a1be 0320 a43e 668d 71bc
000000c0: ac06 ea3d 1bc2 19be 3030 95bf 4fc7 e8be
000000d0: 3a1c 46be a474 2f3f 6cd0 353e 0cfe 24be
000000e0: e46d 9cbf 0f4a 1a3f c0b4 8f3e 7990 78be
000000f0: 8347 b3be 24ee 3b3e a8df ee3d 8007 2dbd
00000100: cedd 65be 0e5f 9cbe 15e0 d2be d012 4fbd
00000110: 013e d6be 70ce 1a3e 2858 593d bf26 2bbd
00000120: 33e4 853e 2c67 aabe 3080 93be aeb0 39bf
00000130: ab5a 563e 0ac3 fb3c 0043 11bd 92fc d63c
00000140: 16ec 40be 9dae 85be 0f4d 67be 663d 1f3d
00000150: e9f9 293e 1a09 8f3e 123a 4c3d 37f9 0abf
00000160: d754 93be f66e 953d b06b 9e3c 8a61 15be
00000170: 10c6 453d 7595 dcbe 30c4 0e3d d863 113d
00000180: 52a6 b8be 807d 0abb e060 c33d 3463 ecbd
00000190: e27e f7be 8c94 c13d dc64 3dbf a9ac 753e
000001a0: 59f2 5b3e a459 423d 1f10 62be 528d 553d
000001b0: fdac 17bd aea3 82be e9cf 3abe 15a9 6cbe
000001c0: 893e 6c3e ba90 71be 963e 7a3d e795 863e
000001d0: 9b23 03bf 6ac4 2dbe 663e c9bd 8d2a de3d
000001e0: ee83 06be f9a6 3e3e c469 bebe b3a0 08be
000001f0: 18b3 e1be 3036 cc3d b168 cfbe 9868 b4bd
00000200: 1c67 97be 87ce d5be 430f 59be 96f7 68bd
00000210: f6ef e1be 28ec c9bd 5fa6 7a3d 5c3a 50be
00000220: 8dba d63c eeeb 73be 8883 133d d4d2 f2bd
00000230: 77db babe 7a12 433e 28b2 c73e 8d23 833d
00000240: d2dc 8cbe 4e38 3cbe d6ba 8fbe b6d2 1abe
00000250: d0e9 953d 1c5c 1dbe 364e 42be 7f95 d3be
00000260: 5993 59be 8059 013c 144e 843e 251e 8c3e
00000270: ff39 1b3e 84c0 dfbe 1bf8 94be 5da0 c5be
00000280: a49a be3d 4481 0ebf 3c09 c0be 8e4e 0ebf
00000290: c57e 593e a03f 38bd f39e bbbe 61bf bdbd
000002a0: 992f 07bf 3371 4d3e 301c d2bd 00b7 9dbc
000002b0: 28b7 bbbe e941 76be 04f5 19be 9082 97be
000002c0: 7c4e 153e 0a61 52be 0091 9a3a 3e02 33be
000002d0: 48d1 8e3e 6c83 113d b44c ccbe 8864 94be
000002e0: 3dcd a03e 2284 dcbe 427b be3e 6ed4 c0be
000002f0: 284c 6fbd d8da 153e 92ba dcbe 76df a8be
00000300: 7cc0 163e 3810 403e fce0 45be 4485 42bf
00000310: 3673 c53d 96f9 b6be 32cc f63e f769 cabe
00000320: 11e4 3abf eab7 1dbf 668d 0b3f 17b7 c93d
00000330: ac89 f0be f35b 51be 525a 32be d03c 963e
00000340: 04bd 563d 413a b8be 1419 bdbd 0001 953c
00000350: 4c11 ffbd 5cb4 96be 7c9a 443e 5484 223e
00000360: a4f6 0a3e 02fb df3d bead 893e a336 c9be
00000370: 4976 0bbf e20c 463e ae19 eabe db89 0a3d
00000380: 36cb 9abe fe2f 8e3e 7bf5 723e 386b 833e
00000390: 5b88 b9be 0703 8cbe b4a6 05bf 6248 233f
000003a0: 2d7c 37bf c237 a7be c321 613d 8fa1 d2bd
000003b0: 5bba da3d 3c01 f9be a4ee 9fbd 20f2 373d
000003c0: 9b6d a7be 5bf6 f7be e939 ff3d 95dd ba3e
000003d0: 234d 103e 0150 14bf 6d18 e73e e202 33bf
000003e0: b803 48be ee1c e4be 491b 533e 7718 83be
000003f0: cdf8 debe 6b71 9cbe a331 6bbe 515b 243e

Linear1.bias f4 [256]
0.8378635 -0.3117555 0.23595305 0.18651134 0.37158883 0.160933 -0.3930033 -0.18282984
-0.07520935 -0.41726878 0.12337936 0.17551245 -0.07481468 -0.40307978 -0.3859826 -0.16643381
-0.05829665 -0.2579666 -0.066280335 -0.33527312 0.052698232 0.025702834 -0.4072962 0.20331255
-0.07366841 0.1043157 0.0052376646 -0.034256753 0.37854433 -0.13974518 -0.39642367 -0.375011
-0.2782237 0.062182836 -0.14542851 -0.42380247 -0.35912037 -0.4149161 -0.4320363 0.25324878
0.2558685 -0.15548265 -0.11568606 -0.08927799 0.33006412 -0.54965985 0.18509874 -0.21422964
-0.43940565 0.3947643 0.15452006 -0.10766002 -0.356137 -0.22715601 -0.22654484 0.22747317
0.1489803 0.1246647 -0.13235906 0.13527367 -0.31761414 -0.071197644 -0.2881959 -0.25894526
-0.019023398 -0.20384462 0.11196764 -0.44225243 -0.098437876 -0.33494923 0.03376218 -0.3686521
-0.2827046 0.47498167 -0.43235174 -0.084460594 -0.38018525 -0.30388257 0.64060295 -0.057719637
-0.2539257 -0.29289082 -0.43868893 -0.11022588 -0.13447395 -0.2444623 0.02119997 -0.036142487
-0.25180277 0.14378838 -0.025536753 0.2819127 0.22428393 0.30870232 -0.27503273 -0.21302472
-0.21588604 -0.093309075 -0.07390078 -0.113230124 -0.38634935 -0.04354385 -0.011310769 0.32171053
-0.15989076 -0.0710321 0.00039377226 -0.517807 -0.37711588 -0.35219458 0.055370454 0.017035456
0.035190713 -0.47462735 0.1677722 -0.101344034 -0.2825924 0.29482308 -0.035341926 -0.20217304
0.020580294 -0.49803954 -0.2953461 -0.4452628 -0.07203547 0.25213107 -0.31759202 -0.4927234
0.5126361 0.23154357 0.0460614 0.16364525 0.8890377 -0.22656862 -0.2816728 0.1111419
-0.23081812 -0.059783988 -0.4346591 -0.09771861 -0.23805557 -0.16953944 0.01719109 0.04668409
0.07561222 0.1921323 0.18570405 -0.095385306 -0.0172785 0.67467785 0.15586564 -0.42624953
0.06755962 -0.13835767 0.37420028 -0.19357613 0.1924477 -0.36079162 -0.2804981 0.2601457
-0.17514384 0.06494626 0.30984026 -0.11508785 -0.2306299 -0.40435472 0.04402633 -0.0544419
-0.16287634 -0.1994034 -0.21654673 0.054608624 0.39226484 0.08008744 0.32252553 -0.15384057
0.2695354 -0.027787382 0.043276854 -0.26747295 0.2589494 -0.32872373 0.02845206 0.089463875
-0.4906428 -0.20997451 -0.22267644 -0.2838995 -0.24582718 0.2669461 -0.4167232 -0.38306186
-0.3368752 -0.33910787 -0.4391636 0.22412816 -0.20957449 0.8136179 -0.22293325 0.15896179
-0.3894586 -0.102967955 0.15075631 -0.0071555004 -0.18359034 -0.32359952 -0.26111898 -0.047867566
-0.12724315 0.0679022 -0.4151996 -0.37295863 0.013851138 0.2246375 0.1962974 0.011033192
0.18310995 0.22517194 0.09718834 0.21744408 -0.438232 -0.02035153 -0.401427 0.05364541
0.1095257 -0.24995744 -0.37528586 0.045635834 -0.059428502 0.25624907 -0.24439384 -0.05691791
-0.2386566 -0.066444695 -0.44689047 0.018987197 -0.07396554 -0.0009105292 0.15806168 -0.30842447
-0.2646409 0.23218712 -0.026261356 0.20545714 0.10103682 0.33271652 0.047208663 -0.06598166
-0.08375618 0.05626335 -0.14588103 -0.0820185 -0.11984769 -0.23404326 0.8532426 -0.36564508
00000000: 397e 563f 6b9e 9fbe ad9d 713e d4fc 3e3e
00000010: e440 be3e 9fcb 243e bb37 c9be bf37 3bbe
00000020: 5c07 9abd 41a4 d5be 51ae fc3d 89b9 333e
00000030: 7038 99bd 7960 cebe 839f c5be a06d 2abe
00000040: 78c8 6ebd 3314 84be fcbd 87bd eba8 abbe
00000050: 1ada 573d c08e d23c 2189 d0be 2a31 503e
00000060: 77df 96bd 78a3 d53d b7a0 ab3b cf50 0cbd
00000070: 90d0 c13e 5c19 0fbe 0bf8 cabe 7101 c0be
00000080: 5673 8ebe 6eb3 7e3d 36eb 14be a3fc d8be
00000090: a0de b7be e26f d4be dd33 ddbe d3a9 813e
000000a0: 3201 833e d836 1fbe d0ec ecbd 61d7 b6bd
000000b0: 2afe a83e 82b6 0cbf 868a 3d3e 045f 5bbe
000000c0: c7f9 e0be 8c1e ca3e 823a 1e3e db7c dcbd
000000d0: 9757 b6be 969b 68be 5ffb 67be baee 683e
000000e0: 4b8e 183e 3550 ff3d 2289 07be 2e85 0a3e
000000f0: 529e a2be 12d0 91bd 6a8e 93be 7994 84be
00000100: f5d6 9bbc a5bc 50be 4a4f e53d e96e e2be
00000110: cc99 c9bd 777e abbe 364a 0a3d f8bf bcbe
00000120: a8be 90be cc30 f33e 355d ddbe adf9 acbd
00000130: a4a7 c2be 7f96 9bbe 8efe 233f 6d6b 6cbd
00000140: 8d02 82be c9f5 95be d69b e0be 1bbe e1bd
00000150: 8ab3 09be 5354 7abe 8fab ad3c 250a 14bd
00000160: 4bec 80be 433d 133e 7432 d1bc dd56 903e
00000170: b0aa 653e 3b0e 9e3e 17d1 8cbe 2723 5abe
00000180: 3b11 5dbe d418 bfbd 4b59 97bd 32e5 e7bd
00000190: 95cf c5be 095b 32bd ce50 39bc 3eb7 a43e
000001a0: 67ba 23be 4779 91bd 3873 ce39 008f 04bf
000001b0: 5515 c1be d952 b4be 21cc 623d f18d 8b3c
000001c0: 2324 103d 5b02 f3be 7acc 2b3e 768d cfbd
000001d0: f3af 90be 0df3 963e b2c2 10bd 7306 4fbe
000001e0: 0198 a83c 0aff febe 9b37 97be 7cf9 e3be
000001f0: 5587 93bd 5317 813e 6c9b a2be 3e46 fcbe
00000200: 1f3c 033f c219 6d3e e1aa 3c3d 9f92 273e
00000210: fa97 633f 9b01 68be 6b37 90be 5d9e e33d
00000220: 965b 6cbe 0ee0 74bd a38b debe b220 c8bd
00000230: d7c4 73be bf9b 2dbe 54d4 8c3c d137 3f3d
00000240: 94da 9a3d 54be 443e 3429 3e3e 5f59 c3bd
00000250: a48b 8dbc b0b7 2c3f 3e9b 1f3e 613d dabe
00000260: b35c 8a3d a2ad 0dbe 2e97 bf3e d238 46be
00000270: 0311 453e aeb9 b8be 729d 8fbe d131 853e
00000280: e858 33be 8b02 853d 62a3 9e3e 2eb3 ebbd
00000290: 3f2a 6cbe 9507 cfbe f454 343d 78fe 5ebd
000002a0: 0ec9 26be 6830 4cbe 6dbe 5dbe 4bad 5f3d
000002b0: f0d6 c83e e204 a43d 1122 a53e 6288 1dbe
000002c0: 8b00 8a3e 5da2 e3bc 1243 313d 37f2 88be
000002d0: 0495 843e 7a4e a8be 4b14 e93c d638 b73d
000002e0: 8835 fbbe 8f03 57be 4b05 64be 465b 91be
000002f0: 1fba 7bbe 29ad 883e be5c d5be af20 c4be
00000300: e87a acbe 8c9f adbe 0dda e0be da81 653e
00000310: b29a 56be 4349 503f 9d48 64be e1c6 223e
00000320: 1e67 c7be dde0 d2bd dd5f 1a3e b078 eabb
00000330: 1bff 3bbe d6ae a5be 63b1 85be c810 44bd
00000340: 074c 02be 4f10 8b3d 0b95 d4be 6ff4 bebe
00000350: e2ef 623c 5f07 663e 3002 493e 90c4 343c
00000360: 2d81 3b3e 7993 663e ae0a c73d a9a9 5e3e
00000370: f25f e0be 40b8 a6bc d787 cdbe 4abb 5b3d
00000380: 034f e03d d8f4 7fbe 7825 c0be a4ec 3a3d
00000390: 4d6b 73bd 1433 833e 6142 7abe c122 69bd
000003a0: 6562 74be 2814 88bd d4ce e4be 0a8b 9b3c
000003b0: 3f7b 97bd 95b0 6eba ecda 213e d0e9 9dbe
000003c0: 037f 87be 76c2 6d3e 0e22 d7bc 5b63 523e
000003d0: 64ec ce3d d259 aa3e df5d 413d 6421 87bd
000003e0: 5c88 abbd 6674 663d d661 15be 51f9 a7bd
000003f0: b572 f5bd 09a9 6fbe 1b6e 5a3f d535 bbbe

Linear2.weight f4 [3, 256]
0.5154131 0.01032699 -0.45403677 -0.22059265 -0.0864526 0.01467413 0.0362083 -0.2672844
0.21536325 -0.15221336 -0.82405496 -0.32060453 0.033365212 -0.023739688 -0.046540074 -0.025805324
-0.041045234 -0.003373865 -0.051888645 -0.008319259 -0.24991821 -0.017881222 -0.11974582 -0.031228451
-0.12229192 -0.029948242 0.024350315 -0.065574355 0.069693945 -0.02054257 0.060299918 -0.0613795
0.029270187 0.079620175 0.062429294 -0.017481714 -0.018015845 0.034291163 0.033460915 -0.4330233
-0.4756434 -0.07254585 0.050767414 0.011270656 -0.28966483 -0.112216294 -0.26336902 -0.008082489
-0.16242409 -0.16263981 0.016263321 -0.114554256 0.06048584 0.18581037 -0.09478174 0.049630277
0.109188706 -0.023790326 -0.05384066 -0.026185691 0.27321747 -0.0031162756 -0.004154615 0.082267895
-0.30398533 -0.042931676 -0.025215164 -0.03664428 0.025212876 -0.07135216 0.0091116335 -0.05547659
-0.33987877 0.19831173 -0.07832742 -0.059002534 0.05570882 0.015677704 0.34729177 -0.06430559
0.032928392 -0.057279576 -0.013883479 -0.03495928 0.057513922 -0.02488646 -0.44787183 0.010667555
-0.0136337355 0.011930292 0.0336534 -0.45915803 -0.052138284 0.48949417 0.052875556 -0.55074257
0.020372301 0.04175003 -0.52592695 -0.083316736 0.012739927 -0.00018226147 -0.15425874 -0.4160067
0.028724229 0.026076226 0.07835233 -0.035550278 0.0055679455 0.0341345 0.061978117 -0.0036323601
-0.6377367 -0.039489005 0.010064216 0.011088189 -0.04804754 -0.32912543 -0.03136221 -0.16672404
0.007930451 -0.10351932 0.013196393 -0.071879916 -0.5411611 -0.312804 -0.058827054 0.007933229
0.0014171218 0.02382069 0.080577925 0.068578474 0.61604965 -0.0072758514 -0.027379282 0.15559575
0.18195333 -0.036580663 -0.058438808 -0.22561397 0.0037537888 0.005684608 -0.8491178 0.15587994
-0.0865917 -0.10145811 0.15034889 -0.030010482 -0.18427217 0.25548258 0.04401334 0.016074479
-0.3036334 0.0057055335 -0.09479266 -0.05520185 -0.020881576 -0.12725309 -0.0012917519 -0.12609743
0.044596642 -0.02957091 -0.08825564 -0.037554685 -0.02836026 -0.022166712 -0.34166974 0.06166482
-0.100944474 0.029400527 -0.10023443 -0.19384947 -0.2007512 0.34583795 0.06051605 0.045605645
0.38279542 0.00726339 -0.017148625 -0.108929746 0.21159373 0.029885568 0.013593771 -0.098034464
-0.021395907 -0.015799427 -0.027761124 0.0332354 -0.052032933 -0.024407277 -0.11066574 0.01709187
0.017498605 -0.038190536 0.027090982 -0.11682865 -0.043455273 0.3367808 0.02140062 -0.013562103
0.043201916 -0.044112645 -0.3995395 0.029771514 -0.08434837 -0.009462416 0.012540767 -0.05552736
0.04346432 -0.1040903 -0.00054971874 -0.032553263 0.008442807 -0.06680486 -0.0028714538 -0.42542908
-0.14368783 -0.13225591 -1.0315967 -0.06443598 -0.054743618 -0.015438415 0.010645606 0.011547603
0.05038478 -0.14340879 0.087842636 -0.020526731 -0.25078404 -0.084622204 -0.09252551 0.049363688
-0.0431903 0.060434386 -0.030999772 -0.017424943 0.03853538 0.014386852 0.0123094125 -0.017086387
-0.01805193 0.026295774 0.035954274 -0.76593906 0.011611337 -0.015284957 -0.41295812 -0.010124236
-0.0047447677 -0.84343386 -0.04136968 -0.19059232 0.006861547 0.015589535 0.36712483 0.012512013
00000000: 1df2 033f 8932 293c 8277 e8be 0ae3 61be
00000010: 100e b1bd c36b 703c 284f 143d 80d9 88be
00000020: 2f88 5c3e d2dd 1bbe 44f5 52bf 4726 a4be
00000030: f6a9 083d bc79 c2bc cea0 3ebd b065 d3bc
00000040: 0c1f 28bd 101c 5dbb 3089 54bd 804d 08bc
00000050: 8fea 7fbe a47b 92bc 4c3d f5bd cfd2 ffbc
00000060: 3074 fabd 0456 f5bc 507a c73c d94b 86bd
00000070: b3bb 8e3d e448 a8bc 0cfd 763d 1269 7bbd
00000080: 08c8 ef3c e70f a33d dcb5 7f3d d035 8fbc
00000090: f795 93bc e474 0c3d 500e 093d 3bb5 ddbe
000000a0: 8887 f3be eb92 94bd 7ef1 4f3d 8fa8 383c
000000b0: f34e 94be a8d1 e5bd 4ed8 86be 6a6c 04bc
000000c0: 8052 26be 0d8b 26be a83a 853c 6c9b eabd
000000d0: 00c0 773d 1345 3e3e ee1c c2bd 1e49 4b3d
000000e0: 549e df3d eee3 c2bc 0688 5cbd 6083 d6bc
000000f0: 29e3 8b3e 6e3a 4cbb 7023 88bb 127c a83d
00000100: f7a3 9bbe 20d9 2fbd 0890 cebc 5018 16bd
00000110: 3c8b ce3c 1521 92bd f648 153c 6c3b 63bd
00000120: 9704 aebe 3b12 4b3e 206a a0bd a4ac 71bd
00000130: ee2e 643d 876e 803c 3ad0 b13e a6b2 83bd
00000140: ecdf 063d fd9d 6abd 8877 63bc 7631 0fbd
00000150: b893 6b3d b0de cbbc 754f e5be f8c6 2e3c
00000160: 0860 5fbc 4577 433c 26d8 093d c316 ebbe
00000170: f48e 55bd fb9e fa3e 0a94 583d 77fd 0cbf
00000180: d0e3 a63c 1402 2b3d 26a3 06bf f7a1 aabd
00000190: 20bb 503c 711d 3fb9 01f6 1dbe d5fe d4be
000001a0: 134f eb3c cf9d d53c 3077 a03d 2b9d 11bd
000001b0: 5073 b63b 9ed0 0b3d c4dc 7d3d e40c 6ebb
000001c0: b642 23bf 39bf 21bd 62e4 243c 3cab 353c
000001d0: 7fcd 44bd 2183 a8be a975 00bd b5b9 2abe
000001e0: b9ee 013c f001 d4bd af35 583c c735 93bd
000001f0: 8989 0abf d927 a0be a3f4 70bd 60fa 013c
00000200: b8be b93a 9c23 c33c 0a06 a53d df72 8c3d
00000210: 6eb5 1d3f 446a eebb 844a e0bc 7e54 1f3e
00000220: f951 3a3e 9bd5 15bd 885d 6fbd 5907 67be
00000230: 2002 763b f345 ba3b c95f 59bf fe9e 1f3e
00000240: fd56 b1bd 45c9 cfbd 0ff5 193e 8bd8 f5bc
00000250: d8b1 3cbe 9dce 823e 5547 343d a0ae 833c
00000260: d675 9bbe 7cf5 ba3b a722 c2bd 561b 62bd
00000270: d70f abbc a24e 02be 0050 a9ba af1f 01be
00000280: f8aa 363d b13e f2bc 5fbf b4bd f1d2 19bd
00000290: c753 e8bc f796 b5bc 56ef aebe 4094 7c3d
000002a0: fabb cebd 60d9 f03c b547 cdbd 7a80 46be
000002b0: b991 4dbe ac11 b13e addf 773d fccc 3a3d
000002c0: c3fd c33e bb01 ee3b 467b 8cbc 8f16 dfbd
000002d0: 07ac 583e 94d2 f43c 68b8 5e3c 4bc6 c8bd
000002e0: 7846 afbc cd6d 81bc 4c6b e3bc d821 083d
000002f0: 7c20 55bd c5f1 c7bc b8a4 e2bd 4004 8c3c
00000300: 3c59 8f3c ae6d 1cbd e8ed dd3c dc43 efbd
00000310: 28fe 31bd 886e ac3e 5a50 af3c 9533 5ebc
00000320: 7ef4 303d 76af 34bd 7190 ccbe 64e3 f33c
00000330: d7be acbd 4008 1bbc ca77 4d3c a870 63bd
00000340: a507 323d 4c2d d5bd 001b 10ba 9256 05bd
00000350: b353 0a3c fdd0 88bd 002f 3cbb d7d1 d9be
00000360: e722 13be 186e 07be 5c0b 84bf 03f7 83bd
00000370: d83a 60bd 68f1 7cbc e86a 2e3c 2832 3d3c
00000380: 4560 4e3d c1d9 12be d7e6 b33d ad27 a8bc
00000390: c466 80be 684e adbd 047e bdbd 9431 4a3d
000003a0: 50e8 30bd 0c8a 773d 3cf3 fdbc c1be 8ebc
000003b0: 46d7 1d3d d5b6 6b3c 6bad 493c c0f8 8bbc
000003c0: a4e1 93bc 3c6a d73c ca44 133d 9514 44bf
000003d0: 7a3d 3e3c c26d 7abc 3f6f d3be 20e0 25bc
000003e0: ff79 9bbb 48eb 57bf 4173 29bd a22a 43be
000003f0: d4d6 e03b 406b 7f3c c9f7 bb3e 30ff 4c3c

Linear2.bias f4 [3]
0.11574568 0.16873087 0.2034217
00000000: 120c ed3d c9c7 2c3e c74d 503e
