runs/run6/models/model1.pth (torch, 10959 bytes, 4 tensors)

Linear1.weight f4 [256, 5]
000000 78 0f e1 3d 0c f9 94 3e 68 2e 40 bd 84 eb a0 be
       0.109892786 0.29096258 -0.046919256 -0.31429684
000010 a4 33 8e 3e 0d e7 4b be 40 63 8b bd 30 1b 0c be
       0.27773774 -0.19912358 -0.0680604 -0.13682246
000020 ae c5 8a 3e 38 64 b1 be 4f 5c e7 bb d1 4b c6 bc
       0.27103943 -0.34646773 -0.0070605646 -0.024206074
000030 9c d8 89 be 9e 10 6f be ec d8 1d 3e a4 04 52 3e
       -0.26923072 -0.23346183 0.1541478 0.20509583
000040 80 6c ff 3d b0 2f 94 3e 7c 0b 53 be 00 eb 49 be
       0.124718666 0.28942633 -0.2060985 -0.19718552
000050 bc 93 bb be e8 cb 39 3e 04 54 83 be 50 19 b1 bc
       -0.3663615 0.1814419 -0.25650036 -0.021618515
000060 7c 89 24 be 50 7a 4c be 3d 3a 95 be 72 b0 db 3d
       -0.16068071 -0.19968534 -0.29145995 0.10727014
000070 a6 4f 5e be 6e 61 b9 3e bd 8f bf be 40 25 61 be
       -0.21710071 0.36207145 -0.3741435 -0.21986866
000080 10 76 aa be 68 81 01 bd 4c 9a 10 3e 40 84 49 be
       -0.332932 -0.031617552 0.1412136 -0.19679356
000090 30 22 5f 3e 9e fd e2 3e ee 3a 4b be b6 c3 1e be
       0.21790385 0.4433412 -0.19846699 -0.15504345
0000a0 80 84 31 bd 98 5d 60 bd 90 ff 46 3d 75 a7 cc be
       -0.043339252 -0.054776758 0.048583567 -0.3997151
0000b0 c6 f0 b1 be 5e cb 0c 3e 9c 02 4d 3c 4a ed 99 3e
       -0.34754008 0.13749453 0.012512829 0.3006385
0000c0 22 26 f6 bb 42 22 a0 3e 98 55 81 be 49 4b 4d be
       -0.00751187 0.31276137 -0.25260615 -0.2004825
0000d0 93 7b e4 be 80 fe 7a bc 78 86 f6 bd 90 ba 4b bd
       -0.4462553 -0.015319467 -0.12037367 -0.049738467
0000e0 80 cf 99 be b0 94 e6 3d a2 f2 25 be 3d 09 99 be
       -0.30041122 0.11258829 -0.16205838 -0.2988986
0000f0 9a 97 b9 bd 7d b5 a2 3e e8 f0 3c be c0 0e 96 3e
       -0.09062119 0.3177909 -0.18451273 0.29308128
000100 38 4a b3 be b7 3d 76 be 2e a9 e2 3c 0e cb dd 3e
       -0.35017562 -0.2404698 0.027668562 0.4331898
000110 00 d9 8b 3e 17 8d c6 3d 7c 5f 24 be 72 6b 17 bd
       0.27313995 0.096948795 -0.1605205 -0.036967702
000120 03 67 40 be a3 54 19 3c b5 cf 03 bd 56 ea 87 3e
       -0.18789296 0.009358558 -0.032180507 0.26545972
000130 1c 81 0f 3e dd d0 ca be 40 dd d9 3c 66 dd e2 be
       0.14014095 -0.39612475 0.026594758 -0.4430954
000140 37 ba 1d 3e a4 25 44 be d2 ba 93 3d 3d ac a4 bd
       0.15403067 -0.19154984 0.072133675 -0.08040664
000150 86 bf 9f 3e 17 6d f0 bd d9 84 c9 3e fb a5 e3 3e
       0.31200808 -0.11739557 0.39359167 0.4446257
000160 0c f9 3d 3d 3d 5e db 3d fa 5b 05 be 54 29 84 3e
       0.046380088 0.10711334 -0.13023368 0.2581278
000170 52 14 48 be 5a 57 0c be bc f2 b5 be 02 e6 82 be
       -0.19539002 -0.13705197 -0.35536754 -0.25566107
000180 9a c5 2b 3d 63 00 3e be e5 e5 e9 bc 3e 33 a3 3e
       0.041936494 -0.18554835 -0.028552005 0.31875032
000190 e9 71 9a 3e 8e 43 34 3e 11 fe 84 3e 65 f7 ae 3e
       0.30165032 0.17603895 0.25975087 0.34173122
0001a0 02 0e 21 be 6c 8a 83 be 54 a6 c1 bd 40 87 83 3b
       -0.15728 -0.25691545 -0.09455553 0.004013926
0001b0 40 78 be bc b2 c2 14 be af fa c0 3d 3e 3a 01 3e
       -0.023250699 -0.14527395 0.09422814 0.12619874
0001c0 fd 2a 1a bd 0d 3e 9c 3e 45 d5 98 3e 0c 17 df bd
       -0.037638653 0.3051609 0.29850212 -0.10893068
0001d0 40 b2 0d be 68 48 7c be ce f3 8e be 00 00 84 3c
       -0.13837528 -0.24636996 -0.27920383 0.016113281
0001e0 fe 68 b8 3e ae 8c 06 3e c8 67 16 be d7 5b 8a be
       0.36017603 0.13139603 -0.14688027 -0.27023193
0001f0 c1 3d d7 3e e8 41 30 3d e8 a8 9b 3d d8 68 02 3e
       0.42039302 0.043031603 0.07600576 0.12735307
000200 b4 4c ad bd 25 d4 c2 be 48 91 34 3e 48 e6 06 be
       -0.084618956 -0.38052478 0.17633545 -0.13173783
000210 a8 17 08 3e a0 5b 7e be 94 b9 bc 3e 74 70 b8 be
       0.13290274 -0.2483964 0.36860335 -0.36023295
000220 d9 dc 1b be d4 f9 35 3e ec c2 74 3d 33 7a 98 be
       -0.15220965 0.17771083 0.059756204 -0.2978073
000230 0e ef 86 3d 5e 6c 88 bd 30 7c be 3e e2 cd c5 3e
       0.06588565 -0.066612944 0.37204123 0.3863364
000240 e6 79 4a 3e 71 a0 c6 3d 7a 6b 12 be b4 0d c1 be
       0.19773063 0.096985705 -0.14298812 -0.37705767
000250 cb 03 99 3e 49 5b 5c 3e 48 64 2f 3e 04 fc a1 bd
       0.29885706 0.21519198 0.17128098 -0.07909396
000260 da 1c d5 be 00 ee 1f be dc ad fa bd c1 a2 b5 be
       -0.41623574 -0.15618134 -0.12240192 -0.35475734
000270 37 29 7d be 5e fe 8c 3e 08 43 05 3d 29 4d 56 be
       -0.24722753 0.27537817 0.03253463 -0.20927872
000280 79 ff c7 be 9b c6 86 be 74 57 68 3e 54 59 15 3e
       -0.39062098 -0.263234 0.2268961 0.14584857
000290 c8 1b a5 3e 9d a3 81 3e 5c af 0e be 8a 37 42 3d
       0.32247758 0.2532014 -0.13934082 0.047416247
0002a0 b4 18 c5 3d 7a f5 d5 3e 7a c3 98 3e 96 96 d7 3e
       0.09623852 0.41788846 0.29836637 0.42107075
0002b0 68 d5 c0 3d 70 22 c7 be fc 3f 11 3e 9f 3d 80 3e
       0.09415704 -0.3889346 0.14184564 0.25047013
0002c0 d5 a9 6b 3d 70 27 85 3e 0c 21 24 3d 8c 7b a3 be
       0.05753501 0.2600665 0.04007058 -0.31930196
0002d0 68 69 15 be 90 48 79 3e ae d3 da be 48 7b 2f 3d
       -0.1459099 0.24344087 -0.42739624 0.04284218
0002e0 80 9d d8 3c ce 95 ba 3e e7 1c b2 3e ee 08 2e be
       0.02644229 0.36442417 0.34787676 -0.16995594
0002f0 74 15 bd 3e a3 d1 c0 3e 06 aa f6 3c 16 b6 d9 3e
       0.3693043 0.3765994 0.03011037 0.42521733
000300 e5 c4 8b bd e5 af eb 3d 10 28 c1 3e 7d 6a a9 be
       -0.06824664 0.115081586 0.37725878 -0.33089057
000310 40 67 1a be dc f6 c9 bd 14 9f 0b 3e 65 c3 d1 be
       -0.15078449 -0.09861538 0.13634902 -0.40969387
000320 0c f6 8e be 5b 61 51 be 56 5a d7 3e 7c ec 74 3e
       -0.27922094 -0.20447294 0.42061108 0.23918337
000330 0a 3f dd 3e d0 c6 84 bc d0 73 99 3d a0 14 c4 3d
       0.43212157 -0.016208082 0.074927926 0.095742464
000340 ca 08 b6 be b4 c5 b8 bd 58 29 8e bd 40 03 78 3d
       -0.3555358 -0.09022084 -0.069414794 0.060549974
000350 48 fd d7 3e c0 6a ac 3d 50 2f 96 bd ef 11 5d 3e
       0.42185426 0.084187984 -0.07333243 0.21588872
000360 07 a8 6e be 7c a1 5f 3e 38 da c3 bd 28 c7 90 3e
       -0.23306285 0.21838945 -0.09563106 0.28276944
000370 06 e4 93 3e 0b ea 9e 3e f1 cd 1e 3d 0a 4e c0 3e
       0.28884906 0.31037936 0.03877062 0.3755954
000380 58 6d 33 3e 18 b5 87 be 5a 8d db 3d 5a 01 ea 3e
       0.1752218 -0.2650535 0.1072032 0.45704156
000390 32 c0 db 3e 35 fd 26 3e 75 24 0b be a8 44 77 3e
       0.4292007 0.16307528 -0.13588126 0.24147284
0003a0 89 50 a2 3d 0d c0 1f 3d 3f dc e2 3e 78 07 11 3e
       0.07925517 0.039001513 0.4430866 0.14163005
0003b0 e0 be d6 3d 58 dd 52 3e 70 d2 64 bd 40 72 54 3d
       0.10485625 0.20592248 -0.05586475 0.05186677
0003c0 91 fb 80 be 7d 4f f8 bd fa 7f cf 3e 92 46 f3 3d
       -0.2519193 -0.12124536 0.40527326 0.118786946
0003d0 da 20 67 3e 90 c6 0a bc 7b c7 52 3e e9 88 22 be
       0.22571126 -0.008470193 0.20583908 -0.1587254
0003e0 79 e6 a1 3d bb a2 ad 3e 5a 52 3f bd 40 6c 6f be
       0.07905287 0.33913216 -0.046709396 -0.23381138
0003f0 ee 06 49 3e 50 81 d8 be 66 ae de 3e c6 75 71 3d
       0.1963155 -0.42286158 0.4349243 0.058950208

Linear1.bias f4 [256]
000000 1a 08 43 be 34 4c 12 3e 24 6a 84 3e a3 88 d1 be
       -0.19046059 0.14286882 0.2586223 -0.40924558
000010 30 ef d8 3c 0e e6 b6 bd b4 55 1b 3e 78 7e a2 bd
       0.026481241 -0.08930598 0.15169412 -0.07934278
000020 72 db 14 be 84 9e a5 bc d6 65 b5 3e 3c bc 86 be
       -0.14536837 -0.020217188 0.35429257 -0.26315486
000030 e1 a2 a9 3e 58 12 85 3e 48 5f d1 3e b6 10 b5 be
       0.3313208 0.25990558 0.40893006 -0.35364312
000040 0c e5 1d 3a 23 9f b9 3e a0 9a 31 be 5e 18 0d 3d
       0.00060232054 0.36254224 -0.17344141 0.034447066
000050 45 ea 87 be 00 c3 33 bb 64 80 d3 3d b4 9b af bd
       -0.2654592 -0.0027429461 0.10327223 -0.0857462
000060 e2 e9 47 be ac 47 6f be c6 45 ce be 7f 5f 78 3e
       -0.19522813 -0.23367184 -0.40287608 0.24255179
000070 cc 57 97 bc be e6 91 3e 44 c0 32 3e f0 fe de bc
       -0.018474482 0.28496355 0.17456156 -0.027221173
000080 46 c4 e0 be fb 50 e7 3b 32 b3 b5 be 8a 39 93 3e
       -0.43899745 0.007059214 -0.35488278 0.28754836
000090 84 a6 84 be 3e b2 5e be b2 65 3f 3e 4a dc 8f be
       -0.2590829 -0.21747681 0.18691137 -0.28097755
0000a0 c3 7a 40 3e 4f 30 e2 be 70 24 7d be 9c 70 d3 3e
       0.1879683 -0.44177482 -0.24720931 0.41296852
0000b0 b6 18 a5 3e 80 e7 e2 3e 04 b9 13 3e 97 22 8a be
       0.32245415 0.44317245 0.14426047 -0.26979515
0000c0 9a 09 8a 3e ab 6e 95 3e fa 74 26 3e 3f 9f 84 3e
       0.2696045 0.29185995 0.1625556 0.25902745
0000d0 49 2e 7c be 1a 2f 85 3e aa 7d 50 3d f0 a3 4b be
       -0.24627031 0.26012498 0.050901093 -0.19886756
0000e0 e8 d1 05 3d 93 f8 53 3e 40 1a b7 3b 9c d8 b3 be
       0.032670885 0.20700292 0.005587846 -0.35126197
0000f0 c4 85 e1 bd e1 5f ac be 6e 14 e0 be 7a 46 e2 3e
       -0.11011842 -0.336669 -0.43765587 0.44194394
000100 60 07 d3 3e d1 4b 21 3d c0 b9 d4 3e 14 c0 94 be
       0.41216564 0.039378945 0.41547966 -0.29052794
000110 95 c4 b9 be 40 8f 12 3e 77 28 bb be f7 69 cf 3e
       -0.36282793 0.14312458 -0.3655431 0.40510532
000120 65 b5 09 3e d0 1e 78 3e 26 68 d3 3e f8 00 e1 bd
       0.13448103 0.24230504 0.41290396 -0.10986513
000130 b2 22 09 3e d6 3a ae be 0e 75 98 be f1 c6 9f be
       0.13392141 -0.34029263 -0.29776806 -0.31206468
000140 ad a9 a3 3e 4e 31 2f be 4e 29 7b 3e 81 5c bc bd
       0.3196539 -0.17108652 0.24527475 -0.09197331
000150 71 b2 d1 3e 7f 98 7b be a8 ea 6a be 6b bc cc 3e
       0.40956452 -0.24569891 -0.22941077 0.39987502
000160 4b af c8 3e b3 63 e7 3e b7 26 f2 3d 5a ef 25 be
       0.39196238 0.45193252 0.118237905 -0.16204587
000170 f2 d9 d2 3e 37 22 af bc 18 f0 5b be d0 15 57 be
       0.41181904 -0.02137862 -0.21478307 -0.21004415
000180 2c d3 ac 3e 2f a5 a4 3e 22 13 9d be 21 92 54 3c
       0.3375486 0.32157275 -0.3067866 0.012974293
000190 1b 26 b8 be cc 19 d7 3e 54 db 18 be a4 cd 13 3e
       -0.35966572 0.4201187 -0.14927417 0.14433914
0001a0 16 03 e3 3e 23 f2 3a be 88 6b af 3e 64 8d ab 3e
       0.44338292 -0.1825643 0.34261727 0.3350631
0001b0 24 66 03 be 70 59 fc 3d 5c 92 83 3e 3c 57 09 be
       -0.12831932 0.12321746 0.256976 -0.13412184
0001c0 38 3f 25 3e 71 de cd 3e 13 fe 24 3e 80 d0 f7 bc
       0.16137397 0.40208772 0.16112547 -0.030250788
0001d0 6d 63 a8 3e 2e 28 0b be 5e e8 12 be f3 8a dd be
       0.32888356 -0.13589546 -0.14346454 -0.43270072
0001e0 1b 33 2f 3d 63 89 97 3e 32 6f ce be 60 ca 9b 3c
       0.042773347 0.29597005 -0.4031921 0.019017398
0001f0 84 25 bd 3e 31 f8 95 be 15 93 ed 3d 6c 02 ca be
       0.36942685 -0.29290918 0.11600319 -0.39454973
000200 2b 0e b8 3e fe da b2 3e b5 8f 89 3e 19 10 b2 be
       0.3594831 0.34932703 0.26867452 -0.34777907
000210 b4 e8 eb bd 78 07 cd 3e 63 e6 a9 3e 03 59 76 be
       -0.11518994 0.4004476 0.33183584 -0.24057393
000220 a8 60 b1 3e ef 38 98 be 38 3d d5 3e 4c 11 ab bd
       0.34644055 -0.29730937 0.4164827 -0.083529085
000230 19 d8 6d 3e 28 7d 18 bd e6 60 dd be 8b dc 40 bb
       0.23226966 -0.037228733 -0.4323799 -0.002942833
000240 9e 71 15 3e 5d d4 f1 3d 1f 75 dd be 66 e9 de be
       0.14594123 0.11808083 -0.4325342 -0.43537444
000250 c9 e4 b4 be cd 74 78 be a2 cd be be fe 99 8e be
       -0.353308 -0.24263306 -0.3726626 -0.27851862
000260 d4 39 36 3e 80 c6 1a bd d1 f9 c6 be 63 5e eb bd
       0.17795497 -0.03778696 -0.3886247 -0.11492612
000270 4b cc 83 3e f0 66 97 bd 90 46 0a be 92 4a bf 3e
       0.257418 -0.07392681 -0.1350348 0.3736158
000280 6a 95 be 3e 75 77 cb be 5c 68 6c 3b 04 6f 2d be
       0.3722337 -0.39739576 0.0036072945 -0.1693688
000290 73 00 ba bd 2f de 22 bd 16 92 9f 3d bd af c5 be
       -0.09082117 -0.039762672 0.077915356 -0.3861064
0002a0 a2 39 a8 be b5 19 d7 3e fa 07 9b be da 64 31 be
       -0.3285647 0.420118 -0.30279523 -0.17323628
0002b0 44 02 6c 3e b2 5a a6 3d 26 28 bc 3e ea eb d8 be
       0.2304774 0.081227675 0.3674938 -0.42367488
0002c0 30 04 c3 3d ef 79 6d 3c 7a e6 ec 3d d4 17 a3 3c
       0.09522283 0.014494403 0.115673974 0.019908823
0002d0 09 7e 3f be df 05 43 be 7c f5 b5 3b 46 68 3d 3e
       -0.18700422 -0.19045208 0.0055529457 0.18496808
0002e0 6a 21 aa 3e ae c6 28 bd 48 4a ec bd 15 6a c7 be
       0.33228618 -0.0412051 -0.115376055 -0.38948122
0002f0 8e 5b 59 be e2 43 ce 3e 35 77 84 3e e0 5b d7 bd
       -0.21226332 0.40286165 0.25872198 -0.10515571
000300 68 8f 28 bd a4 ab d6 bc 6a 86 7c bc 2b 95 c4 3e
       -0.041152388 -0.026204892 -0.015412906 0.38395056
000310 2a 9b 0c be 58 e6 20 be d0 98 a4 3d 02 ec 34 be
       -0.13731065 -0.15712869 0.08036959 -0.17668155
000320 54 1f d7 be 01 90 da 3e 33 1d ac bd 11 6e 68 3e
       -0.4201609 0.4268799 -0.08404007 0.22698237
000330 50 c7 b5 3d 99 d0 95 3d 94 e0 d7 bd 4c 58 6d be
       0.088759065 0.073151775 -0.10540882 -0.23178214
000340 67 78 a5 3e 07 46 6f 3d d1 06 ee 3d fc cf 01 3e
       0.32318422 0.058416393 0.11622394 0.12676996
000350 48 54 a5 bd 6d c4 30 3e 08 5b 8a 3e bc 65 c6 be
       -0.08072716 0.1726243 0.27022576 -0.38749492
000360 06 32 fe 3d 58 a0 fb bd 24 65 ea 3e b0 eb bb bd
       0.12411885 -0.122864425 0.4578029 -0.09175813
000370 5b 45 5b be ae b2 7f 3e 48 81 bb 3e 69 b8 36 3e
       -0.21413176 0.24970505 0.3662207 0.17843784
000380 9b 90 c2 3e 80 21 dd be 20 d8 2c be 65 03 90 3e
       0.3800095 -0.4318962 -0.1687932 0.2812759
000390 a0 fb 6c be 40 fa a0 3d 5c 18 35 3e 7d 6d ae 3d
       -0.23142862 0.078602314 0.17685074 0.08516977
0003a0 ae 7e e1 3d 40 e2 5d 3e 92 52 b3 3e dc 2e fd bd
       0.1101049 0.21668339 0.35023934 -0.12362453
0003b0 39 69 e0 3e 55 9a fb bd c6 44 77 3e 00 7c bd 3a
       0.4383028 -0.12285296 0.24147329 0.001445651
0003c0 7e f3 b6 be f0 27 c4 be 4c 82 85 be d3 d6 d6 3d
       -0.35732645 -0.3831172 -0.2607597 0.10490193
0003d0 9a fa d3 be eb 4c 9e 3e ff 6a 8a 3e 88 d3 46 be
       -0.4140213 0.3091806 0.27034757 -0.1941663
0003e0 d6 e9 a3 3e 7c 21 e3 bd 18 40 c8 be 80 3c 56 bc
       0.3201434 -0.11090371 -0.391114 -0.013075948
0003f0 a7 8b e5 bd a0 d5 56 3e f8 41 b6 3e 28 a6 b6 3e
       -0.11208277 0.20979929 0.35597205 0.35673642

Linear2.weight f4 [3, 256]
000000 c0 0a 50 3d b6 f2 77 3d 2c 41 a8 3c e0 0f 6c bc
       0.050791502 0.0605342 0.020538889 -0.014408082
000010 70 f1 f8 bc ba 2f e2 3a 02 d9 3d 3d 6e 13 33 bd
       -0.030388564 0.0017256655 0.046349533 -0.0437197
000020 20 c2 11 3c 38 f7 f0 bc 8c 4e e2 3c 6c 16 c0 3c
       0.008896381 -0.029414758 0.027625345 0.023448192
000030 76 e5 97 bc ee 7d 3b bd 8b ef e2 bc e8 43 a7 bc
       -0.018542033 -0.045774393 -0.027702114 -0.020418122
000040 49 9f 38 bd 69 09 fc 3b da bd 76 bd 54 10 76 bc
       -0.04507378 0.0076915515 -0.06023965 -0.015018541
000050 3b 70 47 bc 60 7f ee bc 51 b1 2f bd 70 e7 2b bd
       -0.012172754 -0.029113472 -0.04289371 -0.041968763
000060 37 c0 1f 3d 30 6a c1 3c 54 f9 59 bd f4 64 75 3c
       0.03900167 0.023610204 -0.053216293 0.014977682
000070 86 cf 15 3c 89 8d 19 3c 4c d9 f9 3c 9e 3e 60 3d
       0.009143716 0.0093721235 0.030499123 0.054747216
000080 60 81 4f 3b 61 a4 2e 3c 6e 97 09 bd c2 7f 42 3d
       0.0031662807 0.010659308 -0.03359168 0.04748512
000090 9c 72 94 bc 46 47 4d 3d 0e 78 80 3d 66 c2 61 bd
       -0.018121056 0.0501168 0.062728986 -0.055117033
0000a0 aa 77 56 bd e8 dd aa bc f4 24 63 bd 03 b0 01 bd
       -0.052360214 -0.020857766 -0.055455163 -0.031662
0000b0 92 65 08 3d d8 b3 03 ba ed 86 90 3d c0 20 36 3d
       0.03329999 -0.0005024052 0.07056985 0.044464827
0000c0 7f a9 00 3d c5 0e 2e bd 54 64 a8 3c b5 7f 2e bd
       0.031411644 -0.042494554 0.020555653 -0.04260226
0000d0 e8 7a 27 bc 82 ab 75 3d b2 0d 0c 3d c4 21 82 3d
       -0.010222174 0.059978016 0.03419275 0.063540965
0000e0 a6 18 60 bd f8 8c 96 3c 36 12 28 bd 56 4a 67 3d
       -0.054711007 0.018377766 -0.041032992 0.056467377
0000f0 38 98 4f bd 50 d7 57 bc 10 8c e5 3b 54 07 3a 3d
       -0.050682276 -0.013173893 0.007005222 0.045417145
000100 e9 dc e8 bc 2c 21 ef 3c 86 61 54 3c 4c c4 b0 3c
       -0.02842565 0.029190622 0.0129627045 0.021577977
000110 ec de 88 bc fc 97 ee bc 60 26 0b bd 8b 13 03 bd
       -0.01670786 -0.029125206 -0.033972144 -0.03200106
000120 0c 59 d1 bc 5e 83 1c 3d 00 ab 21 ba 20 30 48 3c
       -0.025555156 0.03821122 -0.00061671436 0.012218505
000130 d4 e5 82 bc 68 dd e7 3c 00 fb c5 b9 2b 42 ed bc
       -0.015978731 0.028303817 -0.00037761778 -0.028962215
000140 f4 28 8b bb e0 9d 5b 3b ce 7b 83 3d e9 5d 16 bd
       -0.0042468254 0.003351085 0.06420098 -0.036710653
000150 cb 2a 2d bd 08 76 b9 3b ec 91 42 bd 3d e4 64 3d
       -0.04227714 0.0056598224 -0.047502443 0.055881727
000160 9f 6b 8d 3d 9d e3 c8 3c e0 83 85 3d e0 46 2d 3c
       0.06905293 0.024522597 0.06519294 0.01057598
000170 15 28 3c 3d 28 68 4c 3d 50 7c f0 3b b4 76 e4 bc
       0.045936663 0.04990402 0.007339038 -0.027888633
000180 a7 f0 84 3d 59 06 3d 3d 7c 41 d5 bc 2c 0b 40 bd
       0.06491213 0.04614863 -0.026032202 -0.046885654
000190 06 57 1d bd d6 f9 80 3d d0 7f 84 bc c6 e0 53 bd
       -0.03841307 0.062976524 -0.016174227 -0.051728033
0001a0 ea 3d 39 3c cc 37 67 3d 48 c4 0b 3d 2a 0c 13 3d
       0.011306265 0.056449696 0.034122735 0.035900272
0001b0 be 14 19 3d 14 8d 27 3d 89 a5 b7 3c d6 ab 77 3d
       0.037373297 0.040906027 0.0224178 0.06046661
0001c0 20 33 23 3d 14 11 1a bd d5 2a b3 bc c4 27 07 3d
       0.03984368 -0.037613943 -0.02187101 0.032996908
0001d0 63 ab 30 3d 24 4f 80 bc 90 fa c6 bb 00 2f 27 bc
       0.043132197 -0.015662737 -0.00607235 -0.010204077
0001e0 e6 9e 26 bc 82 82 1a 3d 96 52 61 bd 58 ee 22 bc
       -0.01016972 0.03772212 -0.0550104 -0.009944521
0001f0 a2 4c fe 3b 4e ea b6 bc 4c db 7b bc 00 9b b6 3b
       0.0077606 -0.022328522 -0.015372109 0.0055726767
000200 51 fe 92 3c 94 8a 5c 3c dd 4e 93 3c 8c a0 11 3d
       0.017943533 0.013460774 0.01798194 0.0355535
000210 9c e7 5d 3d 93 8b d0 3b 82 07 fd bc e0 7d 46 3b
       0.054175958 0.006364295 -0.030887369 0.003028743
000220 aa 60 d2 3a 8c 38 6f 3d 9a a6 35 bc 70 55 a2 3c
       0.0016050537 0.058403537 -0.011087084 0.01981613
000230 b4 7e ce bb b0 7c d4 bb 42 cf 73 3d c9 cf 13 bc
       -0.0063017253 -0.0064845905 0.05952383 -0.009021708
000240 bc ce 0a 3c b8 a3 9e 3c f8 46 25 bd 94 ce 06 3d
       0.008472141 0.019365177 -0.040350884 0.032911852
000250 ae 83 2a 3d 80 d2 07 3b 80 b9 86 3a c0 36 a4 3a
       0.041629486 0.0020724833 0.0010278672 0.0012528524
000260 aa 9c 3d 3d 0a 3b 69 3d 94 30 d8 3c e0 dd 6d 3d
       0.046291985 0.05694107 0.026390351 0.058072925
000270 ee 7f 08 3d 0a c0 7d bd 00 e8 28 39 23 c4 2b 3d
       0.03332513 -0.06195072 0.00016108155 0.041935097
000280 09 86 32 3d ac 95 04 bd 3b 90 41 3d 76 d5 18 3d
       0.043584857 -0.0323693 0.04725669 0.037312947
000290 e9 c2 4d bd fc 0e 87 3b 5a 60 cf 3c 90 4d d0 3b
       -0.05023471 0.0041216593 0.025314499 0.0063569024
0002a0 84 63 9c 3c 05 14 8b bc ca 7f 05 bd 8f be fa 3c
       0.019090421 -0.01697732 -0.032592572 0.030608444
0002b0 3f e4 16 bb 1b 68 24 bd 78 d3 f4 bc 00 15 c1 39
       -0.002302423 -0.040138345 -0.029885992 0.00036827475
0002c0 78 fa e7 3c 0a 00 c7 bc 83 b2 9e 3d 69 03 1d bd
       0.028317675 -0.02429201 0.07748892 -0.03833333
0002d0 3c 21 37 3c 82 75 61 bd 9a 19 39 3d 5f e4 42 3d
       0.011177357 -0.055043705 0.04519043 0.047581073
0002e0 ae 01 fd bc 73 fc 45 3c 94 9f 1a bd e8 85 72 3d
       -0.03088459 0.012084114 -0.03774984 0.059209734
0002f0 16 f2 3e bb c0 b9 27 bd 88 f7 5c 3d 08 9f 74 3d
       -0.0029135994 -0.04094863 0.053947 0.059721977
000300 ae 2c 70 bd 28 13 2c bd 34 9b 02 bb ec ce 83 3d
       -0.05863636 -0.042010456 -0.0019928934 0.064359516
000310 42 c2 a2 3c a3 da ec 3c e4 19 26 bd 10 99 f5 3b
       0.01986802 0.028912848 -0.040552035 0.007495053
000320 78 c4 47 bc 9a 41 d0 3c 64 cd 90 3c 60 c7 b7 3a
       -0.012192838 0.025421906 0.017676063 0.001402121
000330 e0 bb f2 3b 6e 07 c7 bc 9c a0 55 3c d2 fb 05 bd
       0.0074076504 -0.024295535 0.013038781 -0.032710858
000340 fb f5 08 3d 28 4a 00 bc e2 6e 77 3d 86 db 35 bd
       0.03343771 -0.00783018 0.06040848 -0.044398807
000350 a6 3e 1f bb e5 b1 02 bd 1d 19 b5 3c 18 ad 9c bc
       -0.0024298816 -0.031907935 0.022106702 -0.019125506
000360 66 59 3b 3c 00 42 7c 3c a3 ed 46 bd ec 2c 46 3d
       0.0114348885 0.015396595 -0.04856647 0.048382685
000370 6c 67 95 3c 2d b1 5a 3d 21 3d 37 3d d9 c4 d0 3c
       0.018237792 0.053391624 0.04473603 0.02548449
000380 ed d1 f6 3c 03 8a 0a bc 96 6b 3a 3d 46 29 42 3d
       0.030129397 -0.008455756 0.04551276 0.047402643
000390 60 14 60 3b 60 10 22 3d 94 3a 8b 3a 09 81 a1 bc
       0.0034191832 0.039566398 0.0010622316 -0.01971485
0003a0 af e5 b2 3c 60 41 47 3d c8 74 49 bd 5e d6 6c 3d
       0.021838037 0.04864633 -0.049183637 0.057821624
0003b0 1c 95 9d 3c 4c 1f bf bc 5c 75 fa 3c 48 ef 4f 3c
       0.01923614 -0.023330353 0.03057354 0.012691326
0003c0 90 49 28 3d 80 4f 23 3a 20 f4 d8 3b 45 b4 af bc
       0.04108578 0.0006229803 0.006620899 -0.021448264
0003d0 52 7c 30 bd 9e 99 3c 3d e3 f5 51 bd b4 c3 f7 bc
       -0.04308731 0.04604494 -0.051259886 -0.030244686
0003e0 2d a1 42 3d e0 bf 0c bc cc 74 10 bd 82 e9 0c bd
       0.04751699 -0.008590668 -0.035267636 -0.034402378
0003f0 4a bb a2 3c ba 7d 05 bd d2 bc 38 bd 87 03 50 bb
       0.019864697 -0.032590605 -0.045101948 -0.0031740384

Linear2.bias f4 [3]
000000 61 dd 1a 3d d6 69 48 bd 57 bc c5 3c
       0.03780878 -0.048929058 0.024137659
