runs/run6/models/model201.pth (torch, 10959 bytes, 4 tensors)

Linear1.weight f4 [256, 5]
00000000: 785b ca3c 7728 6d3e 84e3 55be c4c3 dbbe
00000010: c4e9 4c3e 3b97 8bbe 208e 0dbe 74f1 56be
00000020: e543 4a3e d3af d6be 30ad d5bd 66cd 64be
00000030: 3073 bebe 5914 b3be f344 80bb a404 523e
00000040: 806c ff3d b02f 943e 7c0b 53be 00eb 49be
00000050: 99f3 e0be b491 023e c3c8 68be 7051 d83a
00000060: 5923 06be e17c a2be 3af3 ccbe d215 26bd
00000070: d70a abbe f7bc 5e3e bd8f bfbe 4025 61be
00000080: 1076 aabe 6881 01bd 4c9a 103e 7953 c9be
00000090: 3870 1e3e afca ab3e 9dc2 a1be 3f4f 5cbe
000000a0: 8084 31bd 985d 60bd 90ff 463d 75a7 ccbe
000000b0: c6f0 b1be 157f 97bd a40d 6abe 753d 123e
000000c0: b1df 82be c1be 3e3e 3d91 9ebe fa51 82be
000000d0: 4c92 00bf d07c 8bbd ae44 3cbe 90ba 4bbd
000000e0: 80cf 99be b094 e63d a2f2 25be 3d09 99be
000000f0: 7656 c0be 6c07 e03d 8bef 12bf 3ae5 cb3d
00000100: d712 1ebf 2deb 95bf bde3 dabe 67a2 b43e
00000110: ef2a 9c3e 7d00 0fbb a5c7 d7be 5aa6 8ebe
00000120: 0411 bfbe 46b1 3dbe 5cca 8abe 56ea 873e
00000130: 1c81 0f3e ddd0 cabe 40dd d93c 66dd e2be
00000140: 8691 0bbc 8d8e aabe 72bc 0c3e b1f0 2dbe
00000150: f001 a33e 1bfe 0ebf 8107 d9bd 50e6 893e
00000160: 4999 86be f148 9dbe fa5b 05be 5429 843e
00000170: 5214 48be 5a57 0cbe bcf2 b5be bf06 0abf
00000180: a201 1a3e 94c0 d8be c928 09ba 4cb1 aa3e
00000190: 386e 453e 3f6e b03c abff 203e 1d75 593e
000001a0: 8dae 90be 6c8a 83be 54a6 c1bd 4087 833b
000001b0: 4078 bebc b2c2 14be bf28 83be 425d a0bd
000001c0: 2bdc a9be 931e c13d 906e 383d 0c17 dfbd
000001d0: 40b2 0dbe 6848 7cbe cef3 8ebe 0000 843c
000001e0: eb69 5d3e cfa0 b0bb 6e21 5dbe 56b7 ccbe
000001f0: d2f0 943e e841 303d e8a8 9b3d d868 023e
00000200: b44c adbd 25d4 c2be 4891 343e 48e6 06be
00000210: a817 083e a05b 7ebe 94b9 bc3e c0f2 07bf
00000220: 4169 40be 7451 0d3e 269e a5bc bcf3 c3be
00000230: 4ba6 34be 6b8b 69be 51d0 f63d 15b6 3a3e
00000240: a911 f3bb 5818 9bbe 2e1d f7be cb77 30bf
00000250: a272 bb3d 0c36 b4bd c07b d3bc 1b54 7abe
00000260: b604 10bf 7ef6 a9be 59c6 73be 8c42 cbbe
00000270: 6734 94be 16bd 6e3e 46ee 1ebc 62c6 80be
00000280: 4802 0fbf b0cb dcbe d10a 713d aadc b5bc
00000290: aa22 1e3e faa8 1cbd 77e1 eabe 0a21 59bd
000002a0: 9a71 47bd 4904 903e 6738 603e 4bef ae3e
000002b0: 39c4 713c b8c9 efbe 95c5 7f3d 266a b93d
000002c0: 9e06 48bd c599 7ebc 8439 0cbe 1db9 04bf
000002d0: 6869 15be 9048 793e aed3 dabe 487b 2f3d
000002e0: 809d d83c 5844 383e 929a 993d c996 b1be
000002f0: cd2c e23d 2236 ce3d 4522 82be 58e2 c53d
00000300: cb5d b4be ebc3 35be 20c6 5c3d 7d6a a9be
00000310: 4067 1abe dcf6 c9bd 149f 0b3e 65c3 d1be
00000320: 77b8 f9bf a0e6 52be 5c89 cf3c 6f9f 343f
00000330: 6416 4f3f d0c6 84bc d073 993d a014 c43d
00000340: ca08 b6be b4c5 b8bd 4cb5 4bbe 9826 44be
00000350: 7ce3 ed3e ee37 5f3a 0462 02be dc37 b1be
00000360: 4af7 10bf eef9 11bd f5d2 c8be 28ec 263e
00000370: 0ce1 443d b945 d1bc d4fe 71be 8345 453d
00000380: 3e56 dabd 4b7f 46bf 639f 12be d80d 66bd
00000390: 2ce6 313e a9a8 4abe 56cf c0be 0170 fc3c
000003a0: f35d 88be 3670 60be 674c 0f3e e0af b73e
000003b0: 0854 4fbe 3de0 be3e ec8e 2cbe 979d e73d
000003c0: dba4 00bf 7f54 94be 8f85 013e 6480 f1bd
000003d0: 4c9a 92bc a861 b7be da62 7abd c085 b4be
000003e0: f869 12be 049a e73d 8364 8cbf 72ac b6be
000003f0: a893 4d3e c49a 89be 6c7c 203f 014e 42be
0.024701819 0.23159967 -0.20887572 -0.42922795 0.2001105 -0.27263817 -0.13823748 -0.20990545
0.19752462 -0.41931018 -0.104334235 -0.22343978 -0.37197256 -0.34976462 -0.0039144694 0.20509583
0.124718666 0.28942633 -0.2060985 -0.19718552 -0.4393585 0.12750894 -0.22732835 0.0016503762
-0.13099422 -0.317359 -0.40029317 -0.040548153 -0.33406708 0.21751772 -0.3741435 -0.21986866
-0.332932 -0.031617552 0.1412136 -0.39321497 0.15472496 0.33553073 -0.3159379 -0.21514605
-0.043339252 -0.054776758 0.048583567 -0.3997151 -0.34754008 -0.07397286 -0.22856766 0.14281256
-0.25561288 0.18627454 -0.30970183 -0.25453168 -0.5022323 -0.068109155 -0.18385574 -0.049738467
-0.30041122 0.11258829 -0.16205838 -0.2988986 -0.37565964 0.109389156 -0.57396764 0.09955831
-0.617475 -1.1712395 -0.42751876 0.35280153 0.30501506 -0.002182036 -0.42144504 -0.2786129
-0.3731767 -0.18524656 -0.27107513 0.26545972 0.14014095 -0.39612475 0.026594758 -0.4430954
-0.008518582 -0.33311883 0.13743761 -0.16986348 0.31837416 -0.55856484 -0.105971344 0.26933527
-0.26288822 -0.30719712 -0.13023368 0.2581278 -0.19539002 -0.13705197 -0.35536754 -0.53916544
0.15039685 -0.42334425 -0.0005232213 0.33338392 0.19280326 0.021536944 0.1572253 0.21236081
-0.28258172 -0.25691545 -0.09455553 0.004013926 -0.023250699 -0.14527395 -0.25617024 -0.078302875
-0.33175787 0.0942966 0.045027316 -0.10893068 -0.13837528 -0.24636996 -0.27920383 0.016113281
0.21622436 -0.0053902636 -0.21594784 -0.39983624 0.2908998 0.043031603 0.07600576 0.12735307
-0.084618956 -0.38052478 0.17633545 -0.13173783 0.13290274 -0.2483964 0.36860335 -0.5310478
-0.18790151 0.13800603 -0.020217013 -0.38271892 -0.1764156 -0.2280709 0.12051452 0.18233521
-0.0074178767 -0.3029201 -0.4826445 -0.6893279 0.09152724 -0.08799371 -0.025815845 -0.24446146
-0.5625719 -0.3319587 -0.23806132 -0.3969921 -0.2894623 0.23314318 -0.0097003635 -0.25151354
-0.55862856 -0.4312415 0.058848206 -0.022199947 0.15442911 -0.038247086 -0.4587514 -0.053010024
-0.048692323 0.2812827 0.21896516 0.3416694 0.014756256 -0.46833587 0.06244429 0.09053449
-0.048834436 -0.015539591 -0.13693815 -0.5184496 -0.1459099 0.24344087 -0.42739624 0.04284218
0.02644229 0.17994821 0.07500185 -0.34685352 0.11043701 0.10068919 -0.2541677 0.09662312
-0.35227808 -0.17750518 0.053899884 -0.33089057 -0.15078449 -0.09861538 0.13634902 -0.40969387
-1.9509419 -0.20595789 0.025334053 0.70555776 0.8089354 -0.016208082 0.074927926 0.095742464
-0.3555358 -0.09022084 -0.19893378 -0.19155347 0.4646262 0.0008515109 -0.12732702 -0.3461293
-0.56627333 -0.035638742 -0.39223447 0.16301024 0.048066184 -0.025545942 -0.23632365 0.048161995
-0.10660981 -0.77537984 -0.14318614 -0.056165546 0.1737296 -0.19790901 -0.37658185 0.030815126
-0.26634178 -0.21917805 0.13993989 0.3587637 -0.20246899 0.37280455 -0.16851395 0.11309355
-0.5025155 -0.28970715 0.12648605 -0.11792067 -0.01789584 -0.35816693 -0.06112943 -0.35258293
-0.14298236 0.11308673 -1.0968174 -0.3567844 0.20075858 -0.2687589 0.6268985 -0.18975069

Linear1.bias f4 [256]
00000000: 5656 97be 7309 8e3d 8687 d43d a388 d1be
00000010: c85a 133c ff78 6fbe b455 1b3e ff9d 1ebe
00000020: 72db 14be 8a0f 4dbe ffd7 983e 3cbc 86be
00000030: 81ae 3b3d 372c 1ebd 4a75 413e b610 b5be
00000040: e481 51bc 241f 7ebb a09a 31be 1b01 413c
00000050: 20a2 ccbe 00c3 33bb 3cb2 1dbe b49b afbd
00000060: 3f0c 9cbe ac47 6fbe c645 cebe 6fdb 593e
00000070: e4f4 6cbe 2890 163b fff4 193b 023f 8ebd
00000080: 7167 1bbf 58b3 4ebe 7e5a debe 3273 b23d
00000090: 84a6 84be 9232 eabe 32ca 04be 4adc 8fbe
000000a0: f5eb 52be 4f30 e2be 5cd1 95be 5ae3 b73d
000000b0: a25b 323b 1851 4e3d 1f70 17be b9e9 8ebe
000000c0: fd28 103d 62c0 4a3d 04b3 003e d3a9 933d
000000d0: 15f6 b4be abf9 d13d e8e9 d0bd a6c5 9cbe
000000e0: e8d1 053d 1af3 8dbd e967 b23c 9cd8 b3be
000000f0: 4f28 b3be e15f acbe 702c 09bf a372 1a3e
00000100: 454d 883d ef8d d03d 46a1 233e 14c0 94be
00000110: 95c4 b9be 519b a5bc 7728 bbbe e6d6 1b3e
00000120: eef9 0c3e 82b2 6e3d ef2b 423e f800 e1bd
00000130: 040b 07be e860 cdbe 0e75 98be 5168 dbbe
00000140: 02a5 ef3d 4e31 2fbe ac7e a63c 4db9 47be
00000150: ed82 e23d 7f3f afbe a8ea 6abe 45da 6e3d
00000160: 7761 6e3e 676f 2f3e b4b8 34be 5aef 25be
00000170: 56e3 f63d 3955 9dbe 18f0 5bbe 7ae2 73be
00000180: 76bb 3d3e 24e3 463d 4e87 b3be 5647 4bbd
00000190: 1b26 b8be 7d55 993d 54db 18be bc5f 663d
000001a0: e5ff 343e 6003 8abe 82ba c43d f012 093e
000001b0: 5c73 8bbe 7059 fc3d 3bff 853d 3c57 09be
000001c0: a5cb 3abd 7c02 a8bc 87c8 c93d 196e 46be
000001d0: 8c55 0a3b 0243 48be 5ee8 12be 902c dabe
000001e0: 2652 b4bd 00ab 4c3e 326f cebe 0185 59bd
000001f0: a1f4 a63d 3bf4 d1be b23a 41be 8378 bdbe
00000200: ddd0 673e 95a6 093e 8f5f 223c 1910 b2be
00000210: 092f 68be 0cdd 743e 5290 5c3d 0359 76be
00000220: 1182 ca3e 0478 fcbe 841c b03d 9667 45be
00000230: eeb6 cbbd e2a1 88bd e660 ddbe 9013 91be
00000240: e8c8 ccbd da44 803d 75e9 efbe 66e9 debe
00000250: e235 c6be cd74 78be a2cd bebe fe99 8ebe
00000260: 081c ab3c 80c6 1abd d1f9 c6be 3a9d 93be
00000270: 10d6 363e d8a8 8bbe 9046 0abe 2432 383e
00000280: 363d b63d 7577 cbbe cebd 79be 046f 2dbe
00000290: ad41 96be e7c9 42be 1b87 83be b908 e5be
000002a0: a239 a8be 747e 163e 76ac bbbe 90d9 adbe
000002b0: b655 0c3c 6e36 03bd 3751 833e eaeb d8be
000002c0: c2ea e73b 98b2 c4bd 9551 ecbc ab67 0bbe
000002d0: 73bd 7cbe c0ef a0be 1c52 ffbd a0a8 e23e
000002e0: e237 443e 0f70 51be 484a ecbd 156a c7be
000002f0: d38e c7be 997c 4c3e ce60 693d 847b 9bbe
00000300: 58a3 3ebe 567c 17be eaf0 b8bd 1828 b93d
00000310: 10af 74be 2948 87be 5d6c 89be 39ed bcbe
00000320: 541f d7be 79bc 313e 41a2 63be 0136 4b3d
00000330: 0a1b c3bd 72c5 46be 8020 78be 4c58 6dbe
00000340: d5f3 103e e222 41be 7f2b ddbc 5e60 b03c
00000350: be8e 7ebe b572 063e f3c7 7b3d bc65 c6be
00000360: 648a bcbd 58a0 fbbd ceea c03e d18a 0dbe
00000370: 5b45 5bbe e26d 9f3d 802b 173d 7ce5 82bd
00000380: fe79 913e 5606 f9be 20d8 2cbe dca5 953d
00000390: a49d 85be 82e8 3e3a dba1 693e 9d6d 9ebc
000003a0: 1203 d33d 0d3e 453d 1cc3 983e dc2e fdbd
000003b0: b5d4 263e 4288 76be c89d ac3d 8fc1 cbbd
000003c0: 7ef3 b6be f027 c4be eb10 e5be c858 b4bd
000003d0: 502b e3be 3567 8b3c b3a8 0e3e 88d3 46be
000003e0: fbaf a53c f89d 5cbe 1840 c8be 803c 56bc
000003f0: 1c42 89be 1f41 313e a7f0 473e deaa b43d
-0.29558057 0.06935396 0.103774115 -0.40924558 0.008993812 -0.23386 0.15169412 -0.15489958
-0.14536837 -0.20025459 0.29852292 -0.26315486 0.045820717 -0.038616385 0.18892398 -0.35364312
-0.012787316 -0.0038775885 -0.17344141 0.011780049 -0.39967442 -0.0027429461 -0.15400022 -0.0857462
-0.30478093 -0.23367184 -0.40287608 0.21275114 -0.23140293 0.0022974107 0.0023491976 -0.069456115
-0.60704714 -0.20185602 -0.43428415 0.08713378 -0.2590829 -0.45741707 -0.12967756 -0.28097755
-0.20597823 -0.44177482 -0.2926129 0.08978911 0.0027215262 0.050370306 -0.14788865 -0.2791269
0.03519534 0.049499877 0.12568289 0.07210126 -0.35343996 0.102526985 -0.10200864 -0.30619544
0.032670885 -0.069311336 0.021778064 -0.35126197 -0.3499169 -0.336669 -0.5358343 0.15082793
0.06655363 0.10183322 0.1597949 -0.29052794 -0.36282793 -0.020215662 -0.3655431 0.15218696
0.13767216 0.058275707 0.18962072 -0.10986513 -0.13187796 -0.40112996 -0.29776806 -0.42853025
0.117013946 -0.17108652 0.020324074 -0.1950428 0.11060128 -0.3422813 -0.22941077 0.058313627
0.23279367 0.1713234 -0.17648584 -0.16204587 0.1205508 -0.30729082 -0.21478307 -0.23816863
0.18528542 0.048556462 -0.35064167 -0.049628578 -0.35966572 0.07487009 -0.14927417 0.056243643
0.17675741 -0.269557 0.09605886 0.1338613 -0.2723645 0.12321746 0.06542822 -0.13412184
-0.045604367 -0.020508997 0.09852701 -0.19377936 0.0021108119 -0.19556811 -0.14346454 -0.42612123
-0.08804731 0.19987106 -0.4031921 -0.053105358 0.08152128 -0.41006646 -0.18870047 -0.37006006
0.22638269 0.13442452 0.009910478 -0.34777907 -0.22674192 0.23912448 0.053848572 -0.24057393
0.39552358 -0.49310315 0.08599189 -0.19277796 -0.099470004 -0.06671502 -0.4323799 -0.28335238
-0.09999257 0.062631324 -0.468578 -0.43537444 -0.38712984 -0.24263306 -0.3726626 -0.27851862
0.02088739 -0.03778696 -0.3886247 -0.28830892 0.17855096 -0.27277255 -0.1350348 0.17987877
0.08898394 -0.39739576 -0.24388811 -0.1693688 -0.29346982 -0.19022332 -0.25689015 -0.44733217
-0.3285647 0.14696676 -0.36655015 -0.3395505 0.008565357 -0.03203433 0.256479 -0.42367488
0.007077546 -0.096043766 -0.028847495 -0.13613765 -0.24681644 -0.31432915 -0.12466833 0.44269276
0.19161943 -0.20452903 -0.115376055 -0.38948122 -0.38976154 0.19969405 0.056977086 -0.30367672
-0.18616998 -0.14793524 -0.09030326 0.090408504 -0.23894906 -0.2642224 -0.26840487 -0.36899737
-0.4201609 0.17357053 -0.22229864 0.04961205 -0.09526642 -0.19411257 -0.24231148 -0.23178214
0.14155515 -0.18860963 -0.02699828 0.021530326 -0.2485914 0.13129695 0.061469983 -0.38749492
-0.092060834 -0.122864425 0.37679142 -0.13822486 -0.21413176 0.0778463 0.03690672 -0.06391427
0.28413385 -0.48637646 -0.1687932 0.07307026 -0.26096833 0.0007282571 0.22815649 -0.019339377
0.1030332 0.04815488 0.29836357 -0.12362453 0.16292079 -0.24075416 0.08428532 -0.09949028
-0.35732645 -0.3831172 -0.4473947 -0.08805996 -0.44368982 0.017016986 0.13931541 -0.1941663
0.020225516 -0.21544635 -0.391114 -0.013075948 -0.2680825 0.17309998 0.19525395 0.08821653

Linear2.weight f4 [3, 256]
00000000: 917a 2bbd fd81 1abc 60f0 26bb e00f 6cbc
00000010: 0150 1c3a 4bde d93c 02d9 3d3d 125d abbd
00000020: 20c2 113c 370e d33c 56f1 a63d 6c16 c03c
00000030: ad1f c6bb 0d70 bbbe 05d1 babc e843 a7bc
00000040: b8d4 12be c25a fabd dabd 76bd 8430 a6be
00000050: 2d2b 003d 607f eebc a0bd 35bd 70e7 2bbd
00000060: 3cde a23d 306a c13c 54f9 59bd 1aa5 a6bd
00000070: 10ed 11bd 149b 79bc da8e bbbd d8ea e9ba
00000080: 6081 4f3b 6f09 973c 6e97 09bd a2bb f73a
00000090: 9c72 94bc e3a4 50bd c41c 9abc 66c2 61bd
000000a0: e147 52bf e8dd aabc 4628 b8bd 951b 01bd
000000b0: 8b5d 113d f759 38bd a325 43bd ff9d 8bbc
000000c0: 64d4 40bd de78 1abd 3be9 d5be 7af8 7bbd
000000d0: ff41 79be ddac 1cbd 5477 013e f66c f03c
000000e0: a618 60bd c6be 8abc f3c2 3cbf 564a 673d
000000f0: 19fc 40bd 50d7 57bc 92b8 babd bce0 cdbc
00000100: 590d 563b 19ae c9be 4e6d ffbc 4cc4 b03c
00000110: ecde 88bc b672 55bc 6026 0bbd 3b7d e5bd
00000120: 8405 0ebf 984e 15be 3196 cc3c 2030 483c
00000130: efce 4cbd 636a aebc 00fb c5b9 c2d1 d2bc
00000140: 2ed9 a63d e09d 5b3b 2e2f 8a3d 5e83 c9bd
00000150: 1fe0 efbd fed2 13bf ec91 42bd 9b95 afbd
00000160: f9b0 f53d 3e97 1f3d 18f7 90bd e046 2d3c
00000170: 7e77 993d fa8b 10bd 507c f03b aab1 f5be
00000180: c9d4 3dbd 4132 20bc 7c41 d5bc 3cef 54bf
00000190: 0657 1dbd 5c3d 0e3d d07f 84bc b597 0d3b
000001a0: 7f66 02bd a752 e4bc a878 103e 0d28 173e
000001b0: edae 94bd 148d 273d 277d a53d d6ab 773d
000001c0: 5dad bf3d 2cb5 d8bc 6f47 62bd 8937 cbbd
000001d0: 91b4 29bb 41e4 d8bc 90fa c6bb 48e1 b6be
000001e0: b3a4 b1bd cdce a1be 9652 61bd d7fe b63d
000001f0: b6b8 1dbc beec b8bc 7424 05bd 93b1 0abf
00000200: 0d32 f73d 2b22 43bd 2e98 03bd 8ca0 113d
00000210: 785a c23d 9299 c0bc 2da4 67bc e07d 463b
00000220: fe07 d0be 33ad 0cbe abe5 3f3d 444c 143d
00000230: 7bd2 d9bd 8868 bebe 42cf 733d 91ac 9fbd
00000240: 6d00 493c 8c05 46bf 70ed 5cbe 94ce 063d
00000250: 4b86 9a3d 80d2 073b 80b9 863a c036 a43a
00000260: 724f 043d 0a3b 693d 9430 d83c 3e26 2239
00000270: 25e1 2bbe 0ac0 7dbd 00e8 2839 af89 a83c
00000280: e614 75bd ac95 04bd 300d c93c 76d5 183d
00000290: fe16 5dbd cfcf 60bd fc34 093c 2d1e ebbb
000002a0: 8463 9c3c a8b0 a7bd df74 46be 6080 503d
000002b0: 9de5 f739 546d dbbd d0bd 72be 0015 c139
000002c0: 8d8a babc f783 06bd ca2e 213e 0642 a63d
000002d0: 7f2a d43c cdd6 d4bd 63f6 53bc 9f54 063f
000002e0: 8fff 863d 1a4c 86bd 949f 1abd e885 723d
000002f0: d2c5 b9bd 52d9 22bd 416b 7dbd 089f 743d
00000300: 5c87 c63d 9717 e4bd 3347 72bd f0f0 b1bc
00000310: 500e 83be 10d6 d7bd 703a 55bd f2c1 f1be
00000320: 78c4 47bc 649d b0bd 9e14 0fbd 5569 94be
00000330: ebdb 34be 8be1 98bc 390a f9bd d2fb 05bd
00000340: 2b90 c1bc 3832 27bd 6152 b1bd ea65 4f3a
00000350: 7078 5d3b 627f 9fbd 3018 bebd 18ad 9cbc
00000360: 16e3 77be 0042 7c3c 90b4 a5be d315 6cbd
00000370: 6c67 953c 314c 133d 0ce4 433d 09e6 dc3c
00000380: 9045 30bc 6946 84bd 966b 3a3d d033 b9b9
00000390: ca05 b03c c818 89bc aad4 39bf 7bbf ca3d
000003a0: 9572 6abe ab4a 22ba b799 5bbe 5ed6 6c3d
000003b0: 4c84 a5bd ec96 c0bd 2614 ba3b 6c31 60be
000003c0: 9049 283d 804f 233a 20f4 d83b fd9b 953d
000003d0: b285 fdbd e9e7 8ebb 2df0 03be b4c3 f7bc
000003e0: e7d2 15be 1a82 4fbd cc74 10bd 82e9 0cbd
000003f0: e479 38be 4e5f 333d b2d1 5abd a28a efbc
-0.041864935 -0.009430406 -0.0025472865 -0.014408082 0.0005962849 0.026595255 0.046349533 -0.08367361
0.008896381 0.025763614 0.081515 0.023448192 -0.0060462565 -0.36608925 -0.022804746 -0.020418122
-0.14338958 -0.12224342 -0.06023965 -0.3245889 0.031291176 -0.029113472 -0.044370294 -0.041968763
0.07952544 0.023610204 -0.053216293 -0.081369594 -0.03562647 -0.015234727 -0.09158106 -0.0017846478
0.0031662807 0.018437115 -0.03359168 0.0018900523 -0.018121056 -0.0509385 -0.018812545 -0.055117033
-0.8214093 -0.020857766 -0.089920565 -0.031520445 0.0354896 -0.045007672 -0.047643315 -0.017043112
-0.04707755 -0.037712924 -0.41779503 -0.061516263 -0.24341582 -0.038250793 0.12643176 0.029348832
-0.054711007 -0.016936671 -0.7373497 0.056467377 -0.04711542 -0.013173893 -0.09117235 -0.025131576
0.0032661764 -0.39390638 -0.03118005 0.021577977 -0.01670786 -0.0130278375 -0.033972144 -0.112055264
-0.55477166 -0.14580762 0.02497396 0.012218505 -0.050002035 -0.021290964 -0.00037761778 -0.025734786
0.081468925 0.003351085 0.0674728 -0.098395094 -0.117126696 -0.57743824 -0.047502443 -0.08573457
0.119966455 0.038962595 -0.070783794 0.01057598 0.074934945 -0.035289742 0.007339038 -0.4798711
-0.046345506 -0.009777606 -0.026032202 -0.8317754 -0.03841307 0.034726486 -0.016174227 0.0021605317
-0.03183603 -0.027871443 0.14108527 0.14761372 -0.07259927 0.040906027 0.080805115 0.06046661
0.09359238 -0.026453577 -0.055243906 -0.09922702 -0.002589498 -0.026476027 -0.00607235 -0.3571875
-0.08673992 -0.3160309 -0.0550104 0.089353256 -0.009626558 -0.022573825 -0.032505468 -0.54177207
0.12070093 -0.047640007 -0.03212755 0.0355535 0.09489912 -0.023510728 -0.014138264 0.003028743
-0.40631098 -0.13737945 0.046849888 0.036205545 -0.10635849 -0.37189126 0.05952383 -0.07796586
0.012268168 -0.77352214 -0.2157495 0.032911852 0.075451456 0.0020724833 0.0010278672 0.0012528524
0.032302327 0.05694107 0.026390351 0.0001546377 -0.16785105 -0.06195072 0.00016108155 0.020573465
-0.059834383 -0.0323693 0.024542421 0.037312947 -0.053977005 -0.05488568 0.008374449 -0.007175228
0.019090421 -0.081879914 -0.1938052 0.050903678 0.00047282586 -0.10714212 -0.2370522 0.00036827475
-0.022771144 -0.032840695 0.15740505 0.08118062 0.02589917 -0.103925325 -0.012937161 0.5247287
0.06591713 -0.06557484 -0.03774984 0.059209734 -0.09070934 -0.039758034 -0.061869863 0.059721977
0.096937865 -0.11137312 -0.059149932 -0.021721333 -0.25596857 -0.10538876 -0.052057683 -0.4721828
-0.012192838 -0.0862377 -0.03493177 -0.28986612 -0.17662017 -0.018662235 -0.12160153 -0.032710858
-0.023628315 -0.040819377 -0.08658291 0.000791161 0.003379371 -0.07787968 -0.09281957 -0.019125506
-0.2420772 0.015396595 -0.3236432 -0.057638 0.018237792 0.035961334 0.047824904 0.026965158
-0.0107587725 -0.06458742 0.04551276 -0.00035324553 0.021487135 -0.01673545 -0.72590125 0.09899803
-0.22895272 -0.0006190936 -0.21445356 0.057821624 -0.08081874 -0.09403786 0.0056786714 -0.21893853
0.04108578 0.0006229803 0.006620899 0.07305143 -0.12379016 -0.004361142 -0.12884589 -0.030244686
-0.14631234 -0.050661184 -0.035267636 -0.034402378 -0.18015248 0.04379206 -0.053422637 -0.02924091

Linear2.bias f4 [3]
00000000: b88f 643e e265 193e 0c5b 023e
0.2232045 0.14980271 0.12730044
