runs/run9/models/model401.pth (torch, 10959 bytes, 4 tensors)

Linear1.weight f4 [256, 5]
0	0x3ef65f7a	0.48119718
1	0x3e6b0719	0.22951926
2	0x3e65d3ca	0.22444072
3	0xbdec5883	-0.1154032
4	0xbe705eb2	-0.23473623
5	0xbeac8bb2	-0.3370033
6	0x3e6a3101	0.22870256
7	0x3e016cdf	0.12639187
8	0x3e669bdd	0.22520395
9	0xbed47942	-0.41498762
10	0x3ea5583e	0.32293886
11	0x3eca8fbe	0.39562792
12	0x3ef573f9	0.47940043
13	0xbbaddf45	-0.005306157
14	0xbe013f65	-0.1262184
15	0x3ea7e8bf	0.3279476
16	0x3e81332a	0.25234348
17	0x3dcb07aa	0.09913571
18	0x3e17e0ba	0.1483182
19	0x3c897e0e	0.01678374
20	0xbe81014d	-0.25196305
21	0xbe90d8ab	-0.28290305
22	0xbeef2208	-0.4670565
23	0xbe37b0ad	-0.1793849
24	0x3e307ab3	0.17234306
25	0x3f6fd32d	0.93681604
26	0x3eab92c5	0.33510414
27	0x3ee04d63	0.4380904
28	0xbdbd857d	-0.092539765
29	0x3c96ff8b	0.0184324
30	0xbdc51bcf	-0.09624445
31	0xbe006f44	-0.12542444
32	0xbd2bbc38	-0.041927546
33	0xbeb8c1e3	-0.36085424
34	0xbf0d9156	-0.5529989
35	0xbccb02d9	-0.024781631
36	0xbe10f8aa	-0.14157358
37	0xbecbc1cd	-0.39796296
38	0xbe71c266	-0.23609313
39	0xbe3934de	-0.18086573
40	0x3e1030ae	0.1408107
41	0x3e1b322b	0.15155856
42	0x3d8fecf4	0.07027617
43	0xbefb87a6	-0.4912693
44	0xbe97e788	-0.29668832
45	0xbd4abcb0	-0.049496353
46	0x3d913800	0.07090759
47	0xbe382b9a	-0.17985383
48	0xbddd3e90	-0.108029485
49	0xbeb1db94	-0.34737837
50	0x3f2db876	0.6785959
51	0x3d23e499	0.04001293
52	0xbce3cba3	-0.027807062
53	0xbd98bdd3	-0.07458081
54	0xbe1da7fb	-0.1539611
55	0xbe8d6388	-0.27615
56	0xbd99c8b0	-0.07508981
57	0xbe8c9e65	-0.27464595
58	0x3e99e29e	0.30055708
59	0xbea2db32	-0.31807858
60	0xbdef287d	-0.116776444
61	0x3e70581b	0.2347111
62	0x3e8e08f1	0.27741197
63	0xbeb63437	-0.35586712
64	0xbed1f56f	-0.41007563
65	0xbf5a19e4	-0.85195756
66	0x3f8230d9	1.0171157
67	0xbf4487e6	-0.76769865
68	0xbef3bcd1	-0.47604993
69	0x3e182c5c	0.14860672
70	0xbea0511b	-0.3131188
71	0xbecf923d	-0.40541258
72	0x3e97d561	0.29654983
73	0x3ea233b9	0.31680086
74	0xbcedbcdc	-0.02902072
75	0xbecf6137	-0.40503857
76	0xbefd52bc	-0.49477184
77	0x3ed429a8	0.4143803
78	0xbdbf46ce	-0.09339677
79	0xbefcc24b	-0.49366984
80	0xbddd9664	-0.108197
81	0xbe7f94e9	-0.24959148
82	0xbef09bef	-0.46993968
83	0xbe9cd1bc	-0.30628765
84	0x3e69b1cc	0.2282173
85	0xbe9ce463	-0.30642995
86	0x3e36cd99	0.17851867
87	0x3e7e09fa	0.24808493
88	0x3d751791	0.059836928
89	0xbe3f981d	-0.1871037
90	0x3e4d1861	0.20028831
91	0xbe611825	-0.21981867
92	0xbe176b16	-0.14786944
93	0xbe0208f9	-0.12698735
94	0x3d99080c	0.07472238
95	0x3f8a874a	1.0822537
96	0x3f421deb	0.758269
97	0x3c1d717b	0.009609575
98	0x3e57d78b	0.21078317
99	0xbe18ce72	-0.14922503
100	0x3e36ab24	0.17838722
101	0x3e00d20a	0.12580124
102	0xbdf8e851	-0.12153686
103	0xbe3e3a9b	-0.18577044
104	0x3e42741a	0.18989602
105	0x3ce470c1	0.027885797
106	0xbec8eb80	-0.39242172
107	0xbeb928a6	-0.36163825
108	0xbedeba5b	-0.43501553
109	0xbe3dbfe4	-0.18530232
110	0x3f4fcd88	0.8117299
111	0x3ea9f078	0.33191276
112	0x3e906bfc	0.28207386
113	0x3dc30be5	0.09523753
114	0xbe43d4e5	-0.19124182
115	0x3eaa7b46	0.33297175
116	0x3ee210ae	0.4415335
117	0xbf82a304	-1.0205998
118	0xbec6dc6b	-0.3884004
119	0x3dc1f979	0.09471411
120	0xbe986e7c	-0.29771793
121	0x3e8ab894	0.27093947
122	0xbead1945	-0.33808342
123	0x3eb457b7	0.3522317
124	0xbea8efb9	-0.32995394
125	0x3f9d49eb	1.2288183
126	0x3ec8f408	0.3924868
127	0x3f39ce6e	0.7258061
128	0x3e9afd40	0.3027134
129	0x3c0a6eef	0.0084493
130	0x3cea4187	0.028595699
131	0xbe9fc29d	-0.31203166
132	0xbea2c53d	-0.31791106
133	0xbdbe366d	-0.09287725
134	0xbcf64f0e	-0.030066993
135	0x3dc8f7db	0.098129
136	0x3da7ae2a	0.08187516
137	0xbed52fa4	-0.4163791
138	0x3eb88508	0.36038995
139	0x3e38848c	0.18019313
140	0xbe5fc166	-0.2185112
141	0xbeefbadb	-0.46822247
142	0x3dd4552d	0.103678085
143	0xbebd69b5	-0.3699471
144	0x3d299381	0.041400436
145	0xbd1dc790	-0.038520396
146	0xbeb2603d	-0.3483905
147	0xbea8e822	-0.32989603
148	0xbd717248	-0.058946878
149	0xbe1f16b8	-0.1553601
150	0xbd74e78d	-0.059791137
151	0x3e9ca4d3	0.305945
152	0x3eacf956	0.33783978
153	0xbe8163dc	-0.252715
154	0xbe8e0f1f	-0.2774591
155	0x3ee48f6e	0.44640678
156	0x3ea98b65	0.33114162
157	0xbefc67b7	-0.49297878
158	0x3dc54efd	0.096342064
159	0x3dff166d	0.12455449
160	0xbc819900	-0.015820026
161	0x3eb2d598	0.34928584
162	0xbcc91600	-0.024546623
163	0xbe3aac3a	-0.18229762
164	0xbe1253c6	-0.1428977
165	0xbec390c4	-0.38196385
166	0xbe94551c	-0.28971183
167	0xbd80edf4	-0.06295386
168	0x3ea9f990	0.33198214
169	0x3c6862a0	0.01418367
170	0xbc8f684f	-0.017505793
171	0x3d050037	0.032470908
172	0xbce51e58	-0.02796857
173	0xbd1c1a8d	-0.03811126
174	0xbdd37323	-0.10324695
175	0xbf0c9058	-0.5490775
176	0x3f84f73e	1.0387952
177	0xbf80a15f	-1.0049247
178	0x3d7d0b43	0.061778318
179	0xbd9a5851	-0.07536376
180	0x3dd86190	0.105654836
181	0xbc357a20	-0.01107648
182	0xbe7d50d2	-0.24737862
183	0x3e3cd058	0.18438852
184	0xbebd5387	-0.3697779
185	0xbe91a888	-0.28448892
186	0xbe99c91f	-0.30036256
187	0xbd88a43c	-0.0667195
188	0x3ecbef68	0.3983109
189	0xbe9ee0c2	-0.31030852
190	0x3f69a01f	0.9125995
191	0x3e9674f3	0.293861
192	0x3e0b6efd	0.13616557
193	0xbe23f906	-0.16012964
194	0x3e3f1108	0.1865884
195	0x3ee291db	0.44251904
196	0x3e2a5b98	0.16636503
197	0xbf5ad092	-0.85474503
198	0xbc40a3b5	-0.011757781
199	0xbebd9090	-0.37024355
200	0x3e1c654f	0.15273021
201	0xbec929f9	-0.39289835
202	0xbd4d1df6	-0.0500774
203	0xbe131bff	-0.14366148
204	0xbdaf437d	-0.08557794
205	0x3e08c865	0.13357694
206	0x3e88cb87	0.2671778
207	0x3ddb6fdf	0.10714697
208	0x3e3f7afd	0.1869926
209	0x3d8486a3	0.064709924
210	0xbe3894df	-0.1802554
211	0xbdbdde69	-0.09270937
212	0xbe88bd16	-0.2670676
213	0x3e917117	0.28406593
214	0x3e59cafa	0.21268836
215	0xbf12e623	-0.5738241
216	0x3e10cf41	0.14141561
217	0xbe0753fd	-0.13215633
218	0xbd2f1bf2	-0.04275126
219	0xbdd25f30	-0.10272062
220	0xbee2285d	-0.4417142
221	0xbe292fee	-0.1652219
222	0x3de88c42	0.11354877
223	0xbd0430ee	-0.032273225
224	0xbeca5375	-0.39516798
225	0x3e71baf4	0.23606473
226	0xbe67dca2	-0.22642758
227	0xbd3b83b0	-0.045779884
228	0x3daf6e30	0.085659385
229	0xbe7ce77d	-0.24697681
230	0x3f21593c	0.63026786
231	0x3ee9916b	0.45618758
232	0x3ee9dd50	0.4567666
233	0xbe005415	-0.12532075
234	0xbcd1d441	-0.025613906
235	0xbd3c9d18	-0.046048254
236	0xbe82a8ee	-0.25519508
237	0xbe402432	-0.18763807
238	0xbdf79d08	-0.12090498
239	0x3ea25d00	0.31711578
240	0xbf819f84	-1.0126805
241	0x3f738892	0.95130265
242	0xbf7da608	-0.9908147
243	0x3d658fe6	0.056045435
244	0x3eca60b8	0.39526916
245	0xbe78ecb7	-0.2430905
246	0x3eb01403	0.34390268
247	0xbe158d5e	-0.14604709
248	0x3e8c693d	0.2742404
249	0xbead2e69	-0.3382447
250	0xbeddcd43	-0.43320665
251	0x3e9d03e4	0.3066703
252	0xbe32fb76	-0.17478737
253	0x3d92e010	0.07171643
254	0xbea80944	-0.3281957
255	0xbe4ab839	-0.19796838

Linear1.bias f4 [256]
0	0x3f4b0034	0.79297185
1	0xbea5c07a	-0.3237341
2	0x3e8348b8	0.25641418
3	0x3e97a176	0.29615372
4	0x3df39a92	0.11894716
5	0x3e56d124	0.20978218
6	0x3e41c90c	0.1892435
7	0x3e577aed	0.21042986
8	0xbdf9f8be	-0.12205647
9	0xbe9559eb	-0.29170164
10	0x3f3c9960	0.7367153
11	0xbe888302	-0.2666245
12	0xbdd11807	-0.10209661
13	0x3e66ce5f	0.22539662
14	0xbec49b15	-0.38399568
15	0xbdcb0bec	-0.09914383
16	0xbd2d551f	-0.042317506
17	0xbe597c26	-0.21238765
18	0xbd9833aa	-0.07431729
19	0x3f56d0af	0.83912176
20	0xbeb28622	-0.3486796
21	0x3eafdcab	0.34348044
22	0x3ebbf01a	0.3670662
23	0x3e7df38d	0.24799938
24	0xbe988527	-0.29789087
25	0x3ed05d1f	0.40696046
26	0x3e13e5a8	0.14443076
27	0xbef9b9b6	-0.487745
28	0x3b2ce21a	0.0026379884
29	0x3e0f6eb8	0.1400708
30	0x3efc07e5	0.49224773
31	0x3eb52d30	0.35386038
32	0xbe3ed454	-0.18635684
33	0xbeaac3b2	-0.3335243
34	0xbd14a65c	-0.036291465
35	0x3dc4226b	0.09576877
36	0xbed2c23e	-0.4116382
37	0xbdd6f1b0	-0.10495317
38	0x3e3eae53	0.18621187
39	0x3eb67851	0.3563867
40	0xbdb99e7e	-0.09063433
41	0xbf0234f7	-0.5086207
42	0xbed43dc3	-0.4145337
43	0xbee801cf	-0.4531388
44	0x3d77621e	0.060396306
45	0xbdf58970	-0.11989105
46	0x3f1488ed	0.5802143
47	0xbe4dd47b	-0.20100586
48	0xbd93f02a	-0.07223542
49	0x3eaa862c	0.3330549
50	0xbe891a4a	-0.2677787
51	0x3e95577d	0.2916831
52	0xbdccda0c	-0.10002527
53	0xbdb0e790	-0.08637917
54	0xbe8a0318	-0.26955485
55	0x3eba0af2	0.36336476
56	0x3e5953e9	0.21223415
57	0xbec5e6b8	-0.38652587
58	0xbebdc31a	-0.37062913
59	0xbe1e6f64	-0.1547218
60	0xbec4d9cc	-0.38447416
61	0xbe84d8a4	-0.25946534
62	0xbeaa67b0	-0.33282232
63	0xbe68d439	-0.22737207
64	0xbea3e51d	-0.32010737
65	0x3ec272d0	0.3797822
66	0x3e69440b	0.22779863
67	0xbf00a701	-0.5025483
68	0xbe2b910f	-0.16754554
69	0x3c25b4ea	0.010113934
70	0x3f2f80f8	0.68556166
71	0xbeceb9e3	-0.40376195
72	0xbcd46ee4	-0.025931783
73	0x3ec2eaf3	0.38069877
74	0xbe33366d	-0.1750123
75	0x3eeed918	0.46650004
76	0xbe29fcec	-0.16600388
77	0x3e1f67aa	0.15566888
78	0x3e5c35f8	0.21504962
79	0x3ebebb9a	0.37252504
80	0x3efb9fad	0.4914526
81	0xbe9ed5c2	-0.3102246
82	0x3d081868	0.0332264
83	0x3d163b0e	0.036677413
84	0xbe99dc48	-0.30050874
85	0x3e7a42e0	0.24439573
86	0x3f06bfd7	0.52636474
87	0xbd48e162	-0.049043067
88	0x3e1fb69c	0.15597004
89	0xbed9c035	-0.42529455
90	0x3e08a7cb	0.13345258
91	0xbf16415e	-0.5869349
92	0xbe8e2f05	-0.27770248
93	0xbec2b620	-0.38029575
94	0xbe756980	-0.23966026
95	0xbed3ee3c	-0.41392696
96	0xbe6d8ae3	-0.23197512
97	0xbe173e7e	-0.14769933
98	0x3cad1df4	0.021132447
99	0xbed2e356	-0.4118907
100	0x3cc464c6	0.023973834
101	0x3e105953	0.14096574
102	0xbda90464	-0.082527906
103	0xbd4c8fb2	-0.049941726
104	0x3f61888d	0.88098985
105	0x3d69609b	0.056976896
106	0xbedb785c	-0.42865264
107	0xbe49eb04	-0.19718558
108	0xbca6b560	-0.020350158
109	0x3dcbfa07	0.09959798
110	0x3e182d7b	0.148611
111	0xbf18c051	-0.5966845
112	0xbde9eb7c	-0.11421868
113	0xbe8bb900	-0.2728958
114	0xbe7b563d	-0.24544616
115	0xbd5235ff	-0.051321026
116	0x3f6063b3	0.8765213
117	0x3e87a951	0.26496366
118	0x3ea06b22	0.31331736
119	0x3e94f7f3	0.2909542
120	0x3e26c379	0.16285504
121	0x3eebb850	0.46039057
122	0xbe39664e	-0.18105432
123	0xbcfd5596	-0.0309246
124	0xbebb147a	-0.3653906
125	0xbebb5ec1	-0.3659573
126	0xbe7fd589	-0.24983801
127	0x3e9468a1	0.28986076
128	0xbed0d54a	-0.40787727
129	0xbee35b69	-0.44405678
130	0xbeacd668	-0.3375733
131	0xbee9601a	-0.45581132
132	0x3dd23c46	0.102654025
133	0x3f206d90	0.6266718
134	0x3e983ef1	0.2973552
135	0xbd94a7e4	-0.07258585
136	0x3eea6a10	0.45784044
137	0x3ee0ec56	0.4393031
138	0xbeacd3f0	-0.33755445
139	0xbda160fb	-0.07879826
140	0x3dba9f4b	0.09112414
141	0xbe568f98	-0.20953214
142	0xbe9f6b58	-0.31136584
143	0x3d0260b0	0.03183049
144	0x3eccfb7f	0.40035626
145	0x3f670289	0.90238243
146	0xbeb2b4c5	-0.3490354
147	0xbe8e0439	-0.27737597
148	0xbe4f6faa	-0.2025744
149	0xbd274ef8	-0.040846795
150	0xbec24e82	-0.37950522
151	0x3f162df8	0.5866389
152	0x3e59488a	0.21219078
153	0x3dcd95cb	0.10038336
154	0x3d9d6d80	0.07686901
155	0xbe9fffac	-0.3124975
156	0x3e7a5c64	0.24449307
157	0xbe1e9039	-0.15484704
158	0xbf0399a9	-0.5140634
159	0x3f0bec53	0.5465748
160	0x3e9d1416	0.30679387
161	0x3d2b8140	0.04187131
162	0xbec7515f	-0.3892927
163	0x3ea23f8f	0.31689116
164	0xbe2b1104	-0.1670571
165	0x3d7cf2e9	0.061755095
166	0xbea81934	-0.32831728
167	0xbd7522b0	-0.059847534
168	0xbe023788	-0.12716496
169	0x3e9ebbb3	0.31002578
170	0xbeabfee8	-0.33592916
171	0x3d37eea5	0.044905324
172	0xbe95b3b9	-0.2923868
173	0xbb38c7da	-0.0028195293
174	0xbee47963	-0.4462386
175	0xbe673fb8	-0.225829
176	0xbedaf7c5	-0.42767158
177	0xbeb910d4	-0.3614565
178	0xbd28965c	-0.04115902
179	0x3dadd366	0.08487587
180	0x3dbb29d5	0.09138838
181	0x3d431dd7	0.04763588
182	0xbed15ac3	-0.40889558
183	0x3e31be07	0.17357646
184	0x3e2201f1	0.15821053
185	0x3ca7f7da	0.020503927
186	0x3ca1cd02	0.019751076
187	0x3f39785a	0.72449267
188	0x3de1e195	0.110293545
189	0xbde7b76e	-0.11314283
190	0x3e625ad1	0.22104956
191	0xbe5d7d4a	-0.21629825
192	0x3e0fede2	0.14055589
193	0x3d200b30	0.03907317
194	0xbe2ce594	-0.16884452
195	0x3da63880	0.08116245
196	0xbd9e44d4	-0.07727972
197	0xbea824ea	-0.32840663
198	0xbdb0f0b5	-0.08639661
199	0xbe745f9e	-0.238646
200	0x3d6501e0	0.05590999
201	0x3cddc77e	0.027072664
202	0x3f22c59a	0.63582766
203	0x3ee2e485	0.44314972
204	0xbd9b6750	-0.07588065
205	0xbe9b927a	-0.3038519
206	0xbd5650a0	-0.052322984
207	0xbe9e7c46	-0.30954188
208	0xbc5cf908	-0.013487108
209	0xbea574cd	-0.32315674
210	0xbe6670a5	-0.22503908
211	0xbeedaaf6	-0.46419495
212	0xbe97de77	-0.29661915
213	0xbecffc37	-0.40622112
214	0x3e212b27	0.15739118
215	0xbe7d022b	-0.24707858
216	0xbe9e6c4e	-0.30942005
217	0x3dc4e325	0.09613637
218	0x3e8c5053	0.27405033
219	0x3e0be295	0.13660653
220	0x3ecc0afa	0.39852124
221	0x3e7252f9	0.23664464
222	0x3f34f729	0.70689636
223	0xbca00163	-0.019531911
224	0xbde27ab7	-0.11058562
225	0x3bd8cc05	0.006616118
226	0xbefed1c7	-0.49769422
227	0x3c783e82	0.015151622
228	0x3e3fcbd2	0.18730095
229	0xbeb6a966	-0.35676116
230	0x3e282f8e	0.1642439
231	0x3eae9f34	0.34105837
232	0xbe12db33	-0.1434143
233	0xbcfcb8df	-0.030849872
234	0x3d9e3eea	0.07726844
235	0x3e937f10	0.28807878
236	0xbe9c8094	-0.30566847
237	0x3f0853ac	0.53252673
238	0x3e551442	0.20808509
239	0xbed31dfb	-0.4123381
240	0x3de75c96	0.11296956
241	0xbdd41a40	-0.10356569
242	0x3dd130ef	0.102144115
243	0x3f073a2c	0.5282314
244	0xbdb2cde0	-0.08730674
245	0xbe2c59c7	-0.16831122
246	0x3f1c1e2f	0.60983557
247	0xbd3dae52	-0.046308823
248	0xbd80ae35	-0.06283227
249	0x3e81fb20	0.25386906
250	0xbebb5c9d	-0.36594096
251	0x3f30374d	0.6883438
252	0xbeed81d8	-0.46388125
253	0xbd880617	-0.066417865
254	0xbdc15b08	-0.09441191
255	0xbdb7366f	-0.08945929

Linear2.weight f4 [3, 256]
0	0x3eb0b0cf	0.34509894
1	0xbd5c8a2b	-0.053842705
2	0x3e91a205	0.28443924
3	0x3e5f0b78	0.21781719
4	0x3ba10820	0.0049142987
5	0x3ed09ebd	0.40746108
6	0x3d8c0521	0.06836916
7	0x3c338061	0.010955901
8	0x3c4f23e8	0.012642838
9	0x3af1e900	0.001845628
10	0x3ec6bfc5	0.38818184
11	0xbd20df6c	-0.03927557
12	0x3d3b7248	0.045763284
13	0xbf19cdd6	-0.60079706
14	0xbc4b1520	-0.012395173
15	0xbdb69586	-0.08915238
16	0xbc3fce68	-0.011706926
17	0x3b37cc28	0.002804527
18	0xbd7d460c	-0.06183438
19	0x3ebf5ea5	0.37376896
20	0xbd71d7e6	-0.059043787
21	0x3df7c131	0.12097395
22	0x3ebce9b7	0.3689706
23	0xbebba98b	-0.3665279
24	0xbe404dd1	-0.18779685
25	0x3ed282a0	0.41115284
26	0x3c899e39	0.01679908
27	0xbc996684	-0.018725641
28	0xbcecdba4	-0.028913327
29	0xbb179c00	-0.0023133755
30	0x3e71ff46	0.23632535
31	0x3e4b301f	0.19842575
32	0x3bd01e20	0.0063512474
33	0xbcaf6670	-0.02141115
34	0x3d33e7d7	0.04392227
35	0xbf1ed433	-0.6204254
36	0xbcc16e04	-0.02361203
37	0x3cff3e08	0.031157508
38	0x3ec58bfe	0.38583368
39	0xbe766393	-0.24061422
40	0x3cccd877	0.025005562
41	0x3db71356	0.08939235
42	0xbcdb76b8	-0.026790008
43	0x3c9fb7d4	0.019496836
44	0x3d3cc1fe	0.046083443
45	0xbd376e02	-0.044782646
46	0x3ec2f60b	0.3807834
47	0x3c5d31e0	0.013500661
48	0xbf3f1885	-0.7464679
49	0xbee3124d	-0.443499
50	0x3c2c2598	0.01050701
51	0x3c45c58c	0.012071025
52	0xbd236a46	-0.039896272
53	0xbb5244a0	-0.003208436
54	0x3c2862fe	0.010277508
55	0x3e7957a0	0.24349833
56	0xbe15deb1	-0.14635731
57	0xbd7c00b6	-0.061524116
58	0x3dc0ecc4	0.094201595
59	0xbd13ab28	-0.0360519
60	0x3d9e67ab	0.07734617
61	0xbeffe2ac	-0.49977624
62	0x3d1cb194	0.03825529
63	0x3da8a812	0.08235182
64	0xbd26b39c	-0.040698633
65	0x3e77330c	0.24140567
66	0xbf0875b8	-0.53304625
67	0x3da060e9	0.07830984
68	0xbe3b1273	-0.18268757
69	0xbeece34d	-0.46267167
70	0x3eb78696	0.35844868
71	0xbb3b95a0	-0.002862312
72	0x3e00b736	0.1256989
73	0x3e449f12	0.19201306
74	0xbf8643a6	-1.0489395
75	0x3eb5d047	0.35510466
76	0xbcf8955e	-0.030344661
77	0x3d99c7a9	0.07508785
78	0x3ecd9efc	0.40160358
79	0x3ed21a41	0.41035655
80	0x3e621d22	0.22081426
81	0xbf575662	-0.84116185
82	0xbd745e00	-0.059659958
83	0x3dc732d4	0.097264916
84	0x3d2206d2	0.039557286
85	0xbd04294e	-0.032265954
86	0x3e8b7e00	0.27244568
87	0xb77f3d96	-1.52135235e-05
88	0xbee5e8c8	-0.4490416
89	0x3d8d4470	0.06897819
90	0x3d9c7d0b	0.076410376
91	0x3d37749e	0.04478895
92	0x3d2ecf20	0.042678
93	0xbd5cff04	-0.05395414
94	0xbd7f6d28	-0.06235996
95	0xbc323070	-0.010875806
96	0x3c9cc564	0.019137092
97	0xbcbd18b0	-0.023083061
98	0xbdf22f7b	-0.118254624
99	0xbd6ac62e	-0.057317905
100	0x3cf1862f	0.029482929
101	0x3d4de5a2	0.050267823
102	0xbb80aee0	-0.0039270967
103	0xbf535bd5	-0.82562
104	0x3eb910c9	0.3614562
105	0x3d4258aa	0.047447838
106	0xbd321b7c	-0.043483242
107	0xbf17cb73	-0.59294814
108	0xbcc109d8	-0.023564264
109	0xbdde7e60	-0.10863948
110	0xbd772c8e	-0.060345225
111	0xbc1098a0	-0.008825451
112	0x3bc98673	0.006150061
113	0x3c8e1ccc	0.017347716
114	0xbd6351e6	-0.055498026
115	0xbeb6e2dc	-0.35719955
116	0x3ebd5e67	0.36986086
117	0xbf084d29	-0.5324274
118	0x3cde4750	0.027133614
119	0x3e69fd3f	0.22850512
120	0xbf0a1576	-0.53938997
121	0x3ed702e4	0.41994393
122	0xbed3d8f2	-0.41376454
123	0x3cd5ae28	0.02608402
124	0x3cc3f4b5	0.023920396
125	0x3d50752c	0.050892994
126	0xbd02c186	-0.03192284
127	0xbdf77f97	-0.12084883
128	0xbe4239cb	-0.18967359
129	0xbba12e49	-0.0049188477
130	0xbd6e771c	-0.05821906
131	0x3d132512	0.035924025
132	0x3e33b674	0.17550069
133	0x3e6b3c18	0.22972143
134	0xbf4f17ef	-0.80895895
135	0xbc92c9f0	-0.017918557
136	0x3e95a69f	0.29228684
137	0x3eb56574	0.35428965
138	0x3d47ccc0	0.04877925
139	0xbcfb87fa	-0.030704487
140	0x3e92da41	0.2868214
141	0xbd59fe85	-0.053221244
142	0x3d1871fa	0.03721807
143	0xbd3b2010	-0.045684874
144	0x3e8b7900	0.27240753
145	0x3ea9cdfe	0.33164972
146	0xbd58a2b8	-0.052889556
147	0xbc5ec4a0	-0.013596684
148	0x3decd63d	0.115643
149	0xbb8f70a5	-0.004377442
150	0x3d8f4918	0.069963634
151	0x3e9e46d6	0.3091342
152	0x3c0f8049	0.008758613
153	0x3b890f2e	0.0041827178
154	0x3c9a0724	0.018802233
155	0x3d4c8b3e	0.04993748
156	0x3ea803b4	0.32815325
157	0xbf2490cd	-0.6428345
158	0x3ccea484	0.025224932
159	0x3edafc2a	0.4277051
160	0x3e755fba	0.23962298
161	0xbcea74f8	-0.028620228
162	0xbd1db812	-0.03850562
163	0x3e848bec	0.25888002
164	0x3b7af6e0	0.0038294122
165	0x3ede3367	0.43398592
166	0x3d2f4615	0.042791445
167	0x3d0330ec	0.032029077
168	0x3d0e2b8d	0.034709502
169	0x3e7751a5	0.24152239
170	0xbd14bb95	-0.036311705
171	0xbda47864	-0.08030775
172	0x3d3d3555	0.04619344
173	0xbd5d47f5	-0.0540237
174	0x3cf40e24	0.029791899
175	0x3d69f5f6	0.057119332
176	0xbd356742	-0.044287927
177	0xbc121c00	-0.0089178085
178	0x3deb03a0	0.11475301
179	0xbe988f02	-0.29796606
180	0x3e52c52c	0.20583028
181	0x3cfc7d9c	0.030821614
182	0xbd332add	-0.04374205
183	0xbf162539	-0.5865055
184	0x3d5ceeb3	0.05393858
185	0x3e3be404	0.183487
186	0x3df6722c	0.12033495
187	0x3ea0a900	0.31378937
188	0x3c4e4070	0.012588605
189	0xbe07ad8b	-0.13249795
190	0x3cf66c8a	0.030081052
191	0xbcc4b388	-0.024011388
192	0x3c36bd31	0.011153505
193	0xbef866fb	-0.48516068
194	0x3bdd53d0	0.006754376
195	0xbd571c80	-0.052517414
196	0x3d781478	0.060566396
197	0x3d2ee3de	0.04269778
198	0x3c8d3640	0.017237782
199	0x3dacb249	0.08432443
200	0x3d4dbd30	0.05022925
201	0x3c6b5980	0.0143646
202	0x3ec711da	0.38880807
203	0x3e5b8870	0.21438766
204	0x3d89cdd4	0.06728712
205	0xbbcec090	-0.0063095763
206	0x3ceac974	0.028660513
207	0x3d8374e5	0.0641878
208	0xbd48c0b4	-0.0490119
209	0xbf018eef	-0.50608724
210	0xba26ac00	-0.00063580275
211	0x3d41e1c6	0.047334455
212	0xbd417a9c	-0.04723607
213	0xbd6187e2	-0.05506123
214	0xbd897a71	-0.06712807
215	0x3c97f778	0.01855062
216	0xbc7cf5d0	-0.015439466
217	0xbbc479ae	-0.0059959507
218	0xbdd14d6b	-0.102198444
219	0xbe24e86f	-0.16104291
220	0x3e7c382d	0.24630804
221	0x3d09c118	0.033631414
222	0x3ea178e2	0.3153754
223	0xbd2993a4	-0.041400567
224	0x3d457466	0.04820671
225	0x3c82b6f0	0.015956372
226	0x3d2b33e1	0.041797522
227	0xbe76f34c	-0.24116248
228	0x3ba03760	0.0048894137
229	0xbd0a7ed8	-0.033812374
230	0x3ce20e64	0.027594753
231	0xbe907f41	-0.28222087
232	0xbe8f2afc	-0.27962482
233	0xbd11360b	-0.03545193
234	0x3e6885ae	0.22707245
235	0x3e246d6d	0.16057368
236	0x3b972950	0.004613079
237	0x3e9b8112	0.3037191
238	0x3ec15fc4	0.37768376
239	0xbbfeecf0	-0.00777971
240	0xbf80f615	-1.0075098
241	0x3cfc22b8	0.030778274
242	0x3c5a11d7	0.013309917
243	0x3e8dd062	0.27698046
244	0x3cf59610	0.029978782
245	0x3ccd3d2c	0.025053583
246	0x3ea6cce7	0.32578203
247	0x3bc718e5	0.0060759657
248	0xbc908a9f	-0.017644225
249	0xbe82c45f	-0.25540444
250	0x3ce9792c	0.028500162
251	0x3ebe4dcb	0.37168726
252	0xbd2ce11c	-0.04220687
253	0x3c0e9d38	0.008704476
254	0x3ce0c3d8	0.027437136
255	0xbc99548f	-0.018717078

Linear2.bias f4 [3]
0	0x3e6b7786	0.22994813
1	0x3e9c87d4	0.3057238
2	0x3e92e4f8	0.28690314
