runs/run9/models/model201.pth (torch, 10959 bytes, 4 tensors)

Linear1.weight f4 [256, 5]
00000000: f86f 073f df8c 593c 5a78 b23e 3074 1e3c
00000010: 6496 87be b28b acbe 0131 6a3e df6c 013e
00000020: dd9b 663e 4279 d4be d713 c13e 52d6 403e
00000030: a47f 1c3f 72e6 fe3d 32f7 18be 6a15 c73e
00000040: 1cdc 613d 10b6 763e fdbc 923e e07e 8a3b
00000050: 4d01 81be abd8 90be 0822 efbe adb0 37be
00000060: b37a 303e 97cd 7b3f 4f3e 023e ddcc 0c3f
00000070: 53d1 8e3c f191 6cbc cf1b c5bd 446f 00be
00000080: 38bc 2bbd e3c1 b8be 5691 0dbf d902 cbbc
00000090: aaf8 10be cdc1 cbbe 66c2 71be de34 39be
000000a0: 395b 433e c8a2 643e c9d9 af3d 0fe7 eebe
000000b0: e214 84be b0bc 4abd 0038 913d 9a2b 38be
000000c0: 903e ddbd 94db b1be 97c7 393f a29b 34be
000000d0: 2d5b b73d 06bb 303d c2f5 3fbe 8863 8dbe
000000e0: b0c8 99bd 659e 8cbe 9ee2 993e 32db a2be
000000f0: 7d28 efbd 1b58 703e f108 8e3e 3734 b6be
00000100: 6ff5 d1be bfcb 69bf d5ba 7e3f 3705 22bf
00000110: e250 fbbe 9ae5 423e 1b51 a0be 3d92 cfbe
00000120: 61d5 973e b933 a23e dcbc edbc 3761 cfbe
00000130: bc52 fdbe a829 d43e ce46 bfbd 4bc2 fcbe
00000140: 6496 ddbd e994 7fbe ef9b f0be bcd1 9cbe
00000150: ccb1 693e 63e4 9cbe 99cd 363e fa09 7e3e
00000160: 9117 753d 1d98 3fbe 6118 4d3e 2518 61be
00000170: 166b 17be f908 02be 0c08 993d 6329 903f
00000180: 5dea 093f f7a2 043e 8b2b aa3e a52d 3bbe
00000190: 24ab 363e 0ad2 003e 51e8 f8bd 9b3a 3ebe
000001a0: 1a74 423e 1701 e93c fce4 c8be a111 b9be
000001b0: 9da6 debe b871 3dbe ae4c 5c3f cf29 f83d
000001c0: d9d6 cc3e ad0c 593e f5fe 63be 2cf4 f43d
000001d0: b443 cf3e 1074 55bf 8299 c6be 3f44 f53d
000001e0: 7c6e 98be 94b8 8a3e 4519 adbe b757 b43e
000001f0: b9ef a8be dcd5 a23f 15fb 333e 95f6 573f
00000200: 5d6a d63e 10d1 ddbc 8246 e63c 56db 9fbe
00000210: bcdc a2be b4d3 bebd 7ad5 fabc dbf7 c83d
00000220: 2aae a73d a42f d5be 0885 b83e 8c84 383e
00000230: 66c1 5fbe dbba efbe 2d55 d43d b569 bdbe
00000240: 8193 293d 90c7 1dbd 3d60 b2be 22e8 a8be
00000250: 4872 71bd b816 1fbe 8d10 7a3a 9db6 da3d
00000260: 818b f13e 7778 f2bd 08eb 96be a96c 023f
00000270: a64c 083e d75d b6be ffe8 703e 34ef ea3d
00000280: 0099 81bc 98d5 b23e 0016 c9bc 3aac 3abe
00000290: c653 12be c490 c3be 1c55 94be f4ed 80bd
000002a0: 90f9 a93e a062 683c 4f68 8fbc 3700 053d
000002b0: 581e e5bc 8d1a 1cbd 2373 d3bd e717 1abf
000002c0: 5ce1 823f f86b 58bf 101d 483d 1c14 1dbd
000002d0: 9061 d83d 207a 35bc d250 7dbe 58d0 3c3e
000002e0: 8753 bdbe 88a8 91be 1fc9 99be 3ca4 88bd
000002f0: 68ef cb3e c2e0 9ebe 6509 763f db04 b43d
00000300: 6c48 7b3e 4cd9 53bd be84 1f3e f295 883e
00000310: f2a5 dc3d 9c39 34bf 70f2 00bd d788 c8be
00000320: 4f65 1c3e f929 c9be f61d 4dbd ff1b 13be
00000330: 7d43 afbd 65c8 083e 87cb 883e df6f db3d
00000340: fd7a 3f3e a386 843d df94 38be 69de bdbd
00000350: 16bd 88be 1771 913e faca 593e 23e6 12bf
00000360: 41cf 103e fd53 07be f21b 2fbd 305f d2bd
00000370: 5d28 e2be ee2f 29be 428c e83d ee30 04bd
00000380: 7553 cabe f4ba 713e a2dc 67be b083 3bbd
00000390: 306e af3d 7de7 7cbe 58d0 2c3f 0110 723e
000003a0: 90fe 133f 686a 37bb bd59 70bd 189d 3cbd
000003b0: eea8 82be 3224 40be 089d f7bd 005d a23e
000003c0: 6dd6 82bf f797 763f bd15 55bf 773c 923d
000003d0: 9611 ec3e 184b 79be 1d6b c13e bd59 d9bd
000003e0: bdb9 943e ff43 9bbe 43cd ddbe e403 9d3e
000003f0: 76fb 32be 10e0 923d 4409 a8be 7d21 2abe
0.52905226 0.013278215 0.34857446 0.009671256 -0.26481926 -0.3370033 0.22870256 0.12639187
0.22520395 -0.41498762 0.3771045 0.18831757 0.61132264 0.12446298 -0.14938048 0.38883525
0.055141553 0.24092889 0.28659812 0.0042265505 -0.25196305 -0.28290305 -0.4670565 -0.1793849
0.17234306 0.9836058 0.12719081 0.55000097 0.017433798 -0.014439092 -0.09624445 -0.12542444
-0.041927546 -0.36085424 -0.5529989 -0.024781631 -0.14157358 -0.39796296 -0.23609313 -0.18086573
0.19077767 0.22327721 0.08586461 -0.4666066 -0.25797182 -0.049496353 0.07090759 -0.17985383
-0.108029485 -0.34737837 0.72570175 -0.17637494 0.08952937 0.04314711 -0.18746093 -0.27615
-0.07508981 -0.27464595 0.30055708 -0.31807858 -0.116776444 0.2347111 0.27741197 -0.35586712
-0.41007563 -0.91326517 0.99503833 -0.6328921 -0.49085146 0.19032899 -0.3131188 -0.40541258
0.29654983 0.31680086 -0.02902072 -0.40503857 -0.49477184 0.4143803 -0.09339677 -0.49366984
-0.108197 -0.24959148 -0.46993968 -0.30628765 0.2282173 -0.30642995 0.17851867 0.24808493
0.059836928 -0.1871037 0.20028831 -0.21981867 -0.14786944 -0.12698735 0.07472238 1.126263
0.53873235 0.12952791 0.33236346 -0.18279131 0.17838722 0.12580124 -0.12153686 -0.18577044
0.18989602 0.028442902 -0.392372 -0.36146262 -0.4348649 -0.18500412 0.86054504 0.12117349
0.40007666 0.21196242 -0.22265227 0.119606346 0.4048134 -0.8338022 -0.38788992 0.119759075
-0.29771793 0.27093947 -0.33808342 0.3522317 -0.32995394 1.2721515 0.17576249 0.8436063
0.41878024 -0.027077228 0.028109793 -0.31222028 -0.31809032 -0.09317723 -0.030619372 0.098129
0.08187516 -0.4163791 0.36038995 0.18019313 -0.2185112 -0.46822247 0.103678085 -0.3699471
0.041400436 -0.038520396 -0.3483905 -0.32989603 -0.058946878 -0.1553601 0.00095392094 0.10679362
0.47176746 -0.11839383 -0.2947619 0.5094705 0.13310489 -0.3561847 0.23526381 0.114714056
-0.015820026 0.34928584 -0.024546623 -0.18229762 -0.1428977 -0.38196385 -0.28971183 -0.06295386
0.33198214 0.01418367 -0.017505793 0.032470908 -0.02796857 -0.03811126 -0.10324695 -0.6019272
1.0225024 -0.8453975 0.04885584 -0.038349256 0.105654836 -0.01107648 -0.24737862 0.18438852
-0.3697779 -0.28448892 -0.30036256 -0.0667195 0.3983109 -0.31030852 0.96108085 0.087899886
0.24539346 -0.051720902 0.15577981 0.266769 0.10773839 -0.70400405 -0.031481206 -0.391669
0.15273021 -0.39289835 -0.0500774 -0.14366148 -0.08557794 0.13357694 0.2671778 0.10714697
0.1869926 0.064709924 -0.1802554 -0.09270937 -0.2670676 0.28406593 0.21268836 -0.5738241
0.14141561 -0.13215633 -0.04275126 -0.10272062 -0.4417142 -0.1652219 0.11354877 -0.032273225
-0.39516798 0.23606473 -0.22642758 -0.045779884 0.085659385 -0.24697681 0.6750541 0.23638918
0.57810307 -0.0027987007 -0.05867933 -0.046048254 -0.25519508 -0.18763807 -0.12090498 0.31711578
-1.0221688 0.9632563 -0.83236295 0.07140439 0.46107167 -0.24345052 0.37777033 -0.10612819
0.29047957 -0.30325314 -0.43320665 0.3066703 -0.17478737 0.07171643 -0.3281957 -0.16614337

Linear1.bias f4 [256]
00000000: eab2 383f 7ac0 a5be bc8a 463e f208 7a3e
00000010: 929a f33d 0dc7 0a3e 0cc9 413e ed7a 573e
00000020: 542f 8dbd eb59 95be 771b 293f 0283 88be
00000030: 0718 d1bd 8c90 8a3e 159b c4be ec0b cbbd
00000040: 1f55 2dbd 267c 59be aa33 98bd 2bdb 423f
00000050: 2286 b2be e203 b03e 3f88 963e f672 953e
00000060: 2785 98be 4221 a83e 0b33 133e b6b9 f9be
00000070: 1ae2 2c3b b86e 0f3e c334 e23e 9b37 983e
00000080: 54d4 3ebe b2c3 aabe 5ca6 14bd 6daf 1e3e
00000090: 3ec2 d2be b0f1 d6bd 09da e63d 6926 be3e
000000a0: 7e9e b9bd f734 02bf c33d d4be cf01 e8be
000000b0: 1e62 773d 7089 f5bd 0e10 013f 7bd4 4dbe
000000c0: 20ba 0a3c 73f0 bf3e 4a1a 89be 329a 823e
000000d0: 0cda ccbd 90e7 b0bd 1803 8abe 993e 9d3e
000000e0: 418e 703e b8e6 c5be 1ac3 bdbe 646f 1ebe
000000f0: ccd9 c4be f4aa 77be b067 aabe 39d4 68be
00000100: 1de5 a3be 5293 a73e eaac 553e 01a7 00bf
00000110: 3881 15be 4ffd d6bc 468e 1c3f e3b9 cebe
00000120: e46e d4bc 8ea8 a93e bba8 4bbe 50d3 c03e
00000130: ecfc 29be aa67 1f3e 4e87 103e 052e 973e
00000140: 1968 e03e c178 a1be 6818 083d 0e3b 163d
00000150: 48dc 99be e042 7a3e 1e6c ee3e 62e1 48bd
00000160: eab3 3b3e 4010 c3be cba7 083e 5e41 16bf
00000170: 052f 8ebe 20b6 c2be 8069 75be 3cee d3be
00000180: e38a 6dbe 7e3e 17be fa29 2f3c 56e3 d2be
00000190: c664 c43c c1ff a73d 6404 a9bd 723d 27be
000001a0: 495a 4e3f 9b60 693d 5c78 dbbe 8004 3cbe
000001b0: 60b5 a6bc b578 fa3d 7b2d 183e 51c0 18bf
000001c0: 7ceb e9bd 00b9 8bbe 3d56 7bbe 6f39 91bc
000001d0: c3cc 4c3f 4e25 8b3e 226b a03e 9399 663e
000001e0: 1f96 583e 9d29 c23e bbc6 3bbe 9655 fdbc
000001f0: 7a14 bbbe c15e bbbe 89d5 7fbe b3e8 7e3e
00000200: 4ad5 d0be 4c1c edbe 68d6 acbe 1a60 e9be
00000210: f9c9 333d 1062 123f 666f 7a3e e4a7 94bd
00000220: 07da c53e 4740 bb3e f0d3 acbe fb60 a1bd
00000230: 763b 623c 988f 56be 586b 9fbe b060 023d
00000240: 3338 ab3e c3f1 543f c5b4 b2be 3904 8ebe
00000250: aa6f 4fbe f84e 27bd 824e c2be 2053 053f
00000260: 841a 393e cb95 cd3d 806d 9d3d acff 9fbe
00000270: c162 353e c657 dcbd b983 fcbe 4fa1 ee3e
00000280: b25c 5b3e 4081 2b3d 5f51 c7be c1cb 6e3e
00000290: 0411 2bbe c0e5 65bc 3419 a8be b022 75bd
000002a0: 8837 02be b384 813e e8fe abbe a5ee 373d
000002b0: b9b3 95be dac7 38bb 6379 e4be b83f 67be
000002c0: c5f7 dabe d410 b9be 5c96 28bd 0c06 d83d
000002d0: fe21 333d d71d 433d c35a d1be 9cc8 8b3e
000002e0: f101 223e 1021 c4bc 02cd a13c f8c1 283f
000002f0: dc87 1d3e 6eb7 e7bd d15a 623e 4a7d 5dbe
00000300: 59b6 0f3e 996a 9a3d 94e5 2cbe 8038 a63d
00000310: d444 9ebd ea24 a8be b5f0 b0bd 9e5f 74be
00000320: e001 653d 7ec7 dd3c a3b9 0f3f c460 ca3e
00000330: 5067 9bbd 7a92 9bbe a050 56bd 467c 9ebe
00000340: 08f9 5cbc 1cd4 adbe a570 66be f6aa edbe
00000350: 77de 97be 37fc cfbe 05af a03d 2b02 7dbe
00000360: 4e6c 9ebe 25e3 c43d c23f 8c3e 5c5a 3a3e
00000370: c525 af3e f952 723e e84d 243f 6301 a0bc
00000380: b77a e2bd 05cc d83b c7d1 febe 2782 80bd
00000390: d2cb 3f3e 66a9 b6be 8e2f 283e eb59 a03e
000003a0: 0138 3fbe dfb8 fcbc bcaf ae3c c948 823e
000003b0: 9480 9cbe 7f7b ef3e 32f5 0d3e fb1d d3be
000003c0: 030b d03d 401a d4bd ef30 d13d 0026 ee3e
000003d0: e0cd b2bd c759 2cbe ada4 0a3f 52ae 3dbd
000003e0: 15ad 80bd db5c 903e 9d5c bbbe 969c 1d3f
000003f0: 187e efbe 1706 88bd 085b c1bd 6f36 b7bd
0.72148 -0.3237341 0.1938886 0.24417475 0.11894716 0.13552494 0.1892435 0.21042986
-0.06893793 -0.29170164 0.66057533 -0.2666245 -0.10209661 0.27063406 -0.38399568 -0.09914383
-0.042317506 -0.21238765 -0.07431729 0.76115674 -0.3486796 0.34377962 0.29400823 0.2918927
-0.29789087 0.32837874 0.1437494 -0.487745 0.0026379884 0.1400708 0.4418088 0.29729924
-0.18635684 -0.3335243 -0.036291465 0.15496607 -0.4116382 -0.10495317 0.11272056 0.3713868
-0.09063433 -0.5086207 -0.4145337 -0.4531388 0.060396306 -0.11989105 0.5041512 -0.20100586
0.008467227 0.37488136 -0.2677787 0.25508267 -0.10002527 -0.08637917 -0.26955485 0.3071182
0.23491766 -0.38652587 -0.37062913 -0.1547218 -0.38447416 -0.24186307 -0.33282232 -0.22737207
-0.32010737 0.32729584 0.20866743 -0.5025483 -0.14600074 -0.026243834 0.6115459 -0.40376195
-0.025931783 0.3313641 -0.19888584 0.3766122 -0.16600388 0.15566888 0.14114115 0.29527298
0.4382942 -0.3153744 0.0332264 0.036677413 -0.30050874 0.24439573 0.46566862 -0.049043067
0.1833035 -0.38098335 0.13345258 -0.5869349 -0.27770248 -0.38029575 -0.23966026 -0.41392696
-0.23197512 -0.14769933 0.01069116 -0.4118907 0.023973834 0.08203078 -0.082527906 -0.16332033
0.80606514 0.056976896 -0.42865264 -0.18361092 -0.020350158 0.12230054 0.148611 -0.5966845
-0.11421868 -0.2728958 -0.24544616 -0.017727582 0.7999994 0.271769 0.31331736 0.22519521
0.21151017 0.37922373 -0.18337528 -0.0309246 -0.3653906 -0.3659573 -0.24983801 0.24893455
-0.40787727 -0.4631065 -0.3375733 -0.45581132 0.043893788 0.5718088 0.24456558 -0.07258585
0.38642904 0.36572477 -0.33755445 -0.07879826 0.013808122 -0.20953214 -0.31136584 0.03183049
0.33441314 0.831814 -0.3490354 -0.27737597 -0.2025744 -0.040846795 -0.37950522 0.52079964
0.18076521 0.10038336 0.07686901 -0.3124975 0.17713453 -0.10758929 -0.49319246 0.46607444
0.21422079 0.04187131 -0.3892927 0.23319913 -0.1670571 -0.014031827 -0.32831728 -0.059847534
-0.12716496 0.25296554 -0.33592916 0.044905324 -0.2923868 -0.0028195293 -0.4462386 -0.225829
-0.42767158 -0.3614565 -0.04115902 0.10548028 0.04373359 0.04763588 -0.40889558 0.2730149
0.15821053 -0.023941547 0.019751076 0.6592097 0.15383857 -0.11314283 0.22104956 -0.21629825
0.14034404 0.07539863 -0.16884452 0.08116245 -0.07727972 -0.32840663 -0.08639661 -0.238646
0.05590999 0.027072664 0.56142634 0.3952695 -0.07588065 -0.3038519 -0.052322984 -0.30954188
-0.013487108 -0.3395089 -0.22503908 -0.46419495 -0.29661915 -0.40622112 0.07845882 -0.24707858
-0.30942005 0.09613637 0.27392393 0.18198532 0.34208503 0.23664464 0.64181376 -0.019531911
-0.11058562 0.006616118 -0.49769422 -0.062748246 0.18730095 -0.35676116 0.1642439 0.31318602
-0.18673708 -0.030849872 0.021324031 0.25446156 -0.30566847 0.46773908 0.13863066 -0.4123381
0.1015835 -0.10356569 0.102144115 0.46513367 -0.08730674 -0.16831122 0.54157525 -0.046308823
-0.06283013 0.28195843 -0.36594096 0.61567056 -0.4677589 -0.066417865 -0.09441191 -0.08945929

Linear2.weight f4 [3, 256]
00000000: 7ac2 a23e 2b8a 5cbd 69c4 873e 6afa 4e3e
00000010: 2008 a13b 7b63 cf3e 2105 8c3d 6180 333c
00000020: e823 4f3c 00e9 f13a 3d30 be3e 6cdf 20bd
00000030: 4872 3b3d f801 20bf 2015 4bbc 8695 b6bd
00000040: 68ce 3fbc 28cc 373b 0c46 7dbd 7943 b43e
00000050: e6d7 71bd 4d7e f93d 908a b93e cbbc 81be
00000060: d14d 40be f05a ce3e f9d1 893c 8466 99bc
00000070: a4db ecbc 009c 17bb e491 3e3e c421 3a3e
00000080: 201e d03b 7066 afbc d7e7 333d 6874 1cbf
00000090: 046e c1bc 083e ff3c 4768 c53e 117e 74bd
000000a0: 77d8 cc3c 5613 b73d b876 dbbc d4b7 9f3c
000000b0: fec1 3c3d 026e 37bd 199f b63e e031 5d3c
000000c0: 656c 3fbf 809b 03bf 9825 2c3c d2d9 963b
000000d0: 466a 23bd a044 52bb fe62 283c 745d 603e
000000e0: d605 94bd b600 7cbd c4ec c03d 28ab 13bd
000000f0: ab67 9e3d e554 7fbe 94b1 1c3d 12a8 a83d
00000100: 9cb3 26bd 0641 403e fb10 8fbe e960 a03d
00000110: d7c0 2ebe d09b b7bd 3a88 ab3e a095 3bbb
00000120: 36b7 003e 38d2 353e b9ec 39bf e4e8 ae3e
00000130: 5e95 f8bc a9c7 993d 2731 ce3e 0be4 c93e
00000140: 4a6f 563e df0b 28bf 005e 74bd d432 c73d
00000150: d206 223d 4e29 04bd 5392 873e 963d 7fb7
00000160: 16ee e5be 670e 9c3d 0b7d 9c3d 9e74 373d
00000170: 20cf 2e3d 04ff 5cbd 286d 7fbd 7030 32bc
00000180: 64c5 9c3c b018 bdbc 9ba7 e5bd 2ec6 6abd
00000190: 2f86 f13c a82e 7f3d e0ae 80bb cfd4 9ebe
000001a0: c805 aa3e aa58 423d 7c1b 32bd d384 f3be
000001b0: d809 c1bc 90df c1bd 8e2c 77bd a098 10bc
000001c0: 7386 c93b cc1c 8e3c e651 63bd e0f0 c1be
000001d0: 237e b53e 7362 a3be 5047 de3c c51c 5e3e
000001e0: 216c f9be 6850 ce3e 1e53 0fbe 28ae d53c
000001f0: b5f4 c33c 2c75 503d 86c1 02bd 0331 053d
00000200: cb39 42be 5708 27bc 1c77 6ebd 1225 133d
00000210: bccd 3c3e 3a16 4e3e ee09 e7be f0c9 92bc
00000220: 65f5 8e3e 86d1 af3e c0cc 473d fa87 fbbc
00000230: bef2 893e 85fe 59bd fa71 183d 1020 3bbd
00000240: 14fd 813e e9d2 993e b8a2 58bd a0c4 5ebc
00000250: 3dd6 ec3d a570 8fbb 1849 8f3d 8789 8f3e
00000260: cf4f 223c 2e0f 893b 2407 9a3c 3e8b 4c3d
00000270: 25b1 ab3e 70b1 14bf 98c6 493d 9417 d13e
00000280: 3b96 663e f874 eabc 12b8 1dbd 7061 7a3e
00000290: e0f6 7a3b c184 df3e 1546 2f3d ec30 033d
000002a0: 8d2b 0e3d 6e25 7e3e 95bb 14bd 6478 a4bd
000002b0: 5535 3d3d f547 5dbd 240e f43c f6f5 693d
000002c0: 4267 35bd 001c 12bc a003 eb3d 225b 92be
000002d0: 46bb 3e3e 9c7d fc3c dd2a 33bd 841d 15bf
000002e0: b3ee 5c3d a07f 323e 2c72 f63d e327 8d3e
000002f0: 7040 4e3c 8bad 07be 8a6c f63c 88b3 c4bc
00000300: fe88 373c 07a1 aebe d053 dd3b 801c 57bd
00000310: 7814 783d dee3 2e3d 4036 8d3c 49b2 ac3d
00000320: 30bd 4d3d 8059 6b3c ef51 bd3e a4ae 463e
00000330: d4cd 893d 90c0 cebb 74c9 ea3c e574 833d
00000340: b4c0 48bd 39fc eebe 00ac 26ba c6e1 413d
00000350: 9c7a 41bd e287 61bd 8bbb 193b 78f7 973c
00000360: d0f5 7cbc ae79 c4bb e543 d1bd 12f4 833a
00000370: 921a 6a3e 18c1 093d 717b 8d3e a493 29bd
00000380: 6674 453d f0b6 823c e133 2b3d 337b 45bd
00000390: 6037 a03b d87e 0abd 640e e23c 568d 65be
000003a0: eb6b 29be 0b36 11bd 52fc 763e f400 143e
000003b0: 5029 973b 9f3c 8b3e cea1 c43e f0ec febb
000003c0: 908b 41bf b822 fc3c d711 5a3c fbe9 823e
000003d0: 1096 f53c 2c3d cd3c 234f 913e e518 c73b
000003e0: 628a 90bc 0fcd a6be 2c79 e93c ed8c b93e
000003f0: f90f 2dbd 389d 0e3c d8c3 e03c 8f54 99bc
0.31789 -0.053842705 0.26517037 0.20212713 0.0049142987 0.40505585 0.06836916 0.010955901
0.012642838 0.001845628 0.37146178 -0.03927557 0.045763284 -0.62503004 -0.012395173 -0.08915238
-0.011706926 0.002804527 -0.06183438 0.35207728 -0.059043787 0.12182293 0.36238527 -0.2533935
-0.18779685 0.40303755 0.016823756 -0.018725641 -0.028913327 -0.0023133755 0.1861034 0.18176943
0.0063512474 -0.02141115 0.04392227 -0.6111512 -0.02361203 0.031157508 0.3855612 -0.05969054
0.025005562 0.08939235 -0.026790008 0.019496836 0.046083443 -0.044782646 0.35668257 0.013500661
-0.7477477 -0.5140915 0.01050701 0.004603603 -0.039896272 -0.003208436 0.010277508 0.2191065
-0.072276756 -0.061524116 0.094201595 -0.0360519 0.07734617 -0.24934728 0.03825529 0.08235182
-0.040698633 0.18774804 -0.27942643 0.07830984 -0.1706575 -0.08965266 0.3350237 -0.002862312
0.1256989 0.17755973 -0.72626835 0.34162056 -0.030344661 0.07508785 0.40271875 0.39431795
0.20940891 -0.65643114 -0.059659958 0.097264916 0.039557286 -0.032265954 0.26478824 -1.52135235e-05
-0.44908208 0.076199345 0.076410376 0.04478895 0.042678 -0.05395414 -0.06235996 -0.010875806
0.019137092 -0.023083061 -0.11213609 -0.057317905 0.029482929 0.062300354 -0.0039270967 -0.31021735
0.33207536 0.047447838 -0.043483242 -0.47562274 -0.023564264 -0.09466469 -0.060345225 -0.008825451
0.006150061 0.017347716 -0.055498026 -0.37879086 0.35447797 -0.31911048 0.027133614 0.21690662
-0.48715308 0.4029572 -0.1399655 0.02608402 0.023920396 0.050892994 -0.03192284 0.032517444
-0.18967359 -0.0101948595 -0.05821906 0.035924025 0.18437856 0.20125666 -0.45124763 -0.017918557
0.27921596 0.3433954 0.04877925 -0.030704487 0.2694301 -0.053221244 0.03721807 -0.045684874
0.25388396 0.30043724 -0.052889556 -0.013596684 0.115643 -0.004377442 0.069963634 0.28034613
0.009906723 0.0041827178 0.018802233 0.04993748 0.33533588 -0.5808325 0.04926166 0.408383
0.22518246 -0.028620228 -0.03850562 0.24451232 0.0038294122 0.4365597 0.042791445 0.032029077
0.034709502 0.24818966 -0.036311705 -0.08030775 0.04619344 -0.0540237 0.029791899 0.057119332
-0.044287927 -0.0089178085 0.11475301 -0.28585154 0.18626127 0.030821614 -0.04374205 -0.5824816
0.05393858 0.17431498 0.12033495 0.27569494 0.012588605 -0.13249795 0.030081052 -0.024011388
0.011202095 -0.3410723 0.006754376 -0.052517414 0.060566396 0.04269778 0.017237782 0.08432443
0.05022925 0.0143646 0.36976573 0.19402558 0.06728712 -0.0063095763 0.028660513 0.0641878
-0.0490119 -0.46676806 -0.00063580275 0.047334455 -0.04723607 -0.05506123 0.0023457732 0.01855062
-0.015439466 -0.0059959507 -0.10218028 0.0010067245 0.22861698 0.033631414 0.2763324 -0.041400567
0.04820671 0.015956372 0.041797522 -0.048213195 0.0048894137 -0.033812374 0.027594753 -0.22417197
-0.16545074 -0.03545193 0.2411969 0.14453489 0.004613079 0.27194688 0.38404697 -0.00777971
-0.7560358 0.030778274 0.013309917 0.25569138 0.029978782 0.025053583 0.2838069 0.0060759657
-0.017644111 -0.32578322 0.028500162 0.3624033 -0.04225156 0.008704476 0.027437136 -0.018717078

Linear2.bias f4 [3]
00000000: f951 453e b952 963e ee0c 823e
0.19269551 0.29359987 0.2540049
