runs/run9/models/model1001.pth (torch, 10959 bytes, 4 tensors)

Linear1.weight f4 [256, 5]
000000 a2 24 9d 3e 8c ab a2 3e b3 80 99 3e 18 70 c0 bc
       0.3069201 0.31771505 0.29981002 -0.02349095
000010 af b1 db bd b2 8b ac be 01 31 6a 3e df 6c 01 3e
       -0.1072725 -0.3370033 0.22870256 0.12639187
000020 dd 9b 66 3e 42 79 d4 be f9 cc 15 3e 6f 08 f7 3e
       0.22520395 -0.41498762 0.14628972 0.48248622
000030 7c 7f 0d 3f fe fd ac 3d 97 ef 86 ba d9 7d 14 3e
       0.5527265 0.08446883 -0.0010294792 0.14501132
000040 92 a5 ac 3e a0 a2 2b 3e 76 7c 6e 3e 80 02 0e 3e
       0.3372007 0.16761255 0.23289666 0.13868141
000050 21 e2 80 be b7 55 8f be 20 e0 ee be de 11 37 be
       -0.25172523 -0.27995083 -0.4665537 -0.1787791
000060 1b 07 31 3e d7 31 46 3f b1 39 d9 3e 0c 47 03 3f
       0.17287867 0.774198 0.42426828 0.51280284
000070 c0 6a ec ba 04 08 0d 3e cf 1b c5 bd 44 6f 00 be
       -0.0018037185 0.13772589 -0.09624445 -0.12542444
000080 38 bc 2b bd e3 c1 b8 be 56 91 0d bf 0f 0c 0e bd
       -0.041927546 -0.36085424 -0.5529989 -0.03467947
000090 0f 87 18 be 5e c3 cf be 4f 64 7b be 9e db 42 be
       -0.14895271 -0.4057874 -0.24549983 -0.1902909
0000a0 ae 30 10 3e 2b 32 1b 3e f4 ec 8f 3d a6 87 fb be
       0.1408107 0.15155856 0.07027617 -0.4912693
0000b0 88 e7 97 be b0 bc 4a bd 00 38 91 3d 9a 2b 38 be
       -0.29668832 -0.049496353 0.07090759 -0.17985383
0000c0 90 3e dd bd 94 db b1 be 38 33 02 3f 28 e5 04 3e
       -0.108029485 -0.34737837 0.50859404 0.12978041
0000d0 46 0e 45 3d ae 1f 94 3c b6 3e e7 bc 88 63 8d be
       0.048109315 0.018081512 -0.028228145 -0.27615
0000e0 b0 c8 99 bd 65 9e 8c be 9e e2 99 3e 32 db a2 be
       -0.07508981 -0.27464595 0.30055708 -0.31807858
0000f0 7d 28 ef bd 1b 58 70 3e f1 08 8e 3e 37 34 b6 be
       -0.116776444 0.2347111 0.27741197 -0.35586712
000100 6f f5 d1 be 75 99 53 bf 46 dc 84 3f 98 32 56 bf
       -0.41007563 -0.8265603 1.0379722 -0.8367095
000110 87 70 f7 be ad 11 11 3e e2 cf 97 be 9b 6a c6 be
       -0.4832804 0.14166899 -0.2965079 -0.3875321
000120 01 fd a0 3e 1f 7a ab 3e 10 9d 2b bc 37 61 cf be
       0.31443027 0.33491609 -0.010474458 -0.40503857
000130 bc 52 fd be a8 29 d4 3e ce 46 bf bd 4b c2 fc be
       -0.49477184 0.4143803 -0.09339677 -0.49366984
000140 64 96 dd bd e9 94 7f be ef 9b f0 be bc d1 9c be
       -0.108197 -0.24959148 -0.46993968 -0.30628765
000150 cc b1 69 3e 63 e4 9c be 99 cd 36 3e fa 09 7e 3e
       0.2282173 -0.30642995 0.17851867 0.24808493
000160 91 17 75 3d 1d 98 3f be 61 18 4d 3e 25 18 61 be
       0.059836928 -0.1871037 0.20028831 -0.21981867
000170 16 6b 17 be f9 08 02 be 0c 08 99 3d 9f 6e 68 3f
       -0.14786944 -0.12698735 0.07472238 0.90793794
000180 de 00 59 3f 56 c9 ac 3d c9 d5 9a 3e c5 ec b0 bc
       0.8476695 0.08436839 0.3024123 -0.021597276
000190 24 ab 36 3e 0a d2 00 3e 51 e8 f8 bd 9b 3a 3e be
       0.17838722 0.12580124 -0.12153686 -0.18577044
0001a0 1a 74 42 3e 10 29 03 3d 70 05 c6 be 8b 01 b7 be
       0.18989602 0.032021582 -0.38676023 -0.35743365
0001b0 30 5f dd be 45 85 38 be 23 a0 24 3f 34 b6 d7 3e
       -0.43236685 -0.18019588 0.6430685 0.42131197
0001c0 e0 97 b6 3e 44 dd 3e 3e 8e cb 8b bd 40 30 02 3f
       0.35662746 0.18639094 -0.06825934 0.50854874
0001d0 e6 3b fe 3e 00 47 87 bf e6 15 b7 be 52 62 e6 3d
       0.49655074 -1.0568542 -0.35758895 0.11249222
0001e0 3b 6f 99 be a3 b7 89 3e 39 16 ae be 7d 56 b3 3e
       -0.29967675 0.26897916 -0.3400133 0.35026923
0001f0 e1 ea a9 be 86 bb 87 3f e9 47 f7 3e b7 22 4d 3f
       -0.3318701 1.0604103 0.4829705 0.80131096
000200 2d 67 ca 3e 63 7e 08 3e 5f d0 e4 3b 9f 60 a3 be
       0.39531842 0.13329463 0.0069828476 -0.31909654
000210 2f 37 a6 be 66 b2 dd bd 7a cf 5c bd db f7 c8 3d
       -0.32463977 -0.108250424 -0.053908803 0.098129
000220 2a ae a7 3d a4 2f d5 be 08 85 b8 3e 8c 84 38 3e
       0.08187516 -0.4163791 0.36038995 0.18019313
000230 66 c1 5f be db ba ef be 2d 55 d4 3d b5 69 bd be
       -0.2185112 -0.46822247 0.103678085 -0.3699471
000240 81 93 29 3d 90 c7 1d bd 3d 60 b2 be 22 e8 a8 be
       0.041400436 -0.038520396 -0.3483905 -0.32989603
000250 48 72 71 bd b8 16 1f be b1 76 75 be c5 cc c7 3e
       -0.058946878 -0.1553601 -0.23971058 0.39023414
000260 8b f2 d2 3e 4c 6d 27 be 68 7f 1b be c4 f2 85 3e
       0.4120067 -0.16350287 -0.1518532 0.26161778
000270 6a 98 d4 3e 84 a6 db be 9b b0 33 3e 48 1a 78 3e
       0.41522533 -0.4290048 0.17547838 0.24228776
000280 cc b5 08 bd 50 d8 a9 3e 4d 74 2c bd a1 a6 4c be
       -0.0333765 0.33172846 -0.0421031 -0.19985439
000290 3c 4e 24 be c4 90 c3 be 1c 55 94 be f4 ed 80 bd
       -0.16045469 -0.38196385 -0.28971183 -0.06295386
0002a0 90 f9 a9 3e a0 62 68 3c 4f 68 8f bc 37 00 05 3d
       0.33198214 0.01418367 -0.017505793 0.032470908
0002b0 58 1e e5 bc 8d 1a 1c bd 23 73 d3 bd 6f 52 05 bf
       -0.02796857 -0.03811126 -0.10324695 -0.5207891
0002c0 45 bc 86 3f 94 15 8e bf d8 17 34 3d b4 b4 d0 bd
       1.0526205 -1.1100335 0.04396805 -0.101907164
0002d0 90 61 d8 3d 20 7a 35 bc d2 50 7d be 58 d0 3c 3e
       0.105654836 -0.01107648 -0.24737862 0.18438852
0002e0 87 53 bd be 33 cf 98 be ca ef a0 be 13 3f a5 bd
       -0.3697779 -0.2984558 -0.31432945 -0.08068671
0002f0 b9 c8 c4 3e ec 05 a6 be 6d c8 3f 3f d9 d7 c3 3e
       0.3843439 -0.32426393 0.749152 0.38250616
000300 62 4b 57 3e 87 0e 90 bd 64 40 9c 3e c9 98 1e 3f
       0.2102485 -0.07034021 0.30517876 0.6195188
000310 8f 30 44 3e 77 d3 68 bf 22 99 08 bb 07 d3 c0 be
       0.19159149 -0.9094767 -0.0020843227 -0.37661
000320 4f 65 1c 3e f9 29 c9 be f6 1d 4d bd ff 1b 13 be
       0.15273021 -0.39289835 -0.0500774 -0.14366148
000330 7d 43 af bd 65 c8 08 3e 87 cb 88 3e df 6f db 3d
       -0.08557794 0.13357694 0.2671778 0.10714697
000340 fd 7a 3f 3e a3 86 84 3d df 94 38 be 69 de bd bd
       0.1869926 0.064709924 -0.1802554 -0.09270937
000350 16 bd 88 be 17 71 91 3e fa ca 59 3e 23 e6 12 bf
       -0.2670676 0.28406593 0.21268836 -0.5738241
000360 41 cf 10 3e fd 53 07 be f2 1b 2f bd 30 5f d2 bd
       0.14141561 -0.13215633 -0.04275126 -0.10272062
000370 5d 28 e2 be ee 2f 29 be 42 8c e8 3d ee 30 04 bd
       -0.4417142 -0.1652219 0.11354877 -0.032273225
000380 75 53 ca be 31 4f 75 3e 67 48 64 be d5 32 2d bd
       -0.39516798 0.2395599 -0.22293244 -0.042284805
000390 9f 96 b6 3d 40 53 79 be d4 3a ea 3e 20 9d 0b 3f
       0.089154474 -0.24348164 0.45748007 0.5453663
0003a0 1d 63 08 3f 52 24 05 bd fd 52 d1 3d 18 9d 3c bd
       0.53276235 -0.03250534 0.10220907 -0.046048254
0003b0 ee a8 82 be 32 24 40 be 08 9d f7 bd 00 5d a2 3e
       -0.25519508 -0.18763807 -0.12090498 0.31711578
0003c0 6b 6b 7f bf 32 42 7a 3f f4 fe 86 bf 6f 1a 87 3d
       -0.9977328 0.97757256 -1.0546556 0.06596839
0003d0 b4 f6 ca 3e 1f 2a 78 be 6d 19 a9 3e b0 20 3a be
       0.39641345 -0.24234818 0.3302721 -0.18176532
0003e0 3d 9c 79 3e f7 da b5 be 43 cd dd be e4 03 9d 3e
       0.24376006 -0.3551862 -0.43320665 0.3066703
0003f0 76 fb 32 be 10 e0 92 3d 44 09 a8 be e1 31 56 be
       -0.17478737 0.07171643 -0.3281957 -0.20917465

Linear1.bias f4 [256]
000000 03 21 69 3f 7a c0 a5 be 46 54 be 3e 9f b6 d0 3e
       0.91065997 -0.3237341 0.3717367 0.4076433
000010 2c a2 f4 3d 0d e0 a4 3e 0c c9 41 3e 81 80 4d 3e
       0.11944994 0.32202187 0.1892435 0.20068552
000020 be f8 f9 bd eb 59 95 be f1 a0 5a 3f 02 83 88 be
       -0.12205647 -0.29170164 0.8540183 -0.2666245
000030 07 18 d1 bd 21 a2 5b 3e 74 73 bb be ec 0b cb bd
       -0.10209661 0.21448566 -0.3661152 -0.09914383
000040 1f 55 2d bd 26 7c 59 be aa 33 98 bd 63 27 75 3f
       -0.042317506 -0.21238765 -0.07431729 0.95763224
000050 22 86 b2 be d2 6f b1 3e 9b e3 f6 3e 29 3a 8a 3e
       -0.3486796 0.34655625 0.48220524 0.26997498
000060 13 86 99 be 24 2a 06 3f 39 56 fd 3d b6 b9 f9 be
       -0.29985103 0.5240805 0.12369961 -0.487745
000070 1a e2 2c 3b b8 6e 0f 3e d2 15 1b 3f b4 f9 eb 3e
       0.0026379884 0.1400708 0.6058017 0.46088946
000080 e8 ce 50 be b2 c3 aa be 5c a6 14 bd 16 a0 7a 3d
       -0.20391428 -0.3335243 -0.036291465 0.061187826
000090 3e c2 d2 be 86 8c f3 bd 17 7e 98 3e 9b 57 b3 3e
       -0.4116382 -0.11892037 0.297837 0.35027775
0000a0 7e 9e b9 bd f7 34 02 bf c3 3d d4 be cf 01 e8 be
       -0.09063433 -0.5086207 -0.4145337 -0.4531388
0000b0 1e 62 77 3d 01 61 ee bd 30 e3 32 3f 7b d4 4d be
       0.060396306 -0.11639596 0.6987791 -0.20100586
0000c0 f0 ac 9b bd 7b c2 9d 3e 4a 1a 89 be 9b b4 92 3e
       -0.076013446 0.3081244 -0.2677787 0.28653416
0000d0 0c da cc bd 90 e7 b0 bd a9 3a 90 be ee 5c f3 3e
       -0.10002527 -0.08637917 -0.28169754 0.47531837
0000e0 ea 11 9c 3e b8 e6 c5 be 1a c3 bd be 64 6f 1e be
       0.30482417 -0.38652587 -0.37062913 -0.1547218
0000f0 cc d9 c4 be 4d a5 88 be b0 67 aa be 39 d4 68 be
       -0.38447416 -0.26688614 -0.33282232 -0.22737207
000100 1d e5 a3 be 4b d9 fc 3e 2f 79 6e 3e 01 a7 00 bf
       -0.32010737 0.4938453 0.23288415 -0.5025483
000110 03 08 30 be 88 4d 20 3d c4 b8 4d 3f e3 b9 ce be
       -0.17190556 0.03913644 0.80360055 -0.40376195
000120 97 ed 43 bd 5d 20 fb 3e e8 2e 4b be 34 bb 13 3f
       -0.047834005 0.4904813 -0.19842112 0.57707524
000130 ec fc 29 be 12 21 1b 3e 27 6a a7 3e 74 1e fa 3e
       -0.16600388 0.15149334 0.32698175 0.4885136
000140 81 14 1a 3f ae 8e a8 be 68 18 08 3d fc be a9 3d
       0.60187536 -0.32921356 0.0332264 0.082883805
000150 48 dc 99 be e0 42 7a 3e d6 cc 23 3f 9d ad 6c bd
       -0.30050874 0.24439573 0.6398443 -0.057782758
000160 07 c1 53 3e 35 c0 d9 be cb a7 08 3e 5e 41 16 bf
       0.20679103 -0.42529455 0.13345258 -0.5869349
000170 05 2f 8e be 20 b6 c2 be 80 69 75 be 3c ee d3 be
       -0.27770248 -0.38029575 -0.23966026 -0.41392696
000180 e3 8a 6d be 7e 3e 17 be 1b 0f 1a 3d 56 e3 d2 be
       -0.23197512 -0.14769933 0.037612062 -0.4118907
000190 c6 64 c4 3c c1 77 44 3e 64 04 a9 bd 64 c8 b2 bd
       0.023973834 0.19186307 -0.082527906 -0.08729628
0001a0 1f eb 7f 3f 4c 54 44 3d 5c 78 db be b8 e1 44 be
       0.9996814 0.047931954 -0.42865264 -0.1922673
0001b0 60 b5 a6 bc 4f 16 c3 3d 7b 2d 18 3e 51 c0 18 bf
       -0.020350158 0.095257394 0.148611 -0.5966845
0001c0 7c eb e9 bd 00 b9 8b be 3d 56 7b be d9 4e 8c bd
       -0.11421868 -0.2728958 -0.24544616 -0.068509765
0001d0 71 9e 7e 3f be af 6c 3e 22 6b a0 3e 26 52 cc 3e
       0.9946051 0.23113915 0.31331736 0.39906424
0001e0 5e 6a 5a 3e e7 41 14 3f 6c 80 3e be 96 55 fd bc
       0.21329638 0.5791306 -0.18603677 -0.0309246
0001f0 7a 14 bb be c1 5e bb be 89 d5 7f be 18 3e a8 3e
       -0.3653906 -0.3659573 -0.24983801 0.32859874
000200 4a d5 d0 be 28 cd eb be 68 d6 ac be 1a 60 e9 be
       -0.40787727 -0.4605496 -0.3375733 -0.45581132
000210 4d 94 50 3e 4d 4c 3d 3f b3 cd a2 3e e4 a7 94 bd
       0.20369072 0.7394455 0.3179756 -0.07258585
000220 3f 2f 12 3f 79 24 0e 3f f0 d3 ac be fb 60 a1 bd
       0.5710334 0.555244 -0.33755445 -0.07879826
000230 8c 5c 51 3e 87 b7 08 be 58 6b 9f be b0 60 02 3d
       0.2044546 -0.1335126 -0.31136584 0.03183049
000240 55 d7 03 3f f0 79 82 3f c5 b4 b2 be 39 04 8e be
       0.51500446 1.0193462 -0.3490354 -0.27737597
000250 aa 6f 4f be 81 3b e5 3b 82 4e c2 be 85 ca 33 3f
       -0.2025744 0.006995619 -0.37950522 0.70230895
000260 e4 69 a3 3e cb 95 cd 3d 80 6d 9d 3d ac ff 9f be
       0.31916726 0.10038336 0.07686901 -0.3124975
000270 ce a3 b4 3e 23 50 11 be a9 99 03 bf 68 31 2a 3f
       0.35281223 -0.14190726 -0.5140634 0.6648164
000280 57 95 d5 3e 40 81 2b 3d 5f 51 c7 be e4 87 db 3e
       0.417155 0.04187131 -0.3892927 0.42877114
000290 04 11 2b be 0e 9d 31 3e 34 19 a8 be b0 22 75 bd
       -0.1670571 0.17345068 -0.32831728 -0.059847534
0002a0 88 37 02 be fd 97 d5 3e e8 fe ab be 30 13 35 3d
       -0.12716496 0.4171752 -0.33592916 0.04420775
0002b0 b9 b3 95 be da c7 38 bb 63 79 e4 be b8 3f 67 be
       -0.2923868 -0.0028195293 -0.4462386 -0.225829
0002c0 c5 f7 da be d4 10 b9 be 5c 96 28 bd 10 d0 ca 3d
       -0.42767158 -0.3614565 -0.04115902 0.09902966
0002d0 f5 d0 4f 3e d7 1d 43 3d c3 5a d1 be af 36 38 3e
       0.20294555 0.04763588 -0.40889558 0.1798961
0002e0 3d 13 18 3e 84 54 04 3e 35 2c 3b 3b c9 4c 57 3f
       0.14851089 0.12922865 0.0028560285 0.8410154
0002f0 95 e1 e1 3d 6e b7 e7 bd 71 86 56 3e 4a 7d 5d be
       0.110293545 -0.11314283 0.20949723 -0.21629825
000300 9e c6 fb 3d 17 3a d1 3c 94 e5 2c be 80 38 a6 3d
       0.122937426 0.025540395 -0.16884452 0.08116245
000310 5e b8 ab bd ea 24 a8 be b5 f0 b0 bd 9e 5f 74 be
       -0.083847746 -0.32840663 -0.08639661 -0.238646
000320 e0 01 65 3d 7e c7 dd 3c a8 7f 40 3f b8 b9 0d 3f
       0.05590999 0.027072664 0.7519479 0.5536151
000330 50 67 9b bd 7a 92 9b be a0 50 56 bd 46 7c 9e be
       -0.07588065 -0.3038519 -0.052322984 -0.30954188
000340 08 f9 5c bc 21 a1 a5 be a5 70 66 be f6 aa ed be
       -0.013487108 -0.32349494 -0.22503908 -0.46419495
000350 77 de 97 be 37 fc cf be b9 1b 0d 3e 2b 02 7d be
       -0.29661915 -0.40622112 0.13780107 -0.24707858
000360 4e 6c 9e be 6f 5d 44 3e 21 2d 94 3e 8c 62 39 3e
       -0.30942005 0.19176267 0.2894068 0.18103999
000370 da ec 02 3f 06 20 74 3e e0 ba 52 3f 63 01 a0 bc
       0.51142657 0.23840341 0.823164 -0.019531911
000380 6b 02 ff bd 05 cc d8 3b c7 d1 fe be 36 16 84 3d
       -0.12451633 0.006616118 -0.49769422 0.06449549
000390 d2 cb 3f 3e 66 a9 b6 be 8e 2f 28 3e 67 c4 c2 3e
       0.18730095 -0.35676116 0.1642439 0.38040468
0003a0 78 58 12 be df b8 fc bc e5 25 3a 3e 91 e0 c9 3e
       -0.1429156 -0.030849872 0.18178518 0.39429143
0003b0 94 80 9c be fc b8 25 3f 47 a4 a0 3e fb 1d d3 be
       -0.30566847 0.6473539 0.31375334 -0.4123381
0003c0 5d 4d e1 3d 40 1a d4 bd 17 f6 c2 3d 66 e3 24 3f
       0.11001084 -0.10356569 0.09519594 0.6440948
0003d0 e0 cd b2 bd c7 59 2c be 5c 35 3a 3f b5 bf a0 bb
       -0.08730674 -0.16831122 0.7273767 -0.0049056658
0003e0 87 d6 89 bd 96 02 83 3e 9d 5c bb be 32 81 4d 3f
       -0.06730371 0.2558791 -0.36594096 0.8027526
0003f0 ec b9 ef be 17 06 88 bd dc 1b cd bd 6f 36 b7 bd
       -0.46821535 -0.066417865 -0.100150794 -0.08945929

Linear2.weight f4 [3, 256]
000000 1a 4d bb 3e 2b 8a 5c bd 22 c4 9d 3e e2 95 76 3e
       0.3658226 -0.053842705 0.308137 0.24080613
000010 2a 37 91 bc 0e 03 d1 3e 21 05 8c 3d 61 80 33 3c
       -0.0177265 0.40822643 0.06836916 0.010955901
000020 e8 23 4f 3c 00 e9 f1 3a 6d b1 cc 3e 6c df 20 bd
       0.012642838 0.001845628 0.39979115 -0.03927557
000030 48 72 3b 3d d4 69 22 bf 99 80 b5 bc 86 95 b6 bd
       0.045763284 -0.6344273 -0.022156047 -0.08915238
000040 68 ce 3f bc 28 cc 37 3b 0c 46 7d bd e7 e0 c5 3e
       -0.011706926 0.002804527 -0.06183438 0.3864815
000050 e6 d7 71 bd 1d 42 b1 3d 6a d4 c0 3e 71 53 eb be
       -0.059043787 0.08655188 0.3766206 -0.45962098
000060 d4 25 40 be a6 bb d6 3e e3 5d 80 3c 84 66 99 bc
       -0.1876443 0.4194004 0.015669769 -0.018725641
000070 a4 db ec bc 00 9c 17 bb d5 5e 8f 3e 7a 3a 59 3e
       -0.028913327 -0.0023133755 0.2800204 0.21213713
000080 20 1e d0 3b 70 66 af bc d7 e7 33 3d c3 d0 27 bf
       0.0063512474 -0.02141115 0.04392227 -0.6555292
000090 04 6e c1 bc 08 3e ff 3c 5c 4f c3 3e 9f 90 b6 be
       -0.02361203 0.031157508 0.38146484 -0.35657212
0000a0 77 d8 cc 3c 56 13 b7 3d b8 76 db bc d4 b7 9f 3c
       0.025005562 0.08939235 -0.026790008 0.019496836
0000b0 fe c1 3c 3d d3 17 47 bd ef d5 cb 3e e0 31 5d 3c
       0.046083443 -0.048606705 0.39811656 0.013500661
0000c0 b1 dd 48 bf cd c6 bd be 98 25 2c 3c 4d a1 a1 ba
       -0.78463274 -0.37065735 0.01050701 -0.0012331397
0000d0 46 6a 23 bd a0 44 52 bb fe 62 28 3c c0 42 88 3e
       -0.039896272 -0.003208436 0.010277508 0.26613426
0000e0 82 2c 6a be b6 00 7c bd c4 ec c0 3d 28 ab 13 bd
       -0.22868541 -0.061524116 0.094201595 -0.0360519
0000f0 ab 67 9e 3d b8 01 21 bf 94 b1 1c 3d 12 a8 a8 3d
       0.07734617 -0.6289325 0.03825529 0.08235182
000100 9c b3 26 bd 1e a1 92 3e 8e 02 24 bf e9 60 a0 3d
       -0.040698633 0.28638548 -0.640664 0.07830984
000110 b5 00 68 be 98 5a 52 bf 67 ca be 3e a0 95 3b bb
       -0.2265652 -0.82169485 0.37263796 -0.002862312
000120 a5 6b ea 3d b6 68 57 3e d4 33 89 bf 08 bd b2 3e
       0.11446313 0.21036038 -1.0718942 0.34909844
000130 5e 95 f8 bc 38 07 8d 3d 25 22 d0 3e ec 4e d5 3e
       -0.030344661 0.068861425 0.4065105 0.41661775
000140 e9 70 7b 3e a6 6e 72 bf 00 5e 74 bd a8 9d 89 3d
       0.2455479 -0.94700086 -0.059659958 0.06719524
000150 d2 06 22 3d 4e 29 04 bd 55 09 93 3e d0 1c cf bb
       0.039557286 -0.032265954 0.28718057 -0.0063205734
000160 5d 43 05 bf 70 44 8d 3d 0b 7d 9c 3d 9e 74 37 3d
       -0.52055913 0.06897819 0.076410376 0.04478895
000170 20 cf 2e 3d 04 ff 5c bd 28 6d 7f bd 70 30 32 bc
       0.042678 -0.05395414 -0.06235996 -0.010875806
000180 64 c5 9c 3c b0 18 bd bc 28 b1 16 be 2e c6 6a bd
       0.019137092 -0.023083061 -0.14716017 -0.057317905
000190 2f 86 f1 3c 24 2f 24 3d e0 ae 80 bb bc 04 58 bf
       0.029482929 0.04008402 -0.0039270967 -0.84382224
0001a0 a7 46 c1 3e fb cf 35 3d 7c 1b 32 bd 20 9f 2b bf
       0.37749216 0.0443878 -0.043483242 -0.6703968
0001b0 d8 09 c1 bc 83 67 14 be 8e 2c 77 bd a0 98 10 bc
       -0.023564264 -0.14492612 -0.060345225 -0.008825451
0001c0 73 86 c9 3b cc 1c 8e 3c e6 51 63 bd d8 1c cb be
       0.006150061 0.017347716 -0.055498026 -0.39670444
0001d0 39 27 c4 3e 8e b3 19 bf 50 47 de 3c c9 f4 6b 3e
       0.38311175 -0.60039604 0.027133614 0.23042597
0001e0 15 9a 32 bf ed 6f db 3e b6 ac 0e bf 28 ae d5 3c
       -0.6976636 0.4285883 -0.55732286 0.02608402
0001f0 b5 f4 c3 3c 2c 75 50 3d 86 c1 02 bd fd 12 85 be
       0.023920396 0.050892994 -0.03192284 -0.2599105
000200 cb 39 42 be 12 fa b3 bb 1c 77 6e bd 12 25 13 3d
       -0.18967359 -0.005492457 -0.05821906 0.035924025
000210 f9 47 35 3e 60 86 87 3e 91 67 8e bf f0 c9 92 bc
       0.17703237 0.26469707 -1.1125356 -0.017918557
000220 49 22 95 3e 69 57 b8 3e c0 cc 47 3d fa 87 fb bc
       0.2912772 0.3600419 0.04877925 -0.030704487
000230 5a 9d 96 3e 03 a0 aa be fa 71 18 3d 10 20 3b bd
       0.29416925 -0.33325204 0.03721807 -0.045684874
000240 af 70 90 3e 47 9f b5 3e b8 a2 58 bd a0 c4 5e bc
       0.2821097 0.3547308 -0.052889556 -0.013596684
000250 3d d6 ec 3d 5b 94 f7 bd 18 49 8f 3d e3 73 a9 3e
       0.115643 -0.120888434 0.069963634 0.33096227
000260 93 a2 dd bd 2e 0f 89 3b 24 07 9a 3c 3e 8b 4c 3d
       -0.10822024 0.0041827178 0.018802233 0.04993748
000270 79 04 a9 3e cb 40 33 bf 84 a4 ce 3c 92 fd de 3e
       0.33011225 -0.7002074 0.025224932 0.43552834
000280 53 70 7d 3e f8 74 ea bc 12 b8 1d bd ff 87 84 3e
       0.2474988 -0.028620228 -0.03850562 0.25885007
000290 e0 f6 7a 3b 45 d1 de 3e 15 46 2f 3d ec 30 03 3d
       0.0038294122 0.43519035 0.042791445 0.032029077
0002a0 8d 2b 0e 3d 5f 7b 77 3e 95 bb 14 bd 64 78 a4 bd
       0.034709502 0.24168156 -0.036311705 -0.08030775
0002b0 55 35 3d 3d f5 47 5d bd 24 0e f4 3c f6 f5 69 3d
       0.04619344 -0.0540237 0.029791899 0.057119332
0002c0 42 67 35 bd 00 1c 12 bc a0 03 eb 3d 08 2b a8 be
       -0.044287927 -0.0089178085 0.11475301 -0.3284533
0002d0 43 af 72 3e 9c 7d fc 3c dd 2a 33 bd 95 f7 1f bf
       0.2369967 0.030821614 -0.04374205 -0.62487155
0002e0 15 aa 35 3d 7d be 54 3e ba cb f5 3d 1b 7c af 3e
       0.044351656 0.2077579 0.120017484 0.34274372
0002f0 70 40 4e 3c 8b ad 07 be c9 66 00 3d 88 b3 c4 bc
       0.012588605 -0.13249795 0.031348024 -0.024011388
000300 01 cb 07 bc 89 c7 14 bf d0 53 dd 3b 80 1c 57 bd
       -0.008288146 -0.58116966 0.006754376 -0.052517414
000310 0d dd 52 3d de e3 2e 3d 40 36 8d 3c 49 b2 ac 3d
       0.05148034 0.04269778 0.017237782 0.08432443
000320 30 bd 4d 3d 80 59 6b 3c 19 de cc 3e 3a c5 73 3e
       0.05022925 0.0143646 0.40013197 0.23805705
000330 d4 cd 89 3d 90 c0 ce bb 74 c9 ea 3c e5 74 83 3d
       0.06728712 -0.0063095763 0.028660513 0.0641878
000340 b4 c0 48 bd de 7c 13 bf 00 ac 26 ba c6 e1 41 3d
       -0.0490119 -0.5761241 -0.00063580275 0.047334455
000350 9c 7a 41 bd e2 87 61 bd 7b ee 27 be 78 f7 97 3c
       -0.04723607 -0.05506123 -0.16399567 0.01855062
000360 d0 f5 7c bc 82 55 27 be 3d a5 fe bd 0d bc 8d be
       -0.015439466 -0.16341212 -0.124338605 -0.27682534
000370 13 01 88 3e fc 88 29 3d 5d 86 b0 3e a4 93 29 bd
       0.2656332 0.041390404 0.3447751 -0.041400567
000380 66 74 45 3d f0 b6 82 3c e1 33 2b 3d 5c eb e9 be
       0.04820671 0.015956372 0.041797522 -0.45687377
000390 60 37 a0 3b d8 7e 0a bd 64 0e e2 3c 81 20 c0 be
       0.0048894137 -0.033812374 0.027594753 -0.375248
0003a0 f9 74 d4 be 0b 36 11 bd 4e 23 63 3e b4 cb 48 3e
       -0.41495493 -0.03545193 0.22181436 0.19608957
0003b0 50 29 97 3b 9a 27 a5 3e 3b 83 bb 3e f0 ec fe bb
       0.004613079 0.32256776 0.36623558 -0.00777971
0003c0 28 b9 8a bf b8 22 fc 3c c0 1a 34 3c d2 2d 95 3e
       -1.0837755 0.030778274 0.010992706 0.2913652
0003d0 10 96 f5 3c 2c 3d cd 3c 3b ec b4 3e 8d 97 0c bd
       0.029978782 0.025053583 0.3533648 -0.034324218
0003e0 12 a0 9a bc 86 10 88 be 2c 79 e9 3c 28 fc c0 3e
       -0.018875156 -0.26575106 0.028500162 0.3769238
0003f0 1c e1 2c bd 38 9d 0e 3c b9 4c 39 3d 8f 54 99 bc
       -0.04220687 0.008704476 0.045239184 -0.018717078

Linear2.bias f4 [3]
000000 c3 9f 85 3e 50 09 ae 3e 2d 5b a2 3e
       0.2609845 0.3399148 0.31710187
