runs/run9/models/model1401.pth (torch, 10959 bytes, 4 tensors)

Linear1.weight f4 [256, 5]
0.3023078 0.32810333 0.30612025 -0.013316788 -0.097145185 -0.3370033 0.22870256 0.12639187
0.22520395 -0.41498762 0.14166175 0.49287102 0.55906194 0.09462493 0.0090971645 0.14022745
0.34750658 0.17348215 0.24243991 0.14840719 -0.2521386 -0.28029275 -0.4668958 -0.17912813
0.17253013 0.7696058 0.43429628 0.5195458 0.007943922 0.14767173 -0.09624445 -0.12542444
-0.041927546 -0.36085424 -0.5529989 -0.03467947 -0.14895271 -0.4057874 -0.24549983 -0.1902909
0.1408107 0.15155856 0.07027617 -0.4912693 -0.29668832 -0.049496353 0.07090759 -0.17985383
-0.108029485 -0.34737837 0.5039426 0.14009634 0.05462838 0.028109683 -0.018121786 -0.27615
-0.07508981 -0.27464595 0.30055708 -0.31807858 -0.116776444 0.2347111 0.27741197 -0.35586712
-0.41007563 -0.83092284 1.0327069 -0.8449407 -0.48854294 0.13527536 -0.29718184 -0.38856757
0.31339478 0.3339255 -0.011627072 -0.40503857 -0.49477184 0.4143803 -0.09339677 -0.49366984
-0.108197 -0.24959148 -0.46993968 -0.30628765 0.2282173 -0.30642995 0.17851867 0.24808493
0.059836928 -0.1871037 0.20041552 -0.21969146 -0.14774223 -0.12685819 0.0748497 0.9031988
0.85801476 0.0904536 0.31215706 -0.011709958 0.17838722 0.12580124 -0.12153686 -0.18577044
0.18989602 0.034908444 -0.3837865 -0.35397044 -0.42928794 -0.17700441 0.638393 0.43153027
0.36318856 0.1962298 -0.05824639 0.51321304 0.49375278 -1.0594666 -0.35938504 0.10931155
-0.3002849 0.26837102 -0.34062144 0.3496646 -0.33247808 1.0557402 0.4932381 0.80783904
0.40523365 0.14334613 0.0069828476 -0.31909654 -0.32463977 -0.108250424 -0.053908803 0.098129
0.08187516 -0.4163791 0.36038995 0.18019313 -0.2185112 -0.46822247 0.103678085 -0.3699471
0.041400436 -0.038520396 -0.3483905 -0.32989603 -0.058946878 -0.1553601 -0.24418662 0.40061045
0.41845632 -0.1529804 -0.14157157 0.25663018 0.42512488 -0.423983 0.18355854 0.25099468
-0.0333765 0.33172846 -0.0421031 -0.19985439 -0.16045469 -0.38196385 -0.28971183 -0.06295386
0.33198214 0.01418367 -0.017505793 0.032470908 -0.02796857 -0.03811126 -0.10324695 -0.5218424
1.0503213 -1.1142272 0.041799087 -0.10515698 0.105654836 -0.01107648 -0.24737862 0.18438852
-0.3697779 -0.2984558 -0.31432945 -0.08068671 0.3843439 -0.32426393 0.74449605 0.39251915
0.21690232 -0.060744602 0.31504893 0.62564504 0.18872558 -0.9096557 -0.0038654476 -0.37905636
0.15273021 -0.39289835 -0.0500774 -0.14366148 -0.08557794 0.13357694 0.2671778 0.10714697
0.1869926 0.064709924 -0.1802554 -0.09270937 -0.2670676 0.28406593 0.21268836 -0.5738241
0.14141561 -0.13215633 -0.04275126 -0.10272062 -0.4417142 -0.1652219 0.11354877 -0.032273225
-0.39516798 0.23971753 -0.22277482 -0.042126987 0.08932036 -0.24329494 0.45285 0.55575097
0.5391035 -0.022373343 0.112328656 -0.046048254 -0.25519508 -0.18763807 -0.12090498 0.31711578
-1.00062 0.974516 -1.059359 0.063841425 0.39272577 -0.24296658 0.33089265 -0.18531159
0.24187572 -0.35793188 -0.43320665 0.3066703 -0.17478737 0.07171643 -0.3281957 -0.20651715
00000000: 17c8 9a3e 29fd a73e cbbb 9c3e a82e 5abc
00000010: 0ef4 c6bd b28b acbe 0131 6a3e df6c 013e
00000020: dd9b 663e 4279 d4be c70f 113e 9759 fc3e
00000030: af1e 0f3f b7ca c13d 460c 153c c997 0f3e
00000040: 62ec b13e 4ea5 313e 2b42 783e 0ef8 173e
00000050: 5018 81be 8882 8fbe f70c efbe 5d6d 37be
00000060: bdab 303e e304 453f 155c de3e f400 053f
00000070: 3927 023c 4237 173e cf1b c5bd 446f 00be
00000080: 38bc 2bbd e3c1 b8be 5691 0dbf 0f0c 0ebd
00000090: 0f87 18be 5ec3 cfbe 4f64 7bbe 9edb 42be
000000a0: ae30 103e 2b32 1b3e f4ec 8f3d a687 fbbe
000000b0: 88e7 97be b0bc 4abd 0038 913d 9a2b 38be
000000c0: 903e ddbd 94db b1be 6202 013f 6a75 0f3e
000000d0: 02c2 5f3d 4746 e63c 2474 94bc 8863 8dbe
000000e0: b0c8 99bd 659e 8cbe 9ee2 993e 32db a2be
000000f0: 7d28 efbd 1b58 703e f108 8e3e 3734 b6be
00000100: 6ff5 d1be 5cb7 54bf bd2f 843f 094e 58bf
00000110: 4d22 fabe a085 0a3e 3828 98be 54f2 c6be
00000120: 4875 a03e 48f8 aa3e 797f 3ebc 3761 cfbe
00000130: bc52 fdbe a829 d43e ce46 bfbd 4bc2 fcbe
00000140: 6496 ddbd e994 7fbe ef9b f0be bcd1 9cbe
00000150: ccb1 693e 63e4 9cbe 99cd 363e fa09 7e3e
00000160: 9117 753d 1d98 3fbe ba39 4d3e ccf6 60be
00000170: bd49 17be 1de7 01be cd4a 993d 0938 673f
00000180: dba6 5b3f bd3f b93d 0dd3 9f3e 20db 3fbc
00000190: 24ab 363e 0ad2 003e 51e8 f8bd 9b3a 3ebe
000001a0: 1a74 423e 28fc 0e3d aa7f c4be 9d3b b5be
000001b0: a1cb dbbe a540 35be b96d 233f 89f1 dc3e
000001c0: daf3 b93e 77f0 483e c493 6ebd ee61 033f
000001d0: 2acd fc3e 9a9c 87bf 5101 b8be bcde df3d
000001e0: f1be 99be ed67 893e ef65 aebe 3d07 b33e
000001f0: 913a aabe 7f22 873f b489 fc3e 8ace 4e3f
00000200: c97a cf3e 54c9 123e 5fd0 e43b 9f60 a3be
00000210: 2f37 a6be 66b2 ddbd 7acf 5cbd dbf7 c83d
00000220: 2aae a73d a42f d5be 0885 b83e 8c84 383e
00000230: 66c1 5fbe dbba efbe 2d55 d43d b569 bdbe
00000240: 8193 293d 90c7 1dbd 3d60 b2be 22e8 a8be
00000250: 4872 71bd b816 1fbe 0f0c 7abe d01c cd3e
00000260: e83f d63e e5a6 1cbe 23f8 10be 0865 833e
00000270: f8a9 d93e 4d14 d9be c5f6 3b3e 6082 803e
00000280: ccb5 08bd 50d8 a93e 4d74 2cbd a1a6 4cbe
00000290: 3c4e 24be c490 c3be 1c55 94be f4ed 80bd
000002a0: 90f9 a93e a062 683c 4f68 8fbc 3700 053d
000002b0: 581e e5bc 8d1a 1cbd 2373 d3bd 7797 05bf
000002c0: ee70 863f ff9e 8ebf 8535 2b3d 8b5c d7bd
000002d0: 9061 d83d 207a 35bc d250 7dbe 58d0 3c3e
000002e0: 8753 bdbe 33cf 98be caef a0be 133f a5bd
000002f0: b9c8 c43e ec05 a6be 4b97 3e3f 45f8 c83e
00000300: a41b 5e3e 55cf 78bd 184e a13e 462a 203f
00000310: 4741 413e 32df 68bf 7353 7dbb ad13 c2be
00000320: 4f65 1c3e f929 c9be f61d 4dbd ff1b 13be
00000330: 7d43 afbd 65c8 083e 87cb 883e df6f db3d
00000340: fd7a 3f3e a386 843d df94 38be 69de bdbd
00000350: 16bd 88be 1771 913e faca 593e 23e6 12bf
00000360: 41cf 103e fd53 07be f21b 2fbd 305f d2bd
00000370: 5d28 e2be ee2f 29be 428c e83d ee30 04bd
00000380: 7553 cabe 8378 753e 151f 64be 598d 2cbd
00000390: 98ed b63d 4f22 79be f5db e73e b245 0e3f
000003a0: b002 0a3f 4d48 b7bc 910c e63d 189d 3cbd
000003b0: eea8 82be 3224 40be 089d f7bd 005d a23e
000003c0: 5114 80bf e179 793f 1399 87bf 4bbf 823d
000003d0: 5a13 c93e 3bcc 78be c36a a93e 52c2 3dbe
000003e0: 45ae 773e d942 b7be 43cd ddbe e403 9d3e
000003f0: 76fb 32be 10e0 923d 4409 a8be 3b79 53be

Linear1.bias f4 [256]
0.92162234 -0.3237341 0.3827143 0.41835174 0.11910788 0.33283466 0.1892435 0.20068552
-0.12205647 -0.29170164 0.86503595 -0.2666245 -0.10209661 0.20786177 -0.3671507 -0.09914383
-0.042317506 -0.21238765 -0.07418997 0.96849155 -0.3486796 0.34983674 0.49316958 0.26710096
-0.30045918 0.5350735 0.12369961 -0.487745 0.0026379884 0.1400708 0.6167404 0.47072494
-0.20391428 -0.3335243 -0.036291465 0.057502303 -0.4116382 -0.11892037 0.30864292 0.34848315
-0.09063433 -0.5086207 -0.4145337 -0.4531388 0.060396306 -0.11623818 0.7097639 -0.20100586
-0.08006829 0.30602068 -0.2677787 0.28859872 -0.10002527 -0.08637917 -0.28169754 0.48580417
0.30469075 -0.38652587 -0.37062913 -0.1547218 -0.38447416 -0.26859665 -0.33282232 -0.22737207
-0.32010737 0.5047985 0.23281099 -0.5025483 -0.17539133 0.03518605 0.8145976 -0.40376195
-0.047834005 0.5011891 -0.20224664 0.5878415 -0.16600388 0.15035765 0.33769637 0.49949592
0.6125313 -0.33046836 0.0332264 0.08670957 -0.30050874 0.24439573 0.6508562 -0.057782758
0.20167302 -0.42529455 0.13345258 -0.5869349 -0.27770248 -0.38029575 -0.23966026 -0.41392696
-0.23197512 -0.14769933 0.0371721 -0.4118907 0.023973834 0.20077081 -0.082527906 -0.08810133
1.0106138 0.050764002 -0.42865264 -0.19686432 -0.020350158 0.09125236 0.148611 -0.5966845
-0.11421868 -0.2728958 -0.24544616 -0.073536254 1.00552 0.23080271 0.31331736 0.4100649
0.20865156 0.5901069 -0.18816108 -0.0309246 -0.3653906 -0.3659573 -0.24983801 0.3278327
-0.40787727 -0.4605496 -0.3375733 -0.45581132 0.21377066 0.75020224 0.31354868 -0.07258585
0.5818708 0.5661957 -0.33755445 -0.07879826 0.2154631 -0.13463537 -0.31136584 0.03183049
0.5257347 1.0300584 -0.3490354 -0.27737597 -0.2025744 0.006236209 -0.37950522 0.7133332
0.31438488 0.10038336 0.07686901 -0.3124975 0.36331818 -0.14697382 -0.5140634 0.6758342
0.42801738 0.04187131 -0.3892927 0.4394777 -0.1670571 0.18414901 -0.32831728 -0.059847534
-0.12716496 0.42792526 -0.33592916 0.043417316 -0.2923868 -0.0028195293 -0.4462386 -0.225829
-0.42767158 -0.3614565 -0.03812138 0.09421315 0.21388464 0.04763588 -0.40889558 0.17672394
0.14934729 0.14012228 0.0028560285 0.8519016 0.110293545 -0.11314283 0.20949723 -0.21629825
0.1262226 0.021061894 -0.16884452 0.08116245 -0.083847746 -0.32840663 -0.08639661 -0.238646
0.05590999 0.027072664 0.76294893 0.5646279 -0.07588065 -0.3038519 -0.052322984 -0.30954188
-0.013487108 -0.32524306 -0.22503908 -0.46419495 -0.29661915 -0.40622112 0.13426691 -0.24751146
-0.30942005 0.19312416 0.29406005 0.17737511 0.522449 0.23874973 0.8339747 -0.019531911
-0.12451633 0.006616118 -0.49769422 0.062360555 0.18730095 -0.35676116 0.1642439 0.3763416
-0.14704199 -0.030849872 0.19249217 0.40529808 -0.30566847 0.6583535 0.3242816 -0.4123381
0.109149866 -0.10356569 0.097302236 0.655014 -0.08730674 -0.16831122 0.73823625 -0.003846793
-0.06832898 0.2577034 -0.36594096 0.8137047 -0.46821535 -0.066417865 -0.100150794 -0.08945929
00000000: 71ef 6b3f 7ac0 a5be 21f3 c33e 3332 d63e
00000010: d5ee f33d 4e69 aa3e 0cc9 413e 8180 4d3e
00000020: bef8 f9bd eb59 95be ff72 5d3f 0283 88be
00000030: 0718 d1bd b7d9 543e 2dfb bbbe ec0b cbbd
00000040: 1f55 2dbd 267c 59be e9f0 97bd 10ef 773f
00000050: 2286 b2be cd1d b33e b980 fc3e 75c1 883e
00000060: c9d5 99be 94fa 083f 3956 fd3d b6b9 f9be
00000070: 1ae2 2c3b b86e 0f3e b3e2 1d3f dc02 f13e
00000080: e8ce 50be b2c3 aabe 5ca6 14bd 8987 6b3d
00000090: 3ec2 d2be 868c f3bd 7206 9e3e 626c b23e
000000a0: 7e9e b9bd f734 02bf c33d d4be cf01 e8be
000000b0: 1e62 773d 480e eebd 16b3 353f 7bd4 4dbe
000000c0: d8fa a3bd beae 9c3e 4a1a 89be 36c3 933e
000000d0: 0cda ccbd 90e7 b0bd a93a 90be 53bb f83e
000000e0: 6d00 9c3e b8e6 c5be 1ac3 bdbe 646f 1ebe
000000f0: ccd9 c4be 8085 89be b067 aabe 39d4 68be
00000100: 1de5 a3be 793a 013f 0166 6e3e 01a7 00bf
00000110: c999 33be 3f1f 103d 7889 503f e3b9 cebe
00000120: 97ed 43bd ee4d 003f be19 4fbe c87c 163f
00000130: ecfc 29be 5bf7 193e 8ae6 ac3e eebd ff3e
00000140: dace 1c3f 2633 a9be 6818 083d c994 b13d
00000150: 48dc 99be e042 7a3e 839e 263f 9dad 6cbd
00000160: 5f83 4e3e 35c0 d9be cba7 083e 5e41 16bf
00000170: 052f 8ebe 20b6 c2be 8069 75be 3cee d3be
00000180: e38a 6dbe 7e3e 17be c641 183d 56e3 d2be
00000190: c664 c43c dd96 4d3e 6404 a9bd 786e b4bd
000001a0: cb5b 813f eaed 4f3d 5c78 dbbe cd96 49be
000001b0: 60b5 a6bc 84e2 ba3d 7b2d 183e 51c0 18bf
000001c0: 7ceb e9bd 00b9 8bbe 3d56 7bbe 2d9a 96bd
000001d0: e1b4 803f 8c57 6c3e 226b a03e 07f4 d13e
000001e0: c1a8 553e 3f11 173f 4cad 40be 9655 fdbc
000001f0: 7a14 bbbe c15e bbbe 89d5 7fbe b0d9 a73e
00000200: 4ad5 d0be 28cd ebbe 68d6 acbe 1a60 e9be
00000210: b2e6 5a3e 410d 403f 7489 a03e e4a7 94bd
00000220: 7cf5 143f 34f2 103f f0d3 acbe fb60 a1bd
00000230: 5ca2 5c3e dbdd 09be 586b 9fbe b060 023d
00000240: 8d96 063f f4d8 833f c5b4 b2be 3904 8ebe
00000250: aa6f 4fbe 1d59 cc3b 824e c2be 019d 363f
00000260: 0ef7 a03e cb95 cd3d 806d 9d3d acff 9fbe
00000270: d704 ba3e 4e80 16be a999 03bf 7803 2d3f
00000280: 1825 db3e 4081 2b3d 5f51 c7be 3903 e13e
00000290: 0411 2bbe 8f91 3c3e 3419 a8be b022 75bd
000002a0: 8837 02be 0519 db3e e8fe abbe 5bd6 313d
000002b0: b9b3 95be dac7 38bb 6379 e4be b83f 67be
000002c0: c5f7 dabe d410 b9be 2a25 1cbd d3f2 c03d
000002d0: 9304 5b3e d71d 433d c35a d1be 1ff7 343e
000002e0: 7fee 183e 377c 0f3e 352c 3b3b 3916 5a3f
000002f0: 95e1 e13d 6eb7 e7bd 7186 563e 4a7d 5dbe
00000300: 7f40 013e fe89 ac3c 94e5 2cbe 8038 a63d
00000310: 5eb8 abbd ea24 a8be b5f0 b0bd 9e5f 74be
00000320: e001 653d 7ec7 dd3c 9f50 433f 748b 103f
00000330: 5067 9bbd 7a92 9bbe a050 56bd 467c 9ebe
00000340: 08f9 5cbc 4286 a6be a570 66be f6aa edbe
00000350: 77de 97be 37fc cfbe 447d 093e a573 7dbe
00000360: 4e6c 9ebe 57c2 453e 0a8f 963e d2a1 353e
00000370: 38bf 053f cf7a 743e 5e7f 553f 6301 a0bc
00000380: 6b02 ffbd 05cc d83b c7d1 febe c86d 7f3d
00000390: d2cb 3f3e 66a9 b6be 8e2f 283e d9af c03e
000003a0: 2d92 16be dfb8 fcbc ab1c 453e 3b83 cf3e
000003b0: 9480 9cbe db89 283f 3d08 a63e fb1d d3be
000003c0: f789 df3d 401a d4bd 6546 c73d ffae 273f
000003d0: e0cd b2bd c759 2cbe 0dfd 3c3f 7a1a 7cbb
000003e0: 10f0 8bbd b3f1 833e 9d5c bbbe f44e 503f
000003f0: ecb9 efbe 1706 88bd dc1b cdbd 6f36 b7bd

Linear2.weight f4 [3, 256]
0.36840636 -0.053842705 0.31090313 0.24350308 -0.017807622 0.4098117 0.06836916 0.010955901
0.012642838 0.001845628 0.40192977 -0.03927557 0.045763284 -0.634923 -0.022322642 -0.08915238
-0.011706926 0.002804527 -0.061890002 0.38829875 -0.059043787 0.08629709 0.3784136 -0.46388254
-0.1876443 0.42123199 0.015669769 -0.018725641 -0.028913327 -0.0023133755 0.28394407 0.21407764
0.0063512474 -0.02141115 0.04392227 -0.6600926 -0.02361203 0.031157508 0.38283172 -0.36245975
0.025005562 0.08939235 -0.026790008 0.019496836 0.046083443 -0.048482463 0.40050447 0.013500661
-0.78745717 -0.3668712 0.01050701 -0.0021018416 -0.039896272 -0.003208436 0.010277508 0.2687134
-0.23194525 -0.061524116 0.094201595 -0.0360519 0.07734617 -0.6363672 0.03825529 0.08235182
-0.040698633 0.2907085 -0.64334714 0.07830984 -0.22679766 -0.8352508 0.3748162 -0.002862312
0.11446313 0.21307452 -1.0684599 0.3506683 -0.030344661 0.06815088 0.40816623 0.41871983
0.24831998 -0.94953156 -0.059659958 0.07199592 0.039557286 -0.032265954 0.28955308 -0.0063205734
-0.52602905 0.06897819 0.076410376 0.04478895 0.042678 -0.05395414 -0.06235996 -0.010875806
0.019137092 -0.023083061 -0.14703423 -0.057317905 0.029482929 0.04194917 -0.0039270967 -0.8400781
0.37974274 0.044612218 -0.043483242 -0.67546517 -0.023564264 -0.14679594 -0.060345225 -0.008825451
0.006150061 0.017347716 -0.055498026 -0.39838287 0.3851432 -0.6007741 0.027133614 0.23249437
-0.7030796 0.4302932 -0.56531256 0.02608402 0.023920396 0.050892994 -0.03192284 -0.2649645
-0.18967359 -0.005492457 -0.05821906 0.035924025 0.17862684 0.26780343 -1.1253651 -0.017918557
0.2928359 0.36165166 0.04877925 -0.030704487 0.29635972 -0.34239092 0.03721807 -0.045684874
0.28400335 0.35737315 -0.052889556 -0.013596684 0.115643 -0.12515865 0.069963634 0.3337879
-0.11020362 0.0041827178 0.018802233 0.04993748 0.33175442 -0.70478344 0.025224932 0.43723333
0.24969977 -0.028620228 -0.03850562 0.26037076 0.0038294122 0.43657047 0.042791445 0.032029077
0.034709502 0.24312331 -0.036311705 -0.08030775 0.04619344 -0.0540237 0.029791899 0.057119332
-0.044287927 -0.0089178085 0.115266725 -0.3302077 0.2405826 0.030821614 -0.04374205 -0.6281626
0.04494347 0.21058889 0.120017484 0.34593472 0.012588605 -0.13249795 0.031348024 -0.024011388
-0.009577722 -0.58679837 0.006754376 -0.052517414 0.05148034 0.04269778 0.017237782 0.08432443
0.05022925 0.0143646 0.40230575 0.24100535 0.06728712 -0.0063095763 0.028660513 0.0641878
-0.0490119 -0.5817974 -0.00063580275 0.047334455 -0.04723607 -0.05506123 -0.1649119 0.017993657
-0.015439466 -0.17304866 -0.12571594 -0.2822395 0.26799405 0.04090341 0.34803656 -0.041400567
0.04820671 0.015956372 0.041797522 -0.46368945 0.0048894137 -0.033812374 0.027594753 -0.37792546
-0.42359355 -0.03545193 0.2230915 0.19989355 0.004613079 0.32550603 0.36746383 -0.00777971
-1.0844162 0.030778274 0.010962734 0.2935239 0.029978782 0.025053583 0.35642558 -0.041326437
-0.019032434 -0.26656023 0.028500162 0.37863803 -0.04220687 0.008704476 0.045239184 -0.018717078
00000000: c29f bc3e 2b8a 5cbd b22e 9f3e df58 793e
00000010: 4ae1 91bc d7d2 d13e 2105 8c3d 6180 333c
00000020: e823 4f3c 00e9 f13a bdc9 cd3e 6cdf 20bd
00000030: 4872 3b3d 508a 22bf f9dd b6bc 8695 b6bd
00000040: 68ce 3fbc 28cc 373b 5f80 7dbd 18cf c63e
00000050: e6d7 71bd 87bc b03d 6dbf c13e 0382 edbe
00000060: d425 40be b8ab d73e e35d 803c 8466 99bc
00000070: a4db ecbc 009c 17bb 1e61 913e 2b37 5b3e
00000080: 201e d03b 7066 afbc d7e7 333d d4fb 28bf
00000090: 046e c1bc 083e ff3c 8502 c43e 5394 b9be
000000a0: 77d8 cc3c 5613 b73d b876 dbbc d4b7 9f3c
000000b0: fec1 3c3d 8c95 46bd ec0e cd3e e031 5d3c
000000c0: cb96 49bf 8bd6 bbbe 9825 2c3c 0dbf 09bb
000000d0: 466a 23bd a044 52bb fe62 283c ce94 893e
000000e0: 0e83 6dbe b600 7cbd c4ec c03d 28ab 13bd
000000f0: ab67 9e3d f6e8 22bf 94b1 1c3d 12a8 a83d
00000100: 9cb3 26bd bfd7 943e 66b2 24bf e960 a03d
00000110: a53d 68be ffd2 55bf e9e7 bf3e a095 3bbb
00000120: a56b ea3d 3530 5a3e 4bc3 88bf cc8a b33e
00000130: 5e95 f8bc b092 8b3d 2afb d03e 7262 d63e
00000140: 9847 7e3e 8014 73bf 005e 74bd 9972 933d
00000150: d206 223d 4e29 04bd 4d40 943e d01c cfbb
00000160: d7a9 06bf 7044 8d3d 0b7d 9c3d 9e74 373d
00000170: 20cf 2e3d 04ff 5cbd 286d 7fbd 7030 32bc
00000180: 64c5 9c3c b018 bdbc 2490 16be 2ec6 6abd
00000190: 2f86 f13c e5d2 2b3d e0ae 80bb 5c0f 57bf
000001a0: a46d c23e 4dbb 363d 7c1b 32bd 49eb 2cbf
000001b0: d809 c1bc ad51 16be 8e2c 77bd a098 10bc
000001c0: 7386 c93b cc1c 8e3c e651 63bd d7f8 cbbe
000001d0: 7d31 c53e 55cc 19bf 5047 de3c 0113 6e3e
000001e0: 06fd 33bf 644f dc3e 53b8 10bf 28ae d53c
000001f0: b5f4 c33c 2c75 503d 86c1 02bd 6da9 87be
00000200: cb39 42be 12fa b3bb 1c77 6ebd 1225 133d
00000210: f4e9 363e 881d 893e f70b 90bf f0c9 92bc
00000220: 96ee 953e 682a b93e c0cc 473d fa87 fbbc
00000230: 76bc 973e dd4d afbe fa71 183d 1020 3bbd
00000240: e368 913e 9df9 b63e b8a2 58bd a0c4 5ebc
00000250: 3dd6 ec3d 9729 00be 1849 8f3d 3fe6 aa3e
00000260: 6fb2 e1bd 2e0f 893b 2407 9a3c 3e8b 4c3d
00000270: b7db a93e b06c 34bf 84a4 ce3c 0cdd df3e
00000280: 4cb1 7f3e f874 eabc 12b8 1dbd 514f 853e
00000290: e0f6 7a3b 2a86 df3e 1546 2f3d ec30 033d
000002a0: 8d2b 0e3d 51f5 783e 95bb 14bd 6478 a4bd
000002b0: 5535 3d3d f547 5dbd 240e f43c f6f5 693d
000002c0: 4267 35bd 001c 12bc f610 ec3d fc10 a9be
000002d0: 495b 763e 9c7d fc3c dd2a 33bd 44cf 20bf
000002e0: a516 383d 9da4 573e bacb f53d 5b1e b13e
000002f0: 7040 4e3c 8bad 07be c966 003d 88b3 c4bc
00000300: e1eb 1cbc 6b38 16bf d053 dd3b 801c 57bd
00000310: 0ddd 523d dee3 2e3d 4036 8d3c 49b2 ac3d
00000320: 30bd 4d3d 8059 6b3c 05fb cd3e 1bca 763e
00000330: d4cd 893d 90c0 cebb 74c9 ea3c e574 833d
00000340: b4c0 48bd adf0 14bf 00ac 26ba c6e1 413d
00000350: 9c7a 41bd e287 61bd aade 28be 6f67 933c
00000360: d0f5 7cbc ab33 31be aebb 00be b281 90be
00000370: 8436 893e 568a 273d d931 b23e a493 29bd
00000380: 6674 453d f0b6 823c e133 2b3d b468 edbe
00000390: 6037 a03b d87e 0abd 640e e23c 727f c1be
000003a0: 41e1 d8be 0b36 11bd 1972 643e e5b0 4c3e
000003b0: 5029 973b baa8 a63e 3824 bc3e f0ec febb
000003c0: 26ce 8abf b822 fc3c 0a9d 333c c448 963e
000003d0: 1096 f53c 2c3d cd3c 6a7d b63e e945 29bd
000003e0: e8e9 9bbc 957a 88be 2c79 e93c d8dc c13e
000003f0: 1ce1 2cbd 389d 0e3c b94c 393d 8f54 99bc

Linear2.bias f4 [3]
0.26420572 0.3433477 0.31898043
00000000: f945 873e 45cb af3e 6751 a33e
