runs/run9/models/model1201.pth (torch, 10959 bytes, 4 tensors)

Linear1.weight f4 [256, 5]
00000000: cd84 9c3e 4d2f a73e 04b4 9c3e 4ad5 6dbc
00000010: 0972 c9bd b28b acbe 0131 6a3e df6c 013e
00000020: dd9b 663e 4279 d4be 3289 143e ec8b fb3e
00000030: 521b 0f3f 485a bf3d 1a2c 013c 2a2b 133e
00000040: 6021 b13e 48a7 313e e12e 773e 94d6 163e
00000050: 071d 81be 5387 8fbe c211 efbe 3e73 37be
00000060: 43a4 303e 64db 453f 6997 dd3e 5806 053f
00000070: 4f95 e13b e309 163e cf1b c5bd 446f 00be
00000080: 38bc 2bbd e3c1 b8be 5691 0dbf 0f0c 0ebd
00000090: 0f87 18be 5ec3 cfbe 4f64 7bbe 9edb 42be
000000a0: ae30 103e 2b32 1b3e f4ec 8f3d a687 fbbe
000000b0: 88e7 97be b0bc 4abd 0038 913d 9a2b 38be
000000c0: 903e ddbd 94db b1be 45df 013f d6df 0d3e
000000d0: cdcb 5f3d 3600 dd3c c02b 9ebc 8863 8dbe
000000e0: b0c8 99bd 659e 8cbe 9ee2 993e 32db a2be
000000f0: 7d28 efbd 1b58 703e f108 8e3e 3734 b6be
00000100: 6ff5 d1be 977c 54bf 2260 843f 9d9a 57bf
00000110: 9c35 f9be 0f35 0c3e cbee 97be edb0 c6be
00000120: afb6 a03e 7f38 ab3e ec44 39bc 3761 cfbe
00000130: bc52 fdbe a829 d43e ce46 bfbd 4bc2 fcbe
00000140: 6496 ddbd e994 7fbe ef9b f0be bcd1 9cbe
00000150: ccb1 693e 63e4 9cbe 99cd 363e fa09 7e3e
00000160: 9117 753d 1d98 3fbe ba39 4d3e ccf6 60be
00000170: bd49 17be 1de7 01be cd4a 993d ed1a 683f
00000180: 0241 5b3f b741 b93d 4045 9f3e 4172 52bc
00000190: 24ab 363e 0ad2 003e 51e8 f8bd 9b3a 3ebe
000001a0: 1a74 423e 23fe 0e3d ab7f c4be 2631 b5be
000001b0: 71c6 dbbe bf27 35be de49 243f 5a29 dc3e
000001c0: f2fa b93e 6fd6 473e 924c 73bd 29f9 023f
000001d0: c41d fd3e 8082 87bf d8ae b7be 872f e13d
000001e0: 46a7 99be 987f 893e 444e aebe e71e b33e
000001f0: e622 aabe e990 873f 50c0 fb3e d4d0 4e3f
00000200: aeea ce3e 8197 113e 5fd0 e43b 9f60 a3be
00000210: 2f37 a6be 66b2 ddbd 7acf 5cbd dbf7 c83d
00000220: 2aae a73d a42f d5be 0885 b83e 8c84 383e
00000230: 66c1 5fbe dbba efbe 2d55 d43d b569 bdbe
00000240: 8193 293d 90c7 1dbd 3d60 b2be 22e8 a8be
00000250: 4872 71bd b816 1fbe 11a6 76be 834d cc3e
00000260: 352f d63e 03fe 1dbe 9a49 12be e83a 853e
00000270: c0ea d83e 39fe d8be dd3b 3b3e f413 803e
00000280: ccb5 08bd 50d8 a93e 4d74 2cbd a1a6 4cbe
00000290: 3c4e 24be c490 c3be 1c55 94be f4ed 80bd
000002a0: 90f9 a93e a062 683c 4f68 8fbc 3700 053d
000002b0: 581e e5bc 8d1a 1cbd 2373 d3bd ffa9 05bf
000002c0: 557a 863f 047d 8ebf 85c8 2d3d 2edb d6bd
000002d0: 9061 d83d 207a 35bc d250 7dbe 58d0 3c3e
000002e0: 8753 bdbe 33cf 98be caef a0be 133f a5bd
000002f0: b9c8 c43e ec05 a6be 5370 3f3f 8734 c83e
00000300: 5338 5e3e e7f4 7cbd cfbb a03e 25a8 1f3f
00000310: e77b 413e 34d9 68bf 8c38 72bb e71e c2be
00000320: 4f65 1c3e f929 c9be f61d 4dbd ff1b 13be
00000330: 7d43 afbd 65c8 083e 87cb 883e df6f db3d
00000340: fd7a 3f3e a386 843d df94 38be 69de bdbd
00000350: 16bd 88be 1771 913e faca 593e 23e6 12bf
00000360: 41cf 103e fd53 07be f21b 2fbd 305f d2bd
00000370: 5d28 e2be ee2f 29be 428c e83d ee30 04bd
00000380: 7553 cabe 8378 753e 151f 64be 598d 2cbd
00000390: 98ed b63d 4f22 79be 2399 e93e f2de 0d3f
000003a0: daff 093f a5f4 c0bc 8e93 e33d 189d 3cbd
000003b0: eea8 82be 3224 40be 089d f7bd 005d a23e
000003c0: e5e9 7fbf 3ed6 793f 5244 87bf 3b45 863d
000003d0: d2d9 c93e d4d8 78be 1e49 a93e c3a5 3dbe
000003e0: 93d8 773e c30a b7be 43cd ddbe e403 9d3e
000003f0: 76fb 32be 10e0 923d 4409 a8be e0e9 53be
0.3057007 0.32653275 0.3060609 -0.014516184 -0.098362036 -0.3370033 0.22870256 0.12639187
0.22520395 -0.41498762 0.14505461 0.4913019 0.5590106 0.09343392 0.00788405 0.14371935
0.34595776 0.17348969 0.24138977 0.14730293 -0.2521746 -0.28032932 -0.46693236 -0.17915055
0.17250161 0.7728789 0.4327958 0.51962805 0.006884254 0.14652209 -0.09624445 -0.12542444
-0.041927546 -0.36085424 -0.5529989 -0.03467947 -0.14895271 -0.4057874 -0.24549983 -0.1902909
0.1408107 0.15155856 0.07027617 -0.4912693 -0.29668832 -0.049496353 0.07090759 -0.17985383
-0.108029485 -0.34737837 0.5073131 0.13854918 0.05463772 0.02697764 -0.019307971 -0.27615
-0.07508981 -0.27464595 0.30055708 -0.31807858 -0.116776444 0.2347111 0.27741197 -0.35586712
-0.41007563 -0.8300261 1.0341837 -0.84220296 -0.48673713 0.13692115 -0.29674372 -0.3880686
0.31389377 0.3344154 -0.011307936 -0.40503857 -0.49477184 0.4143803 -0.09339677 -0.49366984
-0.108197 -0.24959148 -0.46993968 -0.30628765 0.2282173 -0.30642995 0.17851867 0.24808493
0.059836928 -0.1871037 0.20041552 -0.21969146 -0.14774223 -0.12685819 0.0748497 0.90666085
0.8564607 0.09045737 0.3110752 -0.012844623 0.17838722 0.12580124 -0.12153686 -0.18577044
0.18989602 0.034910332 -0.38378653 -0.3538906 -0.42924836 -0.17690943 0.6417521 0.430003
0.3632427 0.19515394 -0.059399195 0.5116144 0.49436772 -1.05867 -0.35875583 0.10995393
-0.30010432 0.2685516 -0.34044087 0.34984514 -0.3322975 1.0591098 0.4917016 0.80787396
0.4041342 0.1421795 0.0069828476 -0.31909654 -0.32463977 -0.108250424 -0.053908803 0.098129
0.08187516 -0.4163791 0.36038995 0.18019313 -0.2185112 -0.46822247 0.103678085 -0.3699471
0.041400436 -0.038520396 -0.3483905 -0.32989603 -0.058946878 -0.1553601 -0.24086787 0.39902887
0.4183289 -0.15428929 -0.1428589 0.26021504 0.423666 -0.42381456 0.18284555 0.25015223
-0.0333765 0.33172846 -0.0421031 -0.19985439 -0.16045469 -0.38196385 -0.28971183 -0.06295386
0.33198214 0.01418367 -0.017505793 0.032470908 -0.02796857 -0.03811126 -0.10324695 -0.5221252
1.0506083 -1.1131902 0.04242756 -0.10491024 0.105654836 -0.01107648 -0.24737862 0.18438852
-0.3697779 -0.2984558 -0.31432945 -0.08068671 0.3843439 -0.32426393 0.7478077 0.39102575
0.21701173 -0.061756995 0.31393287 0.62365943 0.18894921 -0.90956426 -0.0036959974 -0.37914202
0.15273021 -0.39289835 -0.0500774 -0.14366148 -0.08557794 0.13357694 0.2671778 0.10714697
0.1869926 0.064709924 -0.1802554 -0.09270937 -0.2670676 0.28406593 0.21268836 -0.5738241
0.14141561 -0.13215633 -0.04275126 -0.10272062 -0.4417142 -0.1652219 0.11354877 -0.032273225
-0.39516798 0.23971753 -0.22277482 -0.042126987 0.08932036 -0.24329494 0.45624647 0.5541831
0.53906024 -0.023554156 0.11112128 -0.046048254 -0.25519508 -0.18763807 -0.12090498 0.31711578
-0.9996627 0.9759253 -1.0567725 0.065561734 0.39423996 -0.24301463 0.33063596 -0.18520264
0.2420371 -0.35750398 -0.43320665 0.3066703 -0.17478737 0.07171643 -0.3281957 -0.20694685

Linear1.bias f4 [256]
00000000: 96a6 6b3f 7ac0 a5be 5662 c33e 2aa8 d53e
00000010: a8db f33d fae9 a93e 0cc9 413e 8180 4d3e
00000020: bef8 f9bd eb59 95be e42d 5d3f 0283 88be
00000030: 0718 d1bd fad6 563e c6b9 bbbe ec0b cbbd
00000040: 1f55 2dbd 267c 59be e9f0 97bd 6ba9 773f
00000050: 2286 b2be 7e1a b33e a5fb fb3e 671f 893e
00000060: 1ebe 99be bcb6 083f 3956 fd3d b6b9 f9be
00000070: 1ae2 2c3b b86e 0f3e 3897 1d3f a491 f03e
00000080: e8ce 50be b2c3 aabe 5ca6 14bd 0709 6e3d
00000090: 3ec2 d2be 868c f3bd 1889 9d3e c789 b23e
000000a0: 7e9e b9bd f734 02bf c33d d4be cf01 e8be
000000b0: 1e62 773d 480e eebd fd6a 353f 7bd4 4dbe
000000c0: 8721 a0bd 42b5 9c3e 4a1a 89be a88e 933e
000000d0: 0cda ccbd 90e7 b0bd a93a 90be f22b f83e
000000e0: 5253 9c3e b8e6 c5be 1ac3 bdbe 646f 1ebe
000000f0: ccd9 c4be f0e2 89be b067 aabe 39d4 68be
00000100: 1de5 a3be fcee 003f 9def 6d3e 01a7 00bf
00000110: 863c 33be 9fd5 173d 1442 503f e3b9 cebe
00000120: 97ed 43bd bf0a 003f 9c99 4ebe 8c3f 163f
00000130: ecfc 29be 4de3 193e 6f6e ac3e 1835 ff3e
00000140: ac8b 1c3f 0fc0 a9be 6818 083d 8a4b b13d
00000150: 48dc 99be e042 7a3e 9058 263f 9dad 6cbd
00000160: e024 4f3e 35c0 d9be cba7 083e 5e41 16bf
00000170: 052f 8ebe 20b6 c2be 8069 75be 3cee d3be
00000180: e38a 6dbe 7e3e 17be c641 183d 56e3 d2be
00000190: c664 c43c cf9c 4c3e 6404 a9bd abdd b4bd
000001a0: 8637 813f 1f9d 4b3d 5c78 dbbe d05c 49be
000001b0: 60b5 a6bc ea4b bc3d 7b2d 183e 51c0 18bf
000001c0: 7ceb e9bd 00b9 8bbe 3d56 7bbe 0d71 92bd
000001d0: fd91 803f 5eaa 6b3e 226b a03e ac67 d13e
000001e0: 0516 583e 05cd 163f 782f 41be 9655 fdbc
000001f0: 7a14 bbbe c15e bbbe 89d5 7fbe 16b5 a73e
00000200: 4ad5 d0be 28cd ebbe 68d6 acbe 1a60 e9be
00000210: 6104 5a3e f3c7 3f3f 1574 a13e e4a7 94bd
00000220: 80b5 143f b2af 103f f0d3 acbe fb60 a1bd
00000230: 5b8f 5b3e 295c 0bbe 586b 9fbe b060 023d
00000240: 1355 063f b8b4 833f c5b4 b2be 3904 8ebe
00000250: aa6f 4fbe fb69 893b 824e c2be 6754 363f
00000260: d2b7 a13e cb95 cd3d 806d 9d3d acff 9fbe
00000270: 6093 b93e 1d40 15be a999 03bf 90be 2c3f
00000280: 5da3 da3e 4081 2b3d 5f51 c7be 3986 e03e
00000290: 0411 2bbe b0a0 3b3e 3419 a8be b022 75bd
000002a0: 8837 02be 519e da3e e8fe abbe c6c6 323d
000002b0: b9b3 95be dac7 38bb 6379 e4be b83f 67be
000002c0: c5f7 dabe d410 b9be 274f 1fbd 811c c23d
000002d0: 20dc 593e d71d 433d c35a d1be a90c 363e
000002e0: b14f 183e af64 0e3e 352c 3b3b 1ecb 593f
000002f0: 95e1 e13d 6eb7 e7bd 7186 563e 4a7d 5dbe
00000300: e00f 013e 469e b13c 94e5 2cbe 8038 a63d
00000310: 5eb8 abbd ea24 a8be b5f0 b0bd 9e5f 74be
00000320: e001 653d 7ec7 dd3c 9809 433f 5442 103f
00000330: 5067 9bbd 7a92 9bbe a050 56bd 467c 9ebe
00000340: 08f9 5cbc a3d1 a5be a570 66be f6aa edbe
00000350: 77de 97be 37fc cfbe ea29 093e a573 7dbe
00000360: 4e6c 9ebe ec4d 443e 4b32 963e a027 363e
00000370: 2778 053f 1394 743e aa33 553f 6301 a0bc
00000380: 6b02 ffbd 05cc d83b c7d1 febe 4f8b 7d3d
00000390: d2cb 3f3e 66a9 b6be 8e2f 283e e5b2 c13e
000003a0: 4a2a 17be dfb8 fcbc 7d2a 443e 1af0 ce3e
000003b0: 9480 9cbe af40 283f e792 a53e fb1d d3be
000003c0: 2e4f de3d 401a d4bd 2744 c63d 7e68 273f
000003d0: e0cd b2bd c759 2cbe 1ab3 3c3f 959a 39bb
000003e0: fcf3 8bbd 1cc1 833e 9d5c bbbe 2d0c 503f
000003f0: ecb9 efbe 1706 88bd dc1b cdbd 6f36 b7bd
0.92051065 -0.3237341 0.38160962 0.41729861 0.119071305 0.33186322 0.1892435 0.20068552
-0.12205647 -0.29170164 0.8639815 -0.2666245 -0.10209661 0.20980445 -0.3666517 -0.09914383
-0.042317506 -0.21238765 -0.07418997 0.96742886 -0.3486796 0.3498115 0.49215427 0.2678177
-0.3002786 0.5340383 0.12369961 -0.487745 0.0026379884 0.1400708 0.61558867 0.46986115
-0.20391428 -0.3335243 -0.036291465 0.058114078 -0.4116382 -0.11892037 0.30768657 0.3487074
-0.09063433 -0.5086207 -0.4145337 -0.4531388 0.060396306 -0.11623818 0.70866376 -0.20100586
-0.07818895 0.3060704 -0.2677787 0.28819776 -0.10002527 -0.08637917 -0.28169754 0.48471028
0.30532318 -0.38652587 -0.37062913 -0.1547218 -0.38447416 -0.26930952 -0.33282232 -0.22737207
-0.32010737 0.5036466 0.23235936 -0.5025483 -0.17503557 0.03706896 0.8135083 -0.40376195
-0.047834005 0.500164 -0.20175785 0.58690715 -0.16600388 0.15028115 0.33678004 0.49845195
0.6115062 -0.33154342 0.0332264 0.08656986 -0.30050874 0.24439573 0.64978886 -0.057782758
0.2022891 -0.42529455 0.13345258 -0.5869349 -0.27770248 -0.38029575 -0.23966026 -0.41392696
-0.23197512 -0.14769933 0.0371721 -0.4118907 0.023973834 0.19981693 -0.082527906 -0.08831342
1.009507 0.04971039 -0.42865264 -0.19664311 -0.020350158 0.09194167 0.148611 -0.5966845
-0.11421868 -0.2728958 -0.24544616 -0.07150469 1.0044552 0.23014209 0.31331736 0.40899408
0.2110215 0.58906585 -0.18865764 -0.0309246 -0.3653906 -0.3659573 -0.24983801 0.32755345
-0.40787727 -0.4605496 -0.3375733 -0.45581132 0.21290733 0.74914473 0.31533876 -0.07258585
0.5808945 0.5651809 -0.33755445 -0.07879826 0.21441405 -0.13609375 -0.31136584 0.03183049
0.5247356 1.0289526 -0.3490354 -0.27737597 -0.2025744 0.004193542 -0.37950522 0.7122254
0.31585556 0.10038336 0.07686901 -0.3124975 0.3624525 -0.14575239 -0.5140634 0.67478275
0.4270276 0.04187131 -0.3892927 0.43852404 -0.1670571 0.18323016 -0.32831728 -0.059847534
-0.12716496 0.4269891 -0.33592916 0.043646596 -0.2923868 -0.0028195293 -0.4462386 -0.225829
-0.42767158 -0.3614565 -0.038893845 0.09478093 0.21275377 0.04763588 -0.40889558 0.17778267
0.1487415 0.13905595 0.0028560285 0.8507556 0.110293545 -0.11314283 0.20949723 -0.21629825
0.12603712 0.021681916 -0.16884452 0.08116245 -0.083847746 -0.32840663 -0.08639661 -0.238646
0.05590999 0.027072664 0.76186514 0.5635121 -0.07588065 -0.3038519 -0.052322984 -0.30954188
-0.013487108 -0.32386503 -0.22503908 -0.46419495 -0.29661915 -0.40622112 0.13394895 -0.24751146
-0.30942005 0.1917035 0.29335245 0.17788553 0.5213646 0.23884611 0.8328196 -0.019531911
-0.12451633 0.006616118 -0.49769422 0.061900433 0.18730095 -0.35676116 0.1642439 0.37831798
-0.14762226 -0.030849872 0.19156833 0.40417558 -0.30566847 0.657237 0.3233864 -0.4123381
0.10854946 -0.10356569 0.09680968 0.6539382 -0.08730674 -0.16831122 0.7371079 -0.0028320898
-0.06833646 0.25733268 -0.36594096 0.8126858 -0.46821535 -0.066417865 -0.100150794 -0.08945929

Linear2.weight f4 [3, 256]
00000000: 8fc3 bc3e 2b8a 5cbd c44d 9f3e c27d 793e
00000010: 4ae1 91bc 2e16 d23e 2105 8c3d 6180 333c
00000020: e823 4f3c 00e9 f13a d9f7 cd3e 6cdf 20bd
00000030: 4872 3b3d 5477 22bf ba11 b5bc 8695 b6bd
00000040: 68ce 3fbc 28cc 373b 5f80 7dbd 07fc c63e
00000050: e6d7 71bd d6c9 b13d e8f8 c13e bf21 edbe
00000060: d425 40be a3e7 d73e e35d 803c 8466 99bc
00000070: a4db ecbc 009c 17bb d060 913e a84a 5b3e
00000080: 201e d03b 7066 afbc d7e7 333d c2ab 28bf
00000090: 046e c1bc 083e ff3c c042 c43e e802 b9be
000000a0: 77d8 cc3c 5613 b73d b876 dbbc d4b7 9f3c
000000b0: fec1 3c3d 8c95 46bd 4637 cd3e e031 5d3c
000000c0: 0b67 49bf 3f33 bcbe 9825 2c3c 5dd5 d1ba
000000d0: 466a 23bd a044 52bb fe62 283c 79b0 893e
000000e0: fcff 6cbe b600 7cbd c4ec c03d 28ab 13bd
000000f0: ab67 9e3d 9082 22bf 94b1 1c3d 12a8 a83d
00000100: 9cb3 26bd b8c3 943e 3e4d 24bf e960 a03d
00000110: 3a5b 67be d116 55bf c515 c03e a095 3bbb
00000120: a56b ea3d 7842 5a3e e6d0 88bf 21bd b33e
00000130: 5e95 f8bc b092 8b3d 4936 d13e 8196 d63e
00000140: 0d5f 7e3e 30ac 72bf 005e 74bd bfc9 943d
00000150: d206 223d 4e29 04bd 916d 943e d01c cfbb
00000160: c149 06bf 7044 8d3d 0b7d 9c3d 9e74 373d
00000170: 20cf 2e3d 04ff 5cbd 286d 7fbd 7030 32bc
00000180: 64c5 9c3c b018 bdbc 2490 16be 2ec6 6abd
00000190: 2f86 f13c e5bf 2c3d e0ae 80bb bc1c 57bf
000001a0: 3192 c23e ab15 353d 7c1b 32bd 27b9 2cbf
000001b0: d809 c1bc 38e2 14be 8e2c 77bd a098 10bc
000001c0: 7386 c93b cc1c 8e3c e651 63bd 43a5 cbbe
000001d0: 8461 c53e 9a80 19bf 5047 de3c a878 6e3e
000001e0: abc8 33bf b781 dc3e 7447 10bf 28ae d53c
000001f0: b5f4 c33c 2c75 503d 86c1 02bd cb0f 87be
00000200: cb39 42be 12fa b3bb 1c77 6ebd 1225 133d
00000210: 952c 373e 2722 893e 1db5 8fbf f0c9 92bc
00000220: d61e 963e ff61 b93e c0cc 473d fa87 fbbc
00000230: 7fe4 973e 0adb adbe fa71 183d 1020 3bbd
00000240: d68b 913e c311 b73e b8a2 58bd a0c4 5ebc
00000250: 3dd6 ec3d e53e fcbd 1849 8f3d 2005 ab3e
00000260: 96ed e0bd 2e0f 893b 2407 9a3c 3e8b 4c3d
00000270: 9713 aa3e 3a4b 34bf 84a4 ce3c 0913 e03e
00000280: ceee 7f3e f874 eabc 12b8 1dbd 8e7d 853e
00000290: e0f6 7a3b 74c9 df3e 1546 2f3d ec30 033d
000002a0: 8d2b 0e3d 3767 793e 95bb 14bd 6478 a4bd
000002b0: 5535 3d3d f547 5dbd 240e f43c f6f5 693d
000002c0: 4267 35bd 001c 12bc 173f eb3d 4f71 a8be
000002d0: b457 763e 9c7d fc3c dd2a 33bd 98a4 20bf
000002e0: cde4 353d b9c4 573e bacb f53d 8831 b13e
000002f0: 7040 4e3c 8bad 07be c966 003d 88b3 c4bc
00000300: e1eb 1cbc 7cf2 15bf d053 dd3b 801c 57bd
00000310: 0ddd 523d dee3 2e3d 4036 8d3c 49b2 ac3d
00000320: 30bd 4d3d 8059 6b3c 3d33 ce3e 5702 773e
00000330: d4cd 893d 90c0 cebb 74c9 ea3c e574 833d
00000340: b4c0 48bd c7a1 14bf 00ac 26ba c6e1 413d
00000350: 9c7a 41bd e287 61bd 9c0d 28be 6f67 933c
00000360: d0f5 7cbc 809b 2ebe 9e14 00be b0fa 8fbe
00000370: fb62 893e 74a8 273d 5945 b23e a493 29bd
00000380: 6674 453d f0b6 823c e133 2b3d 1277 ecbe
00000390: 6037 a03b d87e 0abd 640e e23c 25a5 c1be
000003a0: a5cb d7be 0b36 11bd 35ec 643e dfaa 4c3e
000003b0: 5029 973b 18c7 a63e d267 bc3e f0ec febb
000003c0: d5ac 8abf b822 fc3c c28d 2d3c 4c6f 963e
000003d0: 1096 f53c 2c3d cd3c b58a b63e d98b 25bd
000003e0: 298d 9bbc 745b 88be 2c79 e93c d11a c23e
000003f0: 1ce1 2cbd 389d 0e3c b94c 393d 8f54 99bc
0.3686795 -0.053842705 0.31114018 0.24364379 -0.017807622 0.41032547 0.06836916 0.010955901
0.012642838 0.001845628 0.40228155 -0.03927557 0.045763284 -0.6346333 -0.02210318 -0.08915238
-0.011706926 0.002804527 -0.061890002 0.38864157 -0.059043787 0.08681075 0.37885213 -0.4631481
-0.1876443 0.42168912 0.015669769 -0.018725641 -0.028913327 -0.0023133755 0.28394175 0.21415198
0.0063512474 -0.02141115 0.04392227 -0.6588708 -0.02361203 0.031157508 0.38332176 -0.3613503
0.025005562 0.08939235 -0.026790008 0.019496836 0.046083443 -0.048482463 0.40081233 0.013500661
-0.78672856 -0.36757848 0.01050701 -0.0016009022 -0.039896272 -0.003208436 0.010277508 0.2689245
-0.23144525 -0.061524116 0.094201595 -0.0360519 0.07734617 -0.6348047 0.03825529 0.08235182
-0.040698633 0.29055572 -0.6418036 0.07830984 -0.22593394 -0.8323794 0.3751661 -0.002862312
0.11446313 0.21314418 -1.0688751 0.3510523 -0.030344661 0.06815088 0.4086173 0.419117
0.24840946 -0.9479399 -0.059659958 0.072650425 0.039557286 -0.032265954 0.28989843 -0.0063205734
-0.5245629 0.06897819 0.076410376 0.04478895 0.042678 -0.05395414 -0.06235996 -0.010875806
0.019137092 -0.023083061 -0.14703423 -0.057317905 0.029482929 0.042175192 -0.0039270967 -0.8402822
0.3800216 0.044210117 -0.043483242 -0.6747002 -0.023564264 -0.1453942 -0.060345225 -0.008825451
0.006150061 0.017347716 -0.055498026 -0.39774522 0.3855096 -0.59961855 0.027133614 0.23288214
-0.7022807 0.43067715 -0.5635903 0.02608402 0.023920396 0.050892994 -0.03192284 -0.26379237
-0.18967359 -0.005492457 -0.05821906 0.035924025 0.178881 0.2678387 -1.1227146 -0.017918557
0.293204 0.36207578 0.04877925 -0.030704487 0.29666516 -0.33956176 0.03721807 -0.045684874
0.28427 0.3575574 -0.052889556 -0.013596684 0.115643 -0.12316684 0.069963634 0.33402348
-0.10982816 0.0041827178 0.018802233 0.04993748 0.3321807 -0.70427287 0.025224932 0.43764523
0.2499344 -0.028620228 -0.03850562 0.26072353 0.0038294122 0.43708384 0.042791445 0.032029077
0.034709502 0.2435578 -0.036311705 -0.08030775 0.04619344 -0.0540237 0.029791899 0.057119332
-0.044287927 -0.0089178085 0.11486643 -0.32898948 0.24056894 0.030821614 -0.04374205 -0.6275115
0.044407655 0.21071137 0.120017484 0.34608102 0.012588605 -0.13249795 0.031348024 -0.024011388
-0.009577722 -0.58573127 0.006754376 -0.052517414 0.05148034 0.04269778 0.017237782 0.08432443
0.05022925 0.0143646 0.40273467 0.24121986 0.06728712 -0.0063095763 0.028660513 0.0641878
-0.0490119 -0.5805935 -0.00063580275 0.047334455 -0.04723607 -0.05506123 -0.16411442 0.017993657
-0.015439466 -0.17051506 -0.12507865 -0.28120947 0.2683333 0.040932134 0.34818533 -0.041400567
0.04820671 0.015956372 0.041797522 -0.46184593 0.0048894137 -0.033812374 0.027594753 -0.37821308
-0.42147556 -0.03545193 0.22355731 0.19987057 0.004613079 0.3257377 0.3679796 -0.00777971
-1.0833994 0.030778274 0.01059288 0.29381788 0.029978782 0.025053583 0.356527 -0.040416572
-0.018988209 -0.26632273 0.028500162 0.37911084 -0.04220687 0.008704476 0.045239184 -0.018717078

Linear2.bias f4 [3]
00000000: d051 873e cc4c af3e d455 a33e
0.26429605 0.3423828 0.3190142
