runs/run5/models/model3601.pth (torch, 10959 bytes, 4 tensors)

Linear1.weight f4 [256, 5]
00000000: 0baa 8abe 3146 613d f3a9 38bd 457c 54bc
00000010: 873d 833e b660 36be 1714 b43c 67b9 b53b
00000020: 2965 293e 2b5d c8be a41b ba3e 2ceb 37be
00000030: 334d 183e 08b5 b3be 0e1a 8d3d 926c a03e
00000040: 3971 ba3d 05ec 0a3f 7e5e c6be 38c0 303f
00000050: 6ebf 77be 8dc2 1abf bf41 95be 729c 4ebd
00000060: 44fc 51be dd9d c1be 307b fcbd 7b97 dbbe
00000070: 90cd 78bd f439 dbbd a03a 1f3c 72ac af3e
00000080: a065 73be ec91 3bbe 2671 c8be 8835 b3be
00000090: 38b2 92be 9440 d6bc 9a37 053e 4756 bc3d
000000a0: 3639 9abe 7c41 08be c84f 24be c5d4 31be
000000b0: 48c6 2e3d 373c 2ebe d7db 0bbe a3da 09bf
000000c0: 1990 0dbf 93a5 523c 8818 f73d f82d 55bd
000000d0: 74b1 9b3e 5b4e b4be 2049 d33d d5e6 0c3f
000000e0: 510e 62be f116 37be 86a1 85be 805d afbe
000000f0: 7073 abbe d936 ccbe 0620 fdbe 9814 923d
00000100: aba4 12bf c82d 9fbe 2ced 1d3d f72d a4be
00000110: 5f53 8d3d 01df 6bbc e858 9cbf 249c a73e
00000120: 3a9f 81bf 5a3f e63e 959d d23e 3654 68be
00000130: 1177 a7bc 65eb ed3d acf5 b1be a710 a7bd
00000140: d094 2e3e 2e68 0bbf d76b afbe 0b60 73be
00000150: eb39 15bf fc6e 29be ae5e 893e 60d4 223d
00000160: 804d a53d b06e 7ebe c059 5e3c fc1e 13be
00000170: 3098 6b3e 1972 b8be d951 61be fb48 403e
00000180: cb64 2ebd 2998 dfbe c067 c4be 7887 6ebe
00000190: 881d 173e c3f0 92bc 2bae 533e d609 edbd
000001a0: 7d47 8f3e 60ae 6e3d 16ee abbe fae9 a9be
000001b0: e024 f8bd cc29 8a3e 07ef 38bc c65c ed3d
000001c0: c677 abbd 48e8 5bbd fed4 4a3c 417e 6c3e
000001d0: 8401 9b3c 33ad 57bc f158 72bf 4c78 8abe
000001e0: 1d8e bbbd f8f5 9cbd 62f7 febd 22ba 93bc
000001f0: d5d8 bcbe 8ccf 0ebf 84ea 603e b987 31bf
00000200: e539 833f 8a5b 843e 8c42 89bd 34f5 13be
00000210: c48e 96be 6613 17be 4540 dfbe d3d3 02bf
00000220: 8d6d 56bf c8f8 9c3e e04a d3bd a5e0 c1bd
00000230: 907c 903c 5675 56be 1880 313e 7ed1 8ebe
00000240: 71ab aabe 442f 04bf 4bc8 ed3d 5659 ebbe
00000250: 4f8c 26be 137b 7abd f6e1 c73e 8373 913e
00000260: 7049 003f ec5d 0dbf 5c14 2d3f d391 3d3e
00000270: db6d 14c0 dee3 693f a885 1e3f 6cd1 853e
00000280: 7114 163e 945a 7e3d 37d8 973e e027 3fbf
00000290: cd69 f5be d594 8a3d 4fff 9bbe 9e48 b1be
000002a0: 2860 b7bd 251d 6ebd a8ae 49be b88a 343e
000002b0: 840a ddbd 78a7 cebe e822 cf3e 07bd 37bf
000002c0: bc80 a7bd a242 4d3e 43ec c6be 7c82 943e
000002d0: aa05 05bf a751 ae3e 0b85 9abe 55f7 ffbe
000002e0: 97f2 9f3d 89c2 b6bd 73ed ce3a 9279 5dbe
000002f0: 919b e1bd 10ba 923d 42af 1dbf aa1c c03e
00000300: 6412 03bf 6a30 0f3d 8b2f 743e 61c9 ebbe
00000310: 8de0 40bf 28fa 2abe 6861 733e f1cb d83c
00000320: b08b 7e3e 222a 06be 5055 e7bd c03b b93d
00000330: 4874 0bbe 33df 27c0 f82e 0b3d 4ec1 c63e
00000340: 6b1b 56bd 4978 ce3e 2022 28be dc33 043d
00000350: c255 693b 1ea3 59be 136a 21bf a01e d0be
00000360: 1910 ffbe 5683 83be 37a0 ae3e af57 0cbb
00000370: 3da5 923e 2fc5 573c 4414 923d a327 ebbe
00000380: 3307 85be eda5 58be d5bf 95be 32ab 0b3e
00000390: 7f78 48be 194c b3bb 9c29 b73f de66 3f3f
000003a0: c8c6 65bf 2306 37bf 59dd db3d 83f7 9c3d
000003b0: c1bd 8e3e 584a 133e 3d89 e5bc b50d d93d
000003c0: 2e77 e83c 6365 bfbe 2d73 11be bf8b d6be
000003d0: c7c5 1a3e a07d acbd 62d4 dbbe 8795 d0be
000003e0: 21ef e4bd 8310 063d b87b 07bf 5976 4b3d
000003f0: f553 74bd 6bdd 023b 1ddc fabe 16ba 52be
-0.27082857 0.05499858 -0.04508395 -0.012969081 0.2563288 -0.1781033 0.021982236 0.0055457833
0.16542496 -0.39133582 0.36349213 -0.17960805 0.14873199 -0.35099053 0.06889735 0.31332833
0.09103627 0.5426639 -0.38743967 0.690433 -0.24194118 -0.6045311 -0.29151723 -0.050442167
-0.20506388 -0.37815753 -0.12328184 -0.42889008 -0.060742915 -0.10704413 0.009718567 0.34311253
-0.23769236 -0.18317384 -0.39148825 -0.3500178 -0.28651595 -0.02615384 0.13009492 0.091961436
-0.30121773 -0.1330623 -0.16046059 -0.17366321 0.042669564 -0.17015158 -0.13658081 -0.5384924
-0.55298 0.012856859 0.12065226 -0.052045792 0.30408823 -0.3521603 0.10316682 0.5503972
-0.22075774 -0.17879845 -0.26099795 -0.34251022 -0.3348651 -0.39885595 -0.49438494 0.07132834
-0.57282513 -0.31089616 0.038556263 -0.32066318 0.069006674 -0.01439643 -1.2214632 0.32736313
-1.0126717 0.44970208 0.4113585 -0.22688374 -0.020442517 0.116171636 -0.34757745 -0.08157473
0.17048955 -0.5445584 -0.34261963 -0.23767106 -0.582915 -0.16546243 0.26830047 0.039753318
0.080714226 -0.24846911 0.013571203 -0.14367288 0.23007274 -0.3602455 -0.22003879 0.1877784
-0.042576592 -0.43670776 -0.38360405 -0.23293865 0.14757359 -0.01793707 0.20671909 -0.11574142
0.2798423 0.058271766 -0.33580083 -0.33186322 -0.12116408 0.26985013 -0.011287457 0.11589961
-0.08372454 -0.053688318 0.012379883 0.23095037 0.018921621 -0.0131638525 -0.94666964 -0.27044904
-0.09157965 -0.07664102 -0.12449528 -0.018033091 -0.3688418 -0.5578544 0.2196446 -0.6934772
1.0252043 0.2585109 -0.06702146 -0.14449006 -0.29405797 -0.14753494 -0.4360372 -0.5110447
-0.8376091 0.30658555 -0.10317016 -0.09466676 0.017637521 -0.20943198 0.1733402 -0.27894205
-0.33333924 -0.5163462 0.116104685 -0.45966595 -0.16264461 -0.06115253 0.39039582 0.2840844
0.50112057 -0.5522144 0.6760919 0.18512659 -2.319205 0.9136332 0.61922693 0.2613634
0.14656235 0.0620981 0.29657146 -0.7467022 -0.47932282 0.06766669 -0.30468222 -0.34625715
-0.08953887 -0.058133263 -0.19695532 0.17631042 -0.10793021 -0.40362144 0.4045632 -0.7177281
-0.08178851 0.2004495 -0.38852128 0.29005802 -0.5196177 0.3404667 -0.3017963 -0.49993387
0.07809942 -0.089238234 0.0015787318 -0.21628407 -0.11016 0.07164395 -0.6159555 0.3752187
-0.51199937 0.03495828 0.23846261 -0.46052077 -0.7534264 -0.1669699 0.23767626 0.026464434
0.24857974 -0.1310201 -0.11295569 0.090445995 -0.13618577 -2.622998 0.03398034 0.38819355
-0.05227224 0.40326145 -0.16419268 0.03227602 0.0035604094 -0.2125363 -0.6305248 -0.40648365
-0.4981697 -0.2568614 0.3410661 -0.0021414568 0.28641692 0.013169571 0.071327716 -0.45928678
-0.25982055 -0.21157046 -0.2924792 0.13639525 -0.19577216 -0.005471718 1.4309573 0.7476634
-0.8975644 -0.7149374 0.10735578 0.076643966 0.27879146 0.14383829 -0.028019542 0.105983175
0.028377142 -0.3738204 -0.14204092 -0.41903493 0.15114509 -0.084223986 -0.42935473 -0.4073908
-0.11178423 0.03273059 -0.52923155 0.049673412 -0.05965038 0.0019968401 -0.48996058 -0.20578799

Linear1.bias f4 [256]
00000000: 0d9d a5be 58a2 89be 6990 96be 063d 903f
00000010: a74e e3bc 8243 68be 779c 6bbe 2bfc 12bf
00000020: 533f a13d ea19 773e 3ebb d5be 43c1 6cbc
00000030: 4d78 8b3e af4c 37bd 28ee 2f3d 9794 f53e
00000040: 6386 3c3e e275 a3be 700f f5bd 89b3 cebd
00000050: 5368 01bf 3779 70be 839b cebd 8f49 7b3d
00000060: d516 dc3d 590f 6dbe d82b ac3d c3d8 dfbd
00000070: d012 d7be 128c 8dbb c219 963f d9d5 7fbe
00000080: 2e50 05be e830 553c 4655 bcbe 91ed 62be
00000090: f361 9dbe 47d2 adbd 78fd babe 8208 01be
000000a0: 9ee8 e0be fd05 a13e 20e5 003d aaa2 5cbe
000000b0: 27ad 43be 3b67 fdbd 8ea4 8dbd 2d29 b7be
000000c0: 9212 5fbe b1d4 0fbd 94f5 08bd 408d 33be
000000d0: 80ad 413f ae31 30be 3bd0 08bf a9d9 a73b
000000e0: 9494 b6be b560 f4bc baae c7be 372e 89be
000000f0: cc25 de3d 4d79 4a3e a2a1 353e fb39 913e
00000100: e7b0 073f b8c7 203d 6b96 1b3e ea09 173e
00000110: 54ee b3be be7c a7be 5f16 d83d 3aa9 673c
00000120: bfad 49bd e0b6 b03c 0424 96be 3e98 4abe
00000130: 38d6 5bbe 7b60 c4bd 6c72 dcbe 5d3c b2be
00000140: a190 61bd dd69 f0be 4d67 e4be 36f6 6abd
00000150: a0c7 dabe e0e5 cdbd 02a1 05be 05bd 153c
00000160: 801b b9be 1559 2fbe 426d 66be ce0f 933d
00000170: 14aa fabd 46b2 44bd 584c 503d fc12 d5be
00000180: 58a3 16bf 55e5 e53c 95a5 12bf 16ef 8d3e
00000190: 054d cabd 6eeb e5bd 3104 0ebf e643 42be
000001a0: a96e 083d bfd6 b7be 3d09 06bf ab41 f03e
000001b0: e0cd 11bd 67e4 8c3d bbe7 a9bc 1616 a2be
000001c0: 2035 0f3e 8b17 a5be 3618 283e 2c8b a13c
000001d0: 3e71 afbe 121e 84be 04b3 92be 95a4 c53d
000001e0: 463e 43be 6728 10ba 20a9 96be e36f d3ba
000001f0: 9969 fcbc fa44 1dbe 2738 b5bd 176e c9be
00000200: 06aa 8abe 636e 70be be87 37be 5aa2 18be
00000210: 8736 5c3e 4def 87be da1d b5be 9935 103e
00000220: ea5a bdbe dd11 0a3e da6a 15be 4c0a 073e
00000230: eaad 69bd b499 f6bd 6e30 d6be 3649 6a3f
00000240: 22a2 cdbd da4c 95be 58cf f4bd 3a5f d4be
00000250: 94a6 96be 5f5f e0bd 172a f4be b42c fcbc
00000260: 0ae4 013d e01c c93c 6e46 b4bd e6d2 76be
00000270: a4e1 81be d2c4 3c3f 9c95 62bd 64d4 413e
00000280: bfa8 d13b 7cc0 cdbd 4e18 c4be 67d0 33be
00000290: 86e1 90bd a29a 96be 4a0e bebe 52e7 373e
000002a0: ca3f 093e 2501 1e3e d64b b93d dfc8 7bbe
000002b0: b6a4 b3be b9f9 7cba e0fb 24be 1ad9 4fbd
000002c0: d0b3 39be 09bd 09bf 5fe2 8dbd 2465 b4be
000002d0: f0fd 413d 64ac cb3d de1d a43d 50aa 14bd
000002e0: 7739 c8bd 37d8 0fbf 621e 89be fb1d b0bb
000002f0: e3ca 34be cccc 3c3e 76df 15be 9ad6 553e
00000300: d854 02be 9319 56be fa8d c4be 77b0 703e
00000310: 6147 4dbe d5f3 99bc c73d 8abd 03f0 e4be
00000320: 9261 2a3e 217e 90bd b04a 07bf 91bf acbe
00000330: 9513 043e 4192 fcbd 9fe3 cdbd 7a41 4f3e
00000340: ec37 a63e 42aa cbbe 7b94 35be 46d8 f6be
00000350: aff3 523d 10bd b0be c8b8 aabe 26f8 b93d
00000360: af75 f4be 52c5 ef3d 6ce6 00be ddae 0cbd
00000370: 4a08 c4be d441 183f d72d a03d 1162 e9bd
00000380: 7d08 8e3d 8e1b a6be f9fe 46be aecf 4e3d
00000390: 6a2c 833e 39fb 443e fdc4 5fbe faf7 fdbe
000003a0: b77a bdbe 8d46 c5be 57e1 d93c ce65 713e
000003b0: 0638 74be c72e 013d f038 32be 992e 1d3d
000003c0: 3100 b9bd c25a d6be 35d6 59be 889b 4ebd
000003d0: 0176 15be 4a60 0fbe 34d8 fcbe e519 c33d
000003e0: ebd2 42be ab71 22be f27d 16be 9e8e 9cbe
000003f0: 4c0f 1ebe b26b 193e 5cf9 2d3f f2d5 353e
-0.32346383 -0.2688167 -0.2940705 1.1268623 -0.027747465 -0.22682002 -0.23008905 -0.5741603
0.07873406 0.24130979 -0.41744417 -0.014450374 0.2724022 -0.044750866 0.042951733 0.47964928
0.1841064 -0.31925875 -0.11965835 -0.10092837 -0.5054981 -0.2348374 -0.10088255 0.061349448
0.10746542 -0.23150386 0.084068 -0.10930016 -0.4200654 -0.004319676 1.1726611 -0.2498392
-0.13018867 0.013012148 -0.36783808 -0.22160937 -0.30738792 -0.08487373 -0.36521506 -0.12600902
-0.43927473 0.3144988 0.03146851 -0.21546426 -0.19109021 -0.12373205 -0.06916152 -0.35773602
-0.21784428 -0.035114948 -0.033437327 -0.17534351 0.75655365 -0.17206451 -0.53442734 0.0051223827
-0.3566023 -0.02983127 -0.39000493 -0.26793072 0.10847053 0.19772835 0.1773744 0.28364548
0.53004307 0.039252967 0.15194099 0.14749876 -0.35142767 -0.32712358 0.10551142 0.014139468
-0.049237963 0.021571577 -0.29324353 -0.19784638 -0.21468437 -0.09588715 -0.43056047 -0.3481168
-0.05506957 -0.46955767 -0.44610062 -0.05736371 -0.42730427 -0.10053611 -0.13049701 0.009139304
-0.36153793 -0.17123826 -0.22502616 0.07180749 -0.12239471 -0.048021577 0.050854057 -0.41616046
-0.5884299 0.028063456 -0.5728391 0.2772147 -0.098779716 -0.11226545 -0.55475146 -0.18971214
0.03330866 -0.35906026 -0.52357846 0.469251 -0.03559673 0.06879502 -0.02074038 -0.31657475
0.1398511 -0.32244524 0.16415486 0.019719683 -0.34266084 -0.25804192 -0.28652203 0.09650532
-0.19066724 -0.00054991845 -0.29425907 -0.0016131367 -0.030812072 -0.15358344 -0.08848601 -0.39341804
-0.27082843 -0.23479609 -0.17922875 -0.14905682 0.21505176 -0.2654976 -0.35374337 0.14082946
-0.36983424 0.13483377 -0.14591542 0.13187522 -0.057050623 -0.12041035 -0.41833824 0.9151796
-0.1004069 -0.29160196 -0.1195361 -0.41478902 -0.29423964 -0.109556906 -0.47688362 -0.030783035
0.031711616 0.024549901 -0.08802496 -0.24103889 -0.25367463 0.73737824 -0.05531846 0.18928677
0.00639829 -0.10046479 -0.38299793 -0.17559968 -0.07074265 -0.2941485 -0.37120277 0.17959335
0.1340324 0.15430124 0.09047668 -0.24588345 -0.35086602 -0.00096502487 -0.16111708 -0.050744154
-0.18135 -0.5380407 -0.069279425 -0.35233414 0.047361314 0.0994499 0.08013509 -0.036295235
-0.097765855 -0.5618929 -0.26780993 -0.0053746677 -0.1765552 0.18437499 -0.14636025 0.20882645
-0.12727678 -0.20908193 -0.3838957 0.23504816 -0.2004676 -0.018793026 -0.06750064 -0.44714364
0.16638783 -0.07055307 -0.5284834 -0.33739904 0.12898095 -0.12332583 -0.10053181 0.20239821
0.3246454 -0.39778334 -0.17732422 -0.4821188 0.051501926 -0.34519243 -0.33344102 0.09080534
-0.47746035 0.11707558 -0.12587899 -0.03434645 -0.38287574 0.59475446 0.07821243 -0.11395658
0.06935213 -0.32442898 -0.19433202 0.050491028 0.25619823 0.19236459 -0.21852489 -0.49603254
-0.37007686 -0.38530388 0.026596708 0.23573992 -0.23849496 0.03153875 -0.17404532 0.038374517
-0.0903324 -0.41866118 -0.2127312 -0.050441295 -0.14595796 -0.14001575 -0.493837 0.09526423
-0.19025771 -0.15863673 -0.14696482 -0.30577558 -0.15435523 0.14982489 0.6795862 0.17757395

Linear2.weight f4 [3, 256]
00000000: 7804 59bc fba5 96bd a2b6 30bc 0241 173f
00000010: dd0a e8bd 44e8 05bd 7008 aa3c c03a 043c
00000020: 25a9 5e3d 0e3f 4d3d 5eee 27bd a6f6 283e
00000030: 71fb 8fbd 8845 5cbc 5365 3cbf e963 893e
00000040: 2762 d93c 1cb9 00bd 4098 393d 5467 143d
00000050: 92f8 253d 88b0 023d f007 a13c cc18 4e3e
00000060: a834 e83c f043 37bf 5408 733d 4ed6 30be
00000070: d2d8 1dbd 0968 0bbe 6555 1e3f 0385 6fbf
00000080: 9799 823e be33 bc3d a0fd 1b3b ee36 56be
00000090: 3b88 b4be 0527 9e3d 5bd8 373d 6f0f 1ebe
000000a0: 8204 6b3d a1bc 2fc0 406c 123d a04a 2abd
000000b0: 3985 253e 5e77 723d c52e 36bf 0a75 ba3d
000000c0: 40e2 3a3c b81f c93c 20e7 2bbe 63cb 4ebd
000000d0: 7995 1d3f ed11 28bd 6612 1e3d 050d a03d
000000e0: 4d20 97bd f99a 14bd 26ef 42bd 68dc 643e
000000f0: 022e 08be 306f 0b3c 89ce 25be 4df6 08c0
00000100: d8b3 0a3f b9b3 5cbb 7697 34bf d0e5 57bd
00000110: 5a1b 5f3d cca3 153d e8c7 d03c b4c2 b9be
00000120: 6c37 e83c 903d 3cbb 80cf babc 4052 6b3d
00000130: f2d6 94bd 995e dfbd 18c0 4e3d 42fa 043d
00000140: 0cbf c8bd a220 043d 965c c0bd 65ff aebe
00000150: 08bd 05bf 9cdc 603c 696b ecbd ebed 483d
00000160: ec00 b13c eb02 a73c 179a 4fbd ba6e bebc
00000170: c306 6cbc 02a8 763d 18d4 37bc 6c3c c03c
00000180: 0777 23bf 9eb1 943d 9d0b fbbe 9c66 c53d
00000190: 0de4 bc3d 6e0f 08bf e819 4f3e 6c70 283d
000001a0: 8aaf 133e dca6 c3bc 3c5a 053e 1b4e 173f
000001b0: e64c 333d 8a34 25be 16ca 1c3d 805c d13b
000001c0: 2802 ccbd 907a f8bd ceab 353e 1db9 4cbc
000001d0: 5a99 14bd 006c 1f3b 3ee2 4a3d 0a9d ddbc
000001e0: dc63 103d e9fd 933b 6cb6 1f3e 6047 ae3b
000001f0: 8ff1 d83d 27dd dbbc e02f cb3c befa 37bf
00000200: a0f9 79bb 7480 96be a876 b2bc d01b 9f3d
00000210: 099b 013d 0333 f2bd 5b5e 7f3d 0b3a 87bf
00000220: f808 703c 4053 5cbc 1699 8f3e e58e 603c
00000230: 13ed c6bd 1886 c83c 6205 c33d 8629 0e3f
00000240: e8a5 19be cc95 c0bc 664b 4abd d852 c03d
00000250: cfb6 d13d 1f43 873b 928e 17bd ace4 d7be
00000260: 860e 123d 76eb 4abd 26f3 9ebe a62b 16ba
00000270: 4d15 8c3d 78c7 013f 5f13 22be a49a 333d
00000280: 29f3 7e3d bcfa 91bc fb79 dbbc ab96 453e
00000290: f350 93bd 1ef5 2fbd a6bc 153d e5fb 29bf
000002a0: 092a fdbe 0c2e 1bbe 81bf 94bd 2482 603b
000002b0: a278 473d 1129 aebd f46f f9bc 0b25 adbe
000002c0: 10fb 113d f76d 74bd 2d2d e53d a016 bb3b
000002d0: 4cf4 c6bc 2ddf 7b3d 6c77 a13c 9018 683d
000002e0: 54ae 163e 3612 41bd 8c93 2e3d 39b8 71bd
000002f0: 1fa2 eebd e974 173e 9d6a 1fbd 3d4f eb3c
00000300: d52c ae3d 50b0 263d 9508 1fbe 1c79 36bf
00000310: 7ba1 4c3c 3f10 273e ac03 a5bc b2cf 113d
00000320: 83f5 f6bd 0065 fdbd 403f bcbc 60c2 b9bd
00000330: b406 f3bd 52bd 243c c54f 3fbf f932 1ec0
00000340: d470 93bc 1868 153c ea56 0f3e 7166 2fbe
00000350: 5f9c 65bd 3aa4 c2be 1a49 023d 3c4d 883e
00000360: b42c b9bc 399a 4e3c 7661 093d 3bf1 16be
00000370: 12ac 713d ca6a 123f 7bde 0a3c 641f 333c
00000380: 654f 34bd 40dd 303c 20b9 89bc 67c2 83bd
00000390: 49c9 83be b4a5 cabf bd27 bdbe 5394 c93d
000003a0: 498c d4be 0a20 223d 825a c43b 1e71 94bd
000003b0: 0929 b7bd f481 983d ec41 8fbd 9dc7 563d
000003c0: 74e8 52bd ef3d 31bd dea1 46bd b189 96bd
000003d0: 652b 163e c3ef b1bd fb94 a5bc 4f8a 73bd
000003e0: b0e7 fb3c f0a3 cdbc 3060 1a3c bf57 193d
000003f0: ee50 0fbe 63ce 0cc0 859c 0f3f bedb d0bd
-0.013245694 -0.07355877 -0.010785731 0.5908357 -0.11330197 -0.03269221 0.020755976 0.008070648
0.054360528 0.05010896 -0.04099881 0.16500339 -0.070303805 -0.013444312 -0.7359211 0.26834038
0.02653606 -0.031426534 0.045311213 0.036231354 0.04052026 0.031906635 0.019657105 0.20126647
0.028345421 -0.7158804 0.059334114 -0.17269251 -0.038536854 -0.13613905 0.6184905 -0.93562335
0.25507805 0.091895565 0.0023802295 -0.20919392 -0.35260186 0.07722286 0.044884067 -0.15435575
0.057377346 -2.745888 0.035747766 -0.041575074 0.16164102 0.05919587 -0.71165115 0.09104355
0.011406481 0.024551257 -0.16787386 -0.050486933 0.615562 -0.04103272 0.038591765 0.07814983
-0.07379208 -0.036280606 -0.04759135 0.22349703 -0.132988 0.008510396 -0.16192068 -2.140033
0.5418067 -0.003367646 -0.7054361 -0.0527094 0.054469444 0.036533162 0.025485948 -0.3628136
0.02834674 -0.0028723218 -0.022804022 0.057451487 -0.0726756 -0.10906715 0.050476164 0.032465227
-0.09802064 0.032257684 -0.09392659 -0.34179226 -0.52241564 0.013724472 -0.11543924 0.04905502
0.021606885 0.020387134 -0.05068406 -0.023246158 -0.014405909 0.06021882 -0.011220001 0.023466311
-0.63853496 0.0726044 -0.49032298 0.09638712 0.09223185 -0.53148544 0.20224726 0.04112284
0.14422432 -0.023883276 0.13022703 0.59103554 0.043774508 -0.16133323 0.03827866 0.0063892007
-0.09961349 -0.12132752 0.1774132 -0.012495306 -0.03627906 0.0024325848 0.049532168 -0.027052421
0.035251483 0.0045163524 0.15596932 0.005318567 0.10592949 -0.026838852 0.024803102 -0.7186698
-0.0038143173 -0.29394877 -0.021785095 0.07768977 0.031641994 -0.11826136 0.062345844 -1.0564588
0.014650576 -0.013447583 0.28046483 0.013705944 -0.09713187 0.024478003 0.09522511 0.5553211
-0.15004694 -0.023508929 -0.04938831 0.09390801 0.10239946 0.0041278745 -0.0370012 -0.4216665
0.035658382 -0.04954096 -0.31044883 -0.000572855 0.0684 0.5069499 -0.15827702 0.04384865
0.062243614 -0.017819755 -0.026791563 0.19295757 -0.07193174 -0.04295837 0.036556862 -0.66399986
-0.49446133 -0.15154284 -0.07263089 0.0034257257 0.04869903 -0.085039265 -0.030448891 -0.33817324
0.035639822 -0.059675183 0.11190257 0.005709484 -0.024286412 0.061492134 0.019710265 0.05666405
0.14714938 -0.047136508 0.04262118 -0.05901358 -0.11652016 0.14790691 -0.038920034 0.028724307
0.08504645 0.04069549 -0.15530618 -0.7127855 0.012489672 0.16314791 -0.020143352 0.035598464
-0.120585464 -0.1237278 -0.022979379 -0.09070277 -0.11866513 0.010054903 -0.74731094 -2.4718611
-0.017998137 0.009119056 0.13997999 -0.17128922 -0.05605733 -0.3801592 0.031807996 0.26621425
-0.022604324 0.012610012 0.03354021 -0.1474046 0.05900199 0.571942 0.008475895 0.010932777
-0.04402103 0.010794938 -0.016811907 -0.06433564 -0.25739506 -1.5831819 -0.3694438 0.09842744
-0.4151328 0.039581336 0.0059922347 -0.07248138 -0.08943374 0.074466616 -0.069949955 0.05243646
-0.051491216 -0.043271955 -0.048494212 -0.07350481 0.14664991 -0.08688309 -0.020212641 -0.059458073
0.030750126 -0.025102586 0.009422347 0.037437197 -0.13995716 -2.2000968 0.56098205 -0.101981625

Linear2.bias f4 [3]
00000000: b09d b33e 94b3 013f 3faa e33e
0.35081244 0.5066464 0.44465825
