runs/run5/models/model801.pth (torch, 10959 bytes, 4 tensors)

Linear1.weight f4 [256, 5]
000000 0b aa 8a be 31 46 61 3d f3 a9 38 bd 45 7c 54 bc
       -0.27082857 0.05499858 -0.04508395 -0.012969081
000010 87 3d 83 3e b6 60 36 be 17 14 b4 3c 67 b9 b5 3b
       0.2563288 -0.1781033 0.021982236 0.0055457833
000020 29 65 29 3e 2b 5d c8 be a4 1b ba 3e 2c eb 37 be
       0.16542496 -0.39133582 0.36349213 -0.17960805
000030 33 4d 18 3e 08 b5 b3 be 0e 1a 8d 3d 25 82 06 3f
       0.14873199 -0.35099053 0.06889735 0.52542335
000040 e9 57 f3 3c 2a 4a e2 3e 2b 81 b4 be b4 c6 2d 3f
       0.029705005 0.44197208 -0.35254797 0.6788132
000050 6e bf 77 be 8d c2 1a bf bf 41 95 be 72 9c 4e bd
       -0.24194118 -0.6045311 -0.29151723 -0.050442167
000060 44 fc 51 be dd 9d c1 be 30 7b fc bd 7b 97 db be
       -0.20506388 -0.37815753 -0.12328184 -0.42889008
000070 90 cd 78 bd f4 39 db bd a0 3a 1f 3c 72 ac af 3e
       -0.060742915 -0.10704413 0.009718567 0.34311253
000080 a0 65 73 be ec 91 3b be 26 71 c8 be 88 35 b3 be
       -0.23769236 -0.18317384 -0.39148825 -0.3500178
000090 38 b2 92 be 94 40 d6 bc 9a 37 05 3e 47 56 bc 3d
       -0.28651595 -0.02615384 0.13009492 0.091961436
0000a0 36 39 9a be 7c 41 08 be c8 4f 24 be c5 d4 31 be
       -0.30121773 -0.1330623 -0.16046059 -0.17366321
0000b0 48 c6 2e 3d 37 3c 2e be d7 db 0b be a3 da 09 bf
       0.042669564 -0.17015158 -0.13658081 -0.5384924
0000c0 19 90 0d bf 93 a5 52 3c 88 18 f7 3d f8 2d 55 bd
       -0.55298 0.012856859 0.12065226 -0.052045792
0000d0 74 b1 9b 3e 5b 4e b4 be 20 49 d3 3d c2 73 04 3f
       0.30408823 -0.3521603 0.10316682 0.5173913
0000e0 6b 9c 81 be d0 62 58 be ae 7e 96 be e9 3a c0 be
       -0.2531465 -0.21131444 -0.29393524 -0.37544945
0000f0 c5 f5 a9 be 2b b9 ca be 58 a2 fb be 37 0b 98 3d
       -0.3319532 -0.39594397 -0.49147296 0.07424014
000100 c9 e5 11 bf c8 2d 9f be 2c ed 1d 3d f7 2d a4 be
       -0.5699125 -0.31089616 0.038556263 -0.32066318
000110 5f 53 8d 3d 01 df 6b bc 82 8f 88 bf 9d 4c c0 3e
       0.069006674 -0.01439643 -1.0668795 0.3755845
000120 45 b5 8d bf cc bb e8 3e aa f7 c4 3e 46 54 91 bc
       -1.1070944 0.45455778 0.38470203 -0.01774038
000130 a5 60 83 bd 0f 1b c0 3c 9c 40 9e be e9 ff 85 bd
       -0.06414918 0.023450403 -0.30908668 -0.065429516
000140 a2 35 3d 3e 78 c0 07 bf c1 1c a8 be 6c bf 64 be
       0.1847749 -0.5302806 -0.32834437 -0.22338647
000150 0a 92 11 bf fc 6e 29 be ae 5e 89 3e 60 d4 22 3d
       -0.5686346 -0.16546243 0.26830047 0.039753318
000160 80 4d a5 3d b0 6e 7e be c0 59 5e 3c fc 1e 13 be
       0.080714226 -0.24846911 0.013571203 -0.14367288
000170 30 98 6b 3e 19 72 b8 be d9 51 61 be fb 48 40 3e
       0.23007274 -0.3602455 -0.22003879 0.1877784
000180 cb 64 2e bd 29 98 df be c0 67 c4 be 78 87 6e be
       -0.042576592 -0.43670776 -0.38360405 -0.23293865
000190 88 1d 17 3e c3 f0 92 bc 2b ae 53 3e d6 09 ed bd
       0.14757359 -0.01793707 0.20671909 -0.11574142
0001a0 7d 47 8f 3e 60 ae 6e 3d 16 ee ab be fa e9 a9 be
       0.2798423 0.058271766 -0.33580083 -0.33186322
0001b0 e0 24 f8 bd cc 29 8a 3e 07 ef 38 bc c6 5c ed 3d
       -0.12116408 0.26985013 -0.011287457 0.11589961
0001c0 c6 77 ab bd 48 e8 5b bd fe d4 4a 3c 41 7e 6c 3e
       -0.08372454 -0.053688318 0.012379883 0.23095037
0001d0 84 01 9b 3c 33 ad 57 bc f1 58 72 bf 4c 78 8a be
       0.018921621 -0.0131638525 -0.94666964 -0.27044904
0001e0 3f d8 a5 bd 21 40 87 bd 8b 41 e9 bd 46 8a f3 bb
       -0.08097886 -0.066040285 -0.113894545 -0.007432255
0001f0 5d 6b b7 be a9 7a 26 bf f1 38 96 3e ab ff 41 bf
       -0.358241 -0.65030915 0.29340318 -0.75780743
000200 70 90 59 3f ee 9c 45 3e 8c 42 89 bd 34 f5 13 be
       0.8498602 0.19298145 -0.06702146 -0.14449006
000210 c4 8e 96 be 66 13 17 be 45 40 df be d3 d3 02 bf
       -0.29405797 -0.14753494 -0.4360372 -0.5110447
000220 8d 6d 56 bf c8 f8 9c 3e e0 4a d3 bd a5 e0 c1 bd
       -0.8376091 0.30658555 -0.10317016 -0.09466676
000230 90 7c 90 3c 56 75 56 be 18 80 31 3e 7e d1 8e be
       0.017637521 -0.20943198 0.1733402 -0.27894205
000240 71 ab aa be 44 2f 04 bf 4b c8 ed 3d 56 59 eb be
       -0.33333924 -0.5163462 0.116104685 -0.45966595
000250 4f 8c 26 be 13 7b 7a bd d1 c0 19 3f a5 18 64 3e
       -0.16264461 -0.06115253 0.6005984 0.22275026
000260 b5 f8 c9 3e 8d 0a 06 bf 77 dc 29 3f ff 4f 00 3e
       0.3944756 -0.5235985 0.6635203 0.12530516
000270 d8 d1 09 c0 f2 c8 70 3f 26 4e 27 3f 7f ea a5 3e
       -2.1534328 0.9405662 0.6535362 0.3240547
000280 a7 8e 1c 3e 73 1e 82 3d 97 43 9b 3e ba a4 3e bf
       0.15288793 0.06353464 0.30325004 -0.744701
000290 27 c8 f3 be d5 94 8a 3d 4f ff 9b be 9e 48 b1 be
       -0.47613642 0.06766669 -0.30468222 -0.34625715
0002a0 28 60 b7 bd 25 1d 6e bd a8 ae 49 be b8 8a 34 3e
       -0.08953887 -0.058133263 -0.19695532 0.17631042
0002b0 84 0a dd bd 78 a7 ce be e8 22 cf 3e 07 bd 37 bf
       -0.10793021 -0.40362144 0.4045632 -0.7177281
0002c0 bc 80 a7 bd a2 42 4d 3e 43 ec c6 be 7c 82 94 3e
       -0.08178851 0.2004495 -0.38852128 0.29005802
0002d0 aa 05 05 bf a7 51 ae 3e 0b 85 9a be 55 f7 ff be
       -0.5196177 0.3404667 -0.3017963 -0.49993387
0002e0 97 f2 9f 3d 89 c2 b6 bd 73 ed ce 3a 92 79 5d be
       0.07809942 -0.089238234 0.0015787318 -0.21628407
0002f0 91 9b e1 bd 10 ba 92 3d 42 af 1d bf aa 1c c0 3e
       -0.11016 0.07164395 -0.6159555 0.3752187
000300 64 12 03 bf 6a 30 0f 3d 8b 2f 74 3e 61 c9 eb be
       -0.51199937 0.03495828 0.23846261 -0.46052077
000310 8d e0 40 bf 28 fa 2a be 68 61 73 3e f1 cb d8 3c
       -0.7534264 -0.1669699 0.23767626 0.026464434
000320 b0 8b 7e 3e 22 2a 06 be 50 55 e7 bd c0 3b b9 3d
       0.24857974 -0.1310201 -0.11295569 0.090445995
000330 48 74 0b be d4 99 14 c0 aa 9a 6d 3c 45 35 04 3f
       -0.13618577 -2.321889 0.014502207 0.5164378
000340 36 d0 86 3c c7 1b cf 3e 20 22 28 be dc 33 04 3d
       0.016456705 0.4045088 -0.16419268 0.03227602
000350 c2 55 69 3b 1e a3 59 be 13 6a 21 bf a0 1e d0 be
       0.0035604094 -0.2125363 -0.6305248 -0.40648365
000360 19 10 ff be 56 83 83 be 37 a0 ae 3e af 57 0c bb
       -0.4981697 -0.2568614 0.3410661 -0.0021414568
000370 3d a5 92 3e 2f c5 57 3c 44 14 92 3d a3 27 eb be
       0.28641692 0.013169571 0.071327716 -0.45928678
000380 33 07 85 be ed a5 58 be d5 bf 95 be 32 ab 0b 3e
       -0.25982055 -0.21157046 -0.2924792 0.13639525
000390 7f 78 48 be 19 4c b3 bb e6 02 9b 3f ec bc 3e 3f
       -0.19577216 -0.005471718 1.211026 0.7450702
0003a0 0a eb 67 bf 7c c5 33 bf 1e ea d8 3b 83 f7 9c 3d
       -0.90593016 -0.7022321 0.006619706 0.076643966
0003b0 c1 bd 8e 3e 58 4a 13 3e 3d 89 e5 bc b5 0d d9 3d
       0.27879146 0.14383829 -0.028019542 0.105983175
0003c0 2e 77 e8 3c 63 65 bf be 2d 73 11 be bf 8b d6 be
       0.028377142 -0.3738204 -0.14204092 -0.41903493
0003d0 c7 c5 1a 3e a0 7d ac bd 62 d4 db be 87 95 d0 be
       0.15114509 -0.084223986 -0.42935473 -0.4073908
0003e0 21 ef e4 bd 83 10 06 3d b8 7b 07 bf 59 76 4b 3d
       -0.11178423 0.03273059 -0.52923155 0.049673412
0003f0 f5 53 74 bd 6b dd 02 3b 1d dc fa be 16 ba 52 be
       -0.05965038 0.0019968401 -0.48996058 -0.20578799

Linear1.bias f4 [256]
000000 0d 9d a5 be 58 a2 89 be 69 90 96 be d4 33 7d 3f
       -0.32346383 -0.2688167 -0.2940705 0.9890721
000010 a7 4e e3 bc 82 43 68 be 77 9c 6b be 2b fc 12 bf
       -0.027747465 -0.22682002 -0.23008905 -0.5741603
000020 53 3f a1 3d ea 19 77 3e 3e bb d5 be 80 4b 43 bd
       0.07873406 0.24130979 -0.41744417 -0.047679424
000030 f8 f5 8c 3e af 4c 37 bd 24 0a 30 3d 5c e9 bf 3e
       0.2753141 -0.044750866 0.04297842 0.37482727
000040 63 27 4b 3e e2 75 a3 be 70 0f f5 bd 89 b3 ce bd
       0.19839244 -0.31925875 -0.11965835 -0.10092837
000050 53 68 01 bf 37 79 70 be 83 9b ce bd 8f 49 7b 3d
       -0.5054981 -0.2348374 -0.10088255 0.061349448
000060 b8 cc f1 3d f2 d3 57 be d8 2b ac 3d c3 d8 df bd
       0.11806625 -0.21076944 0.084068 -0.10930016
000070 d0 12 d7 be 12 8c 8d bb 3e f3 83 3f c6 6b 3a be
       -0.4200654 -0.004319676 1.0308607 -0.18205175
000080 6a 46 ff bd e8 30 55 3c 46 55 bc be 91 ed 62 be
       -0.12464602 0.013012148 -0.36783808 -0.22160937
000090 f3 61 9d be 47 d2 ad bd 78 fd ba be 82 08 01 be
       -0.30738792 -0.08487373 -0.36521506 -0.12600902
0000a0 9e e8 e0 be f6 20 c1 3e 20 e5 00 3d aa a2 5c be
       -0.43927473 0.3772046 0.03146851 -0.21546426
0000b0 27 ad 43 be 3b 67 fd bd b8 89 c2 bd 2d 29 b7 be
       -0.19109021 -0.12373205 -0.09498924 -0.35773602
0000c0 92 12 5f be b1 d4 0f bd 94 f5 08 bd 40 8d 33 be
       -0.21784428 -0.035114948 -0.033437327 -0.17534351
0000d0 f6 72 1e 3f ae 31 30 be 3b d0 08 bf a9 d9 a7 3b
       0.61894166 -0.17206451 -0.53442734 0.0051223827
0000e0 94 94 b6 be b5 60 f4 bc ba ae c7 be 94 33 87 be
       -0.3566023 -0.02983127 -0.39000493 -0.26406538
0000f0 cc 25 de 3d 43 19 3d 3e 45 aa 3f 3e 31 4d 93 3e
       0.10847053 0.18466668 0.18717296 0.2876983
000100 bf ab ce 3e b8 c7 20 3d 7f cb 11 3e ea 09 17 3e
       0.40365407 0.039252967 0.14237784 0.14749876
000110 54 ee b3 be be 7c a7 be 5f 16 d8 3d bf d1 3e 3d
       -0.35142767 -0.32712358 0.10551142 0.04658675
000120 bf ad 49 bd e0 b6 b0 3c 04 24 96 be 3e 98 4a be
       -0.049237963 0.021571577 -0.29324353 -0.19784638
000130 38 d6 5b be 7b 60 c4 bd 6c 72 dc be 5d 3c b2 be
       -0.21468437 -0.09588715 -0.43056047 -0.3481168
000140 78 fd 32 ba dd 69 f0 be 4d 67 e4 be 36 f6 6a bd
       -0.0006827931 -0.46955767 -0.44610062 -0.05736371
000150 58 f7 de be e0 e5 cd bd 02 a1 05 be 6f bd 15 3c
       -0.43548083 -0.10053611 -0.13049701 0.009139403
000160 80 1b b9 be 15 59 2f be 42 6d 66 be ce 0f 93 3d
       -0.36153793 -0.17123826 -0.22502616 0.07180749
000170 14 aa fa bd 46 b2 44 bd 58 4c 50 3d fc 12 d5 be
       -0.12239471 -0.048021577 0.050854057 -0.41616046
000180 54 a6 13 bf 55 e5 e5 3c 95 a5 12 bf b6 bc 59 3e
       -0.5767567 0.028063456 -0.5728391 0.21263394
000190 05 4d ca bd 07 ea 4e bd 31 04 0e bf e6 43 42 be
       -0.098779716 -0.050516155 -0.55475146 -0.18971214
0001a0 a9 6e 08 3d bf d6 b7 be 3d 09 06 bf 9e 30 ad 3e
       0.03330866 -0.35906026 -0.52357846 0.33826154
0001b0 e0 cd 11 bd 67 e4 8c 3d bb e7 a9 bc 16 16 a2 be
       -0.03559673 0.06879502 -0.02074038 -0.31657475
0001c0 20 35 0f 3e 8b 17 a5 be b5 f4 95 3d 2c 8b a1 3c
       0.1398511 -0.32244524 0.07322065 0.019719683
0001d0 3e 71 af be 12 1e 84 be 04 b3 92 be 66 fa a7 3d
       -0.34266084 -0.25804192 -0.28652203 0.082020566
0001e0 46 3e 43 be 67 28 10 ba 20 a9 96 be e3 6f d3 ba
       -0.19066724 -0.00054991845 -0.29425907 -0.0016131367
0001f0 99 69 fc bc fa 44 1d be 27 38 b5 bd 55 72 8f be
       -0.030812072 -0.15358344 -0.08848601 -0.28016916
000200 06 aa 8a be 69 aa a0 be be 87 37 be 5a a2 18 be
       -0.27082843 -0.31380013 -0.17922875 -0.14905682
000210 87 36 5c 3e 4d ef 87 be da 1d b5 be cc f1 21 3e
       0.21505176 -0.2654976 -0.35374337 0.15814894
000220 ea 5a bd be dd 11 0a 3e da 6a 15 be 4c 0a 07 3e
       -0.36983424 0.13483377 -0.14591542 0.13187522
000230 ea ad 69 bd b4 99 f6 bd 6e 30 d6 be 99 dd 47 3f
       -0.057050623 -0.12041035 -0.41833824 0.78072506
000240 22 a2 cd bd da 4c 95 be 58 cf f4 bd 3a 5f d4 be
       -0.1004069 -0.29160196 -0.1195361 -0.41478902
000250 94 a6 96 be 5f 5f e0 bd 17 2a f4 be b4 2c fc bc
       -0.29423964 -0.109556906 -0.47688362 -0.030783035
000260 0a e4 01 3d e0 1c c9 3c 6e 46 b4 bd e6 d2 76 be
       0.031711616 0.024549901 -0.08802496 -0.24103889
000270 a4 e1 81 be 39 fb 1c 3f 8d 8b a7 bc 3b da 6e 3e
       -0.25367463 0.61320835 -0.020452285 0.23325436
000280 bf a8 d1 3b 7c c0 cd bd 4e 18 c4 be 67 d0 33 be
       0.00639829 -0.10046479 -0.38299793 -0.17559968
000290 63 9c df bc a2 9a 96 be 4a 0e be be 4d 8a 88 3e
       -0.02729625 -0.2941485 -0.37120277 0.26668015
0002a0 ca 3f 09 3e 34 cc ad 3d d6 4b b9 3d df c8 7b be
       0.1340324 0.08486214 0.09047668 -0.24588345
0002b0 b6 a4 b3 be b9 f9 7c ba e0 fb 24 be bb 36 54 be
       -0.35086602 -0.00096502487 -0.16111708 -0.20724003
0002c0 d0 b3 39 be 09 bd 09 bf 5f e2 8d bd 24 65 b4 be
       -0.18135 -0.5380407 -0.069279425 -0.35233414
0002d0 4c 24 40 3d 64 ac cb 3d de 1d a4 3d 50 aa 14 bd
       0.046909615 0.0994499 0.08013509 -0.036295235
0002e0 77 39 c8 bd 37 d8 0f bf 62 1e 89 be fb 1d b0 bb
       -0.097765855 -0.5618929 -0.26780993 -0.0053746677
0002f0 e3 ca 34 be cc cc 3c 3e 76 df 15 be f2 5c 53 3e
       -0.1765552 0.18437499 -0.14636025 0.20640925
000300 d8 54 02 be 93 19 56 be fa 8d c4 be c2 8b 5b 3e
       -0.12727678 -0.20908193 -0.3838957 0.21440032
000310 61 47 4d be fa c8 ab bc c7 3d 8a bd 03 f0 e4 be
       -0.2004676 -0.020969857 -0.06750064 -0.44714364
000320 92 61 2a 3e 21 7e 90 bd b0 4a 07 bf 91 bf ac be
       0.16638783 -0.07055307 -0.5284834 -0.33739904
000330 95 13 04 3e 41 92 fc bd 25 f1 31 be 3f 12 7c 3e
       0.12898095 -0.12332583 -0.17377146 0.24616335
000340 c1 6f 8a 3e 42 aa cb be 7b 94 35 be 46 d8 f6 be
       0.27038386 -0.39778334 -0.17732422 -0.4821188
000350 af f3 52 3d d0 c5 8e be c8 b8 aa be 9d 44 02 3e
       0.051501926 -0.27885294 -0.33344102 0.12721486
000360 af 75 f4 be e1 ea 24 3e 6c e6 00 be f5 8d 3c 3c
       -0.47746035 0.16105224 -0.12587899 0.011508455
000370 4a 08 c4 be df a3 ee 3e d7 2d a0 3d 11 62 e9 bd
       -0.38287574 0.466094 0.07821243 -0.11395658
000380 7d 08 8e 3d 8e 1b a6 be f9 fe 46 be ae cf 4e 3d
       0.06935213 -0.32442898 -0.19433202 0.050491028
000390 6a 2c 83 3e ef af 55 3e 99 7b 5e be fa f7 fd be
       0.25619823 0.20867895 -0.21726836 -0.49603254
0003a0 5d 48 b6 be 8d 46 c5 be 57 e1 d9 3c ce 65 71 3e
       -0.35602084 -0.38530388 0.026596708 0.23573992
0003b0 06 38 74 be c7 2e 01 3d f0 38 32 be 99 2e 1d 3d
       -0.23849496 0.03153875 -0.17404532 0.038374517
0003c0 31 00 b9 bd c2 5a d6 be 35 d6 59 be 88 9b 4e bd
       -0.0903324 -0.41866118 -0.2127312 -0.050441295
0003d0 f8 13 0f be 4a 60 0f be 34 d8 fc be e5 19 c3 3d
       -0.13972461 -0.14001575 -0.493837 0.09526423
0003e0 eb d2 42 be ab 71 22 be f2 7d 16 be 9e 8e 9c be
       -0.19025771 -0.15863673 -0.14696482 -0.30577558
0003f0 4c 0f 1e be a7 1c 3b 3e 62 38 0e 3f f2 d5 35 3e
       -0.15435523 0.18272649 0.55554783 0.17757395

Linear2.weight f4 [3, 256]
000000 78 04 59 bc fb a5 96 bd a2 b6 30 bc 6a e7 0b 3f
       -0.013245694 -0.07355877 -0.010785731 0.54649985
000010 dd 0a e8 bd 44 e8 05 bd 70 08 aa 3c c0 3a 04 3c
       -0.11330197 -0.03269221 0.020755976 0.008070648
000020 25 a9 5e 3d 0e 3f 4d 3d 5e ee 27 bd 3d 00 06 3e
       0.054360528 0.05010896 -0.04099881 0.13086028
000030 33 be 78 bd 88 45 5c bc 34 62 30 bf 4d 8b 67 3e
       -0.060728263 -0.013444312 -0.68899846 0.22611733
000040 af 28 27 3d 1c b9 00 bd 40 98 39 3d 54 67 14 3d
       0.040810283 -0.031426534 0.045311213 0.036231354
000050 92 f8 25 3d 88 b0 02 3d f0 07 a1 3c cc 18 4e 3e
       0.04052026 0.031906635 0.019657105 0.20126647
000060 a8 34 e8 3c 04 5e 37 bf 54 08 73 3d 4e d6 30 be
       0.028345421 -0.7162783 0.059334114 -0.17269251
000070 d2 d8 1d bd 09 68 0b be 35 8b 13 3f 5d 27 4e bf
       -0.038536854 -0.13613905 0.5763429 -0.80528814
000080 3e b8 82 3e be 33 bc 3d a0 fd 1b 3b ee 36 56 be
       0.2553119 0.091895565 0.0023802295 -0.20919392
000090 3b 88 b4 be 05 27 9e 3d 5b d8 37 3d 6f 0f 1e be
       -0.35260186 0.07722286 0.044884067 -0.15435575
0000a0 82 04 6b 3d c1 bc 0c c0 40 6c 12 3d a0 4a 2a bd
       0.057377346 -2.1990206 0.035747766 -0.041575074
0000b0 39 85 25 3e 5e 77 72 3d a0 f6 c5 be 0a 75 ba 3d
       0.16164102 0.05919587 -0.38664722 0.09104355
0000c0 40 e2 3a 3c b8 1f c9 3c 20 e7 2b be 63 cb 4e bd
       0.011406481 0.024551257 -0.16787386 -0.050486933
0000d0 fb 18 13 3f ed 11 28 bd 66 12 1e 3d 05 0d a0 3d
       0.5745999 -0.04103272 0.038591765 0.07814983
0000e0 4d 20 97 bd f9 9a 14 bd 26 ef 42 bd 87 d8 65 3e
       -0.07379208 -0.036280606 -0.04759135 0.2244588
0000f0 02 2e 08 be 76 a3 47 bd 89 ce 25 be d4 fa df bf
       -0.132988 -0.048739873 -0.16192068 -1.7498422
000100 c5 40 01 3f b9 b3 5c bb 85 5a 17 bf d0 e5 57 bd
       0.50489455 -0.003367646 -0.59122497 -0.0527094
000110 5a 1b 5f 3d cc a3 15 3d e8 c7 d0 3c df e9 95 be
       0.054469444 0.036533162 0.025485948 -0.29279992
000120 6c 37 e8 3c 90 3d 3c bb 80 cf ba bc 40 52 6b 3d
       0.02834674 -0.0028723218 -0.022804022 0.057451487
000130 f2 d6 94 bd 99 5e df bd 18 c0 4e 3d 42 fa 04 3d
       -0.0726756 -0.10906715 0.050476164 0.032465227
000140 0c bf c8 bd a2 20 04 3d 96 5c c0 bd 65 ff ae be
       -0.09802064 0.032257684 -0.09392659 -0.34179226
000150 6b 0c 32 bf 9c dc 60 3c 69 6b ec bd ff ed 48 3d
       -0.695502 0.013724472 -0.11543924 0.049055096
000160 ec 00 b1 3c eb 02 a7 3c 17 9a 4f bd ba 6e be bc
       0.021606885 0.020387134 -0.05068406 -0.023246158
000170 c3 06 6c bc 02 a8 76 3d 18 d4 37 bc 6c 3c c0 3c
       -0.014405909 0.06021882 -0.011220001 0.023466311
000180 28 44 53 bf 9e b1 94 3d 9d 0b fb be b9 b2 0f 3d
       -0.82525873 0.0726044 -0.49032298 0.035082553
000190 0d e4 bc 3d 09 05 86 be e8 19 4f 3e 6c 70 28 3d
       0.09223185 -0.26175717 0.20224726 0.04112284
0001a0 8a af 13 3e dc a6 c3 bc 3c 5a 05 3e c6 7f 0c 3f
       0.14422432 -0.023883276 0.13022703 0.54882467
0001b0 e6 4c 33 3d 8a 34 25 be 16 ca 1c 3d 80 5c d1 3b
       0.043774508 -0.16133323 0.03827866 0.0063892007
0001c0 28 02 cc bd 90 7a f8 bd 79 53 9e 3d 1d b9 4c bc
       -0.09961349 -0.12132752 0.07730765 -0.012495306
0001d0 5a 99 14 bd 00 6c 1f 3b 3e e2 4a 3d 14 20 c3 bb
       -0.03627906 0.0024325848 0.049532168 -0.0059547517
0001e0 dc 63 10 3d e9 fd 93 3b 6c b6 1f 3e 60 47 ae 3b
       0.035251483 0.0045163524 0.15596932 0.005318567
0001f0 8f f1 d8 3d 27 dd db bc e0 2f cb 3c 05 78 16 bf
       0.10592949 -0.026838852 0.024803102 -0.58776885
000200 a0 f9 79 bb c3 95 1f be a8 76 b2 bc d0 1b 9f 3d
       -0.0038143173 -0.15584473 -0.021785095 0.07768977
000210 09 9b 01 3d 03 33 f2 bd 5b 5e 7f 3d 12 58 55 bf
       0.031641994 -0.11826136 0.062345844 -0.8333751
000220 f8 08 70 3c 40 53 5c bc 16 99 8f 3e e5 8e 60 3c
       0.014650576 -0.013447583 0.28046483 0.013705944
000230 13 ed c6 bd 18 86 c8 3c 62 05 c3 3d 33 e0 02 3f
       -0.09713187 0.024478003 0.09522511 0.5112335
000240 e8 a5 19 be cc 95 c0 bc 66 4b 4a bd d8 52 c0 3d
       -0.15004694 -0.023508929 -0.04938831 0.09390801
000250 cf b6 d1 3d 1f 43 87 3b 92 8e 17 bd ac e4 d7 be
       0.10239946 0.0041278745 -0.0370012 -0.4216665
000260 86 0e 12 3d 76 eb 4a bd 26 f3 9e be a6 2b 16 ba
       0.035658382 -0.04954096 -0.31044883 -0.000572855
000270 4d 15 8c 3d 03 36 ed 3e 87 7f 20 be f7 2f b4 3d
       0.0684 0.4633027 -0.15673648 0.08798211
000280 29 f3 7e 3d bc fa 91 bc fb 79 db bc ab 96 45 3e
       0.062243614 -0.017819755 -0.026791563 0.19295757
000290 f3 50 93 bd 1e f5 2f bd a6 bc 15 3d c9 c6 2a bf
       -0.07193174 -0.04295837 0.036556862 -0.6670957
0002a0 09 2a fd be dc d8 cf 3c 81 bf 94 bd 24 82 60 3b
       -0.49446133 0.025371961 -0.07263089 0.0034257257
0002b0 a2 78 47 3d 11 29 ae bd f4 6f f9 bc 8c 54 85 bd
       0.04869903 -0.085039265 -0.030448891 -0.06510267
0002c0 10 fb 11 3d f7 6d 74 bd 2d 2d e5 3d a0 16 bb 3b
       0.035639822 -0.059675183 0.11190257 0.005709484
0002d0 9f ed dd bc 2d df 7b 3d 6c 77 a1 3c 90 18 68 3d
       -0.027090846 0.061492134 0.019710265 0.05666405
0002e0 54 ae 16 3e 36 12 41 bd 8c 93 2e 3d 39 b8 71 bd
       0.14714938 -0.047136508 0.04262118 -0.05901358
0002f0 1f a2 ee bd e9 74 17 3e 9d 6a 1f bd 18 e3 d8 3c
       -0.11652016 0.14790691 -0.038920034 0.026475474
000300 d5 2c ae 3d 50 b0 26 3d 95 08 1f be 94 80 99 be
       0.08504645 0.04069549 -0.15530618 -0.2998091
000310 7b a1 4c 3c 2c c0 24 3e ac 03 a5 bc b2 cf 11 3d
       0.012489672 0.16088933 -0.020143352 0.035598464
000320 83 f5 f6 bd 00 65 fd bd 40 3f bc bc 60 c2 b9 bd
       -0.120585464 -0.1237278 -0.022979379 -0.09070277
000330 b4 06 f3 bd 52 bd 24 3c cc 15 3a bf 2b 59 d9 bf
       -0.11866513 0.010054903 -0.7268951 -1.6980337
000340 7e 0a 69 3d 18 68 15 3c ea 56 0f 3e 71 66 2f be
       0.05689477 0.009119056 0.13997999 -0.17128922
000350 5f 9c 65 bd ec ca 33 be 1a 49 02 3d dd f2 84 3e
       -0.05605733 -0.17557877 0.031807996 0.2596654
000360 b4 2c b9 bc 2f 26 68 3d 76 61 09 3d 3b f1 16 be
       -0.022604324 0.05667704 0.03354021 -0.1474046
000370 12 ac 71 3d f9 79 07 3f 7b de 0a 3c 64 1f 33 3c
       0.05900199 0.5292049 0.008475895 0.010932777
000380 65 4f 34 bd 40 dd 30 3c 20 b9 89 bc 67 c2 83 bd
       -0.04402103 0.010794938 -0.016811907 -0.06433564
000390 49 c9 83 be 92 f0 6d bf 4a b2 af be 53 94 c9 3d
       -0.25739506 -0.92945206 -0.3431571 0.09842744
0003a0 7c a4 07 be 0a 20 22 3d 82 5a c4 3b 1e 71 94 bd
       -0.1324634 0.039581336 0.0059922347 -0.07248138
0003b0 09 29 b7 bd f4 81 98 3d ec 41 8f bd 9d c7 56 3d
       -0.08943374 0.074466616 -0.069949955 0.05243646
0003c0 74 e8 52 bd ef 3d 31 bd de a1 46 bd b1 89 96 bd
       -0.051491216 -0.043271955 -0.048494212 -0.07350481
0003d0 38 56 17 3e c3 ef b1 bd fb 94 a5 bc 4f 8a 73 bd
       0.14778984 -0.08688309 -0.020212641 -0.059458073
0003e0 b0 e7 fb 3c f0 a3 cd bc 30 60 1a 3c bf 57 19 3d
       0.030750126 -0.025102586 0.009422347 0.037437197
0003f0 ee 50 0f be fb 91 c8 bf b2 58 08 3f be db d0 bd
       -0.13995716 -1.566955 0.5326034 -0.101981625

Linear2.bias f4 [3]
000000 16 da 95 3e 01 4a e7 3e 38 03 dd 3e
       0.2926795 0.45173648 0.43166518
