runs/run5/models/model1.pth (torch, 10959 bytes, 4 tensors)

Linear1.weight f4 [256, 5]
00000000: 1760 5abe 588b e63d 809a 4c3c 80b1 363d
00000010: 9ab7 a03e ce91 00be e4ae 2b3e 9018 113d
00000020: ca96 883e e42a 81be 18ad d53e 6c02 b7bd
00000030: 0a9c 9a3e 1d0c 78be 6c43 3a3e 5811 9d3e
00000040: 767d 3dbe 458b 4fbc a701 83be fa01 353e
00000050: a798 a8bd 53cf eabe 740e 14be 0ca6 bd3d
00000060: 88c2 70bd dd9d c1be 307b fcbd 7b97 dbbe
00000070: 90cd 78bd f439 dbbd a03a 1f3c 72ac af3e
00000080: a065 73be ec91 3bbe 2671 c8be 7b2e 55be
00000090: da27 14be 88fd ec3d 343f 8b3e 2072 6f3e
000000a0: f4db 83be 2ec6 053e 3d5b 283e 1d00 583e
000000b0: 88bb a73e b005 5cbe 8fcf df3c fa7f a8be
000000c0: 0059 d1be fbd8 b13e 8818 f73d f82d 55bd
000000d0: 74b1 9b3e 5b4e b4be 2049 d33d c574 d03e
000000e0: 1d30 8a3d 8511 75be cbfb c43e 8d24 93be
000000f0: cabb 59be b9fb 9bbe 7b5f aebe d085 653e
00000100: 8646 e6be 1f0d bebd 8d26 9f3e df02 35bd
00000110: fe9c c53e d141 793e ddf8 51be 1607 e03d
00000120: b83b b5be e277 1e3e e9bc b63d cfe1 ad3e
00000130: e0bb 5fbd f32d 6e3d fcbe 4e3e 7ffb 34be
00000140: ddee b13e 7909 cbbe 217f 43be 90fa 02be
00000150: 4868 d0be fc6e 29be ae5e 893e 60d4 223d
00000160: 804d a53d b06e 7ebe c059 5e3c fc1e 13be
00000170: 3098 6b3e 1972 b8be d951 61be 00dc c83e
00000180: 7c0b 543e 0416 a9be d4f0 4ebe c3b3 653b
00000190: 6334 423e e861 b43c 40e7 813e 9a41 8dbd
000001a0: 8b04 a73e 60ae 6e3d 16ee abbe fae9 a9be
000001b0: e024 f8bd cc29 8a3e d81b b2bc 7281 f53d
000001c0: c246 ff3d 9f3f f53d 5f63 523e dede e23d
000001d0: fdad a63e 6e56 5f3e 26c0 b2be b2bd 103d
000001e0: 59d9 803d 54a7 673e b45b b93c 7376 9c3e
000001f0: f1cf 79be 00d5 bebd 3071 3f3d 3296 c1be
00000200: 3422 d63e 30a3 a83c 8c42 89bd 34f5 13be
00000210: c48e 96be 6613 17be 4540 dfbe 6516 3abe
00000220: a7c1 82be a4bf ab3e bcf6 433d a804 b23d
00000230: 907c 903c 5675 56be 1880 313e 7ed1 8ebe
00000240: 71ab aabe 43ab d5be cdd8 6b3e b8ec bcbe
00000250: 51c7 37bd 4f26 953d 6f0d 673e 0478 3e3d
00000260: dcc3 8abe 7c3f e7be c727 d53d 6ea5 713e
00000270: 51e0 ddbe 89d8 b2bc 25b0 4e3e 7462 b53e
00000280: 7061 603e 224f db3e 30c4 b23e 6a92 10be
00000290: 1076 23be a0b0 413d f3ab 01be 18cc 50bd
000002a0: b6a8 9a3e 272d 813e a8ae 49be b88a 343e
000002b0: 840a ddbd 78a7 cebe e822 cf3e 6c45 bbbe
000002c0: 5a32 a83d 416a c23e 6514 94bc c9a7 b53e
000002d0: aa66 8dbe 562d 9c3e 30f3 88bc cd26 bebe
000002e0: 5863 9b3d 7cc9 5abd 7522 763e 2249 9ebe
000002f0: e60f 953d aa29 543d e972 d4be 78bc d03e
00000300: 9928 42be cbc7 773e 2160 a23e 715a b8bd
00000310: 7b93 06bf ec15 20bc bc99 923e de15 4b3e
00000320: b08b 7e3e 222a 06be 5055 e7bd c03b b93d
00000330: 4874 0bbe ddb2 e2be 5bc4 46be a4d6 b33e
00000340: bdbd c0be 1c42 103e a318 4dbc 3881 463e
00000350: e8fe 893e 20b5 05bd 33d7 d5be 8db6 aabe
00000360: 06a8 d9be 5c36 3cbe 6008 d43e f03d 913d
00000370: 2b8c b43e d252 b83e aae5 a03c 5327 3e3e
00000380: 5b8a 33bd c4e2 15be 89bc 68be 636e 4e3e
00000390: 51b5 05be 4ca3 743d 24b3 d43d 39e3 913e
000003a0: a7e9 89be 433b a4be fccd 363e 7b7d 27bb
000003b0: 6839 a33e 1594 c33e c494 173e 1bf4 943e
000003c0: 209d 4b3e 46d9 63be 0090 7dbd 2a57 9abe
000003d0: 9ce1 9a3e 4374 37bb 6da1 1cbe 3328 75be
000003e0: b1f2 af3d 48a9 a63e 02df debe 10c1 983d
000003f0: e8da 543d 8015 3b3d ece3 b2be ddd9 9dbd
-0.21325718 0.112570465 0.012488008 0.04460287 0.31390077 -0.1255562 0.16765934 0.035423815
0.26677543 -0.25228035 0.41733623 -0.08936009 0.30197173 -0.24223371 0.18189782 0.30677295
-0.18504891 -0.012667482 -0.25587198 0.17676535 -0.08232241 -0.458613 -0.14458638 0.092601866
-0.05877927 -0.37815753 -0.12328184 -0.42889008 -0.060742915 -0.10704413 0.009718567 0.34311253
-0.23769236 -0.18317384 -0.39148825 -0.20818512 -0.14468327 0.11571795 0.27196658 0.23383379
-0.25753748 0.13063881 0.16441055 0.21093793 0.32760262 -0.21486545 0.027320651 -0.32910138
-0.40888214 0.34735855 0.12065226 -0.052045792 0.30408823 -0.3521603 0.10316682 0.40714088
0.06747458 -0.23932464 0.38473353 -0.28738824 -0.21263042 -0.30465487 -0.3405722 0.22414327
-0.4497568 -0.092798464 0.310841 -0.04419219 0.38596338 0.24341513 -0.2050509 0.109388515
-0.35397124 0.15475419 0.089227505 0.3396134 -0.05462253 0.05814929 0.20190042 -0.17674063
0.3475255 -0.39655665 -0.19091465 -0.12790895 -0.4070456 -0.16546243 0.26830047 0.039753318
0.080714226 -0.24846911 0.013571203 -0.14367288 0.23007274 -0.3602455 -0.22003879 0.39230347
0.20707506 -0.3302461 -0.20209056 0.0035049773 0.18965296 0.022019342 0.25371742 -0.06897278
0.32620654 0.058271766 -0.33580083 -0.33186322 -0.12116408 0.26985013 -0.021741793 0.1198758
0.12464668 0.119750254 0.2054572 0.11077665 0.32554618 0.21810314 -0.34912223 0.035337158
0.06291456 0.22622424 0.022626735 0.3055912 -0.2439573 -0.0931797 0.046738803 -0.37809902
0.4182297 0.020585626 -0.06702146 -0.14449006 -0.29405797 -0.14753494 -0.4360372 -0.18172605
-0.2553837 0.33544648 0.047842726 0.08692294 0.017637521 -0.20943198 0.1733402 -0.27894205
-0.33333924 -0.41732225 0.23031922 -0.36899352 -0.044867817 0.072826974 0.22563718 0.046501175
-0.27102554 -0.45165622 0.104079776 0.23598263 -0.43335202 -0.021831768 0.20184381 0.35426676
0.2191217 0.4283381 0.34915304 -0.14118353 -0.15963006 0.047287583 -0.1266325 -0.05097589
0.3020684 0.2522976 -0.19695532 0.17631042 -0.10793021 -0.40362144 0.4045632 -0.36576402
0.08212729 0.3797169 -0.018076131 0.35479572 -0.2761739 0.3050334 -0.016717523 -0.37138978
0.07587308 -0.053414807 0.24036582 -0.3091517 0.07278423 0.051797546 -0.4149392 0.4076879
-0.189608 0.24197309 0.31713966 -0.09001625 -0.5256879 -0.009770852 0.28632915 0.1983256
0.24857974 -0.1310201 -0.11295569 0.090445995 -0.13618577 -0.44277087 -0.19410841 0.35124695
-0.3764476 0.14087719 -0.012518081 0.1938523 0.2695229 -0.032643437 -0.41765746 -0.333424
-0.42511004 -0.18380111 0.4141264 0.07091892 0.3526319 0.36000687 0.019640762 0.18569688
-0.043833118 -0.14637285 -0.2272817 0.20159297 -0.13057448 0.059726045 0.10385731 0.2849367
-0.26936075 -0.32076463 0.17852014 -0.002555697 0.31879735 0.38198915 0.14802843 0.29092488
0.19884157 -0.22250852 -0.061904907 -0.30144626 0.3025025 -0.0027992881 -0.15295954 -0.23941116
0.085912116 0.32551026 -0.43529516 0.07458699 0.051966578 0.0456748 -0.34939516 -0.0770757

Linear1.bias f4 [256]
00000000: fa22 88be 9c42 3abe f8bf 2cbe b136 bc3e
00000010: a9e4 ed3d 8243 68be 779c 6bbe b854 ddbe
00000020: 5434 b03e 0a46 db3e 3ebb d5be e981 153e
00000030: d9f2 d33e 6143 5a3e 7c00 793e 1300 ac3e
00000040: fab0 a93e e275 a3be 700f f5bd 039a e13d
00000050: 7388 ebbe 3779 70be 5ed0 ad3b d9bb 9b3e
00000060: 1b94 9c3e da04 56be d82b ac3d 5c53 bb3d
00000070: d012 d7be cdb9 e43d 9fb9 9d3e e4b2 86be
00000080: 6e0f c73d 7338 8b3e 4655 bcbe 0e71 1fbb
00000090: 02e0 2ebe 9545 063d 1fd1 f8bd 9cdf b83d
000000a0: 9ee8 e0be 1c0a 0b3e 77dc 853e 54d2 11be
000000b0: 9a95 113d a4c1 6fbd d840 3bbd a9d7 68be
000000c0: 1029 88bd 5e79 513e b012 ee3c f4eb 04bd
000000d0: 3d5b fcbd 059d 103d 04fc 9ebe 177e b03e
000000e0: bee9 67be 2824 0ebc baae c7be 60af dfbd
000000f0: 7552 ad3e ef72 c63e 1411 743e 1418 6b3e
00000100: 563c 13be 349f 8f3e cbf8 853e e609 883e
00000110: c731 7dbe 2343 73be 1927 c53e 9fb4 903e
00000120: 6891 a53d 413e 013e 0424 96be 3e98 4abe
00000130: c8ee e3bd e6aa 22bc 6c72 dcbe 5d3c b2be
00000140: 73b2 843d f46e b5be d515 a5be f645 c03d
00000150: 3bcb b6be 1bcd 903d 0017 17bd 9b06 763e
00000160: 801b b9be 09ef 7bbd 4895 91bd a8d5 4d3e
00000170: eb91 23bc c6fa eb3d 584c 503d 49c5 a1be
00000180: af4e bdbe 06d7 543e e97b c8be 6800 a33e
00000190: fd13 363d 5cf8 6bbc 2cb6 cfbe e643 42be
000001a0: b48c 8a3e bfd6 b7be e707 c2be 8491 91be
000001b0: 6efb a1bc e64d a33e d8e9 9a3d 1616 a2be
000001c0: f027 c63e 024b fa3c fe69 bd3e e3ea 893e
000001d0: 3e71 afbe 5a3e 61be 04b3 92be 0694 d53e
000001e0: 529e 2bbe 4e7f fe3d f58d 5dbe cf62 1a3e
000001f0: 07e5 713e a5a6 fabd 8ea9 573c a918 bfbe
00000200: 06aa 8abe 893e 92be be87 37be 3aec 8c3c
00000210: a8ac bc3e 33ee a5bd 388a f8bd 60d3 603e
00000220: ea5a bdbe 0b69 a73e 1c9a 103e 630d c73e
00000230: 02b7 423e b499 f6bd 8968 a7be 31ed 7c3e
00000240: a8b1 cf3d da4c 95be 0ec3 ac3e 18f2 a0be
00000250: ba58 8dbd 9002 323d eb06 a5be 451d a83d
00000260: c85d 423e e01c c93c 58d8 193d b592 f6bd
00000270: 3e6c 4fbe afdb 333e 6780 783c a8d9 db3e
00000280: 15d6 0a3e 7cc0 cdbd 7b99 97be 2c25 88bd
00000290: 51cf aa3d a29a 96be 4a0e bebe 4217 8f3e
000002a0: acd4 933e 8e10 a03e daa4 473e a44a 45be
000002b0: 208b 90be a58e 503e e0fb 24be c7ec c3bd
000002c0: d0b3 39be 0c61 c7be 9248 a43e 2465 b4be
000002d0: 7841 253e a032 8e3e 15ec 5a3e 50aa 14bd
000002e0: f031 83bd 1481 d6be 621e 89be 444a 1a3e
000002f0: 00dc b7bd e383 cd3e 67fe ff3c c8a5 b63e
00000300: e967 8d3e 9319 56be 5d9b a3be 387f e53d
00000310: 8871 2cbe b891 6e3e f8a3 f03c 03f0 e4be
00000320: e3ab c23e ae6a 2f3d d738 f2be 7b16 dbbd
00000330: 6961 723e 87e1 703d dc4f 133d e147 8a3e
00000340: 0288 a43e 42aa cbbe 1249 173e 6d90 adbe
00000350: 0078 423e cea7 5cbe c8b8 aabe e672 4cbd
00000360: c6b8 eebe 6a81 ca3e 6ce6 00be 581b d23d
00000370: 4a08 c4be 5a19 00be f0ca 873e 056e 2ebd
00000380: d2e7 413e 8e1b a6be a0c5 1ebc 61bd 913e
00000390: 1a08 9c3e 2048 2d3e 5945 b8bd 8db9 afbe
000003a0: 4e36 a6be 8d46 c5be 5128 793e 6181 963e
000003b0: dbd8 15be f8c1 663e ae92 af3c c928 8e3e
000003c0: 7fec 3c3e 6506 a1be 35d6 59be ef07 a13d
000003d0: a8c3 1c3e 879a 1d3e 6f0a abbe 7887 8b3e
000003e0: 3eab 07be f6d8 72bd f27d 16be 56f6 5bbe
000003f0: 7c25 89bd f5b0 873e ed2a 6bbd 2a33 853e
-0.26589185 -0.18189472 -0.16870105 0.36760476 0.11615879 -0.22682002 -0.23008905 -0.43228698
0.34414923 0.42826873 -0.41744417 0.14600338 0.41396216 0.21314766 0.24316591 0.33593807
0.33142835 -0.31925875 -0.11965835 0.110157035 -0.4600254 -0.2348374 0.0053043803 0.30416754
0.30581746 -0.20900288 0.084068 0.09146759 -0.4200654 0.11168251 0.3080568 -0.26308358
0.0971974 0.27191505 -0.36783808 -0.002432886 -0.1707764 0.032781202 -0.12149262 0.09027025
-0.43927473 0.13578075 0.26144764 -0.1424039 0.03554306 -0.05853428 -0.045716137 -0.22738518
-0.06648457 0.20456454 0.029061645 -0.032451585 -0.1232209 0.035305995 -0.31051648 0.344712
-0.2264776 -0.0086756125 -0.39000493 -0.10922122 0.33851972 0.38759562 0.2383464 0.22958404
-0.14378485 0.2805115 0.26166376 0.26570052 -0.2472602 -0.2375608 0.38506392 0.28262803
0.08084375 0.12621404 -0.29324353 -0.19784638 -0.11129528 -0.009928441 -0.43056047 -0.3481168
0.06479349 -0.35436213 -0.3224322 0.09388344 -0.35701928 0.07070371 -0.03688717 0.24025957
-0.36153793 -0.06150726 -0.07108551 0.20101035 -0.00998352 0.115224406 0.050854057 -0.3159583
-0.36974093 0.2078515 -0.39157036 0.31836247 0.044452656 -0.014402475 -0.40568674 -0.18971214
0.27060473 -0.35906026 -0.37896654 -0.28431332 -0.019773211 0.3189537 0.075641334 -0.31657475
0.38702345 0.030553345 0.36994928 0.26937017 -0.34266084 -0.21996441 -0.28652203 0.41714495
-0.16759613 0.12426625 -0.21636184 0.15076755 0.23622523 -0.12238816 0.013162984 -0.37323502
-0.27082843 -0.28563336 -0.17922875 0.017202485 0.36850476 -0.081020735 -0.12135738 0.21955633
-0.36983424 0.3269733 0.14121288 0.388774 0.19015124 -0.12041035 -0.32696941 0.24699856
0.10141307 -0.29160196 0.33742565 -0.31434703 -0.06901689 0.043459475 -0.3223184 0.08208708
0.18981087 0.024549901 0.037559837 -0.12039701 -0.20256135 0.17564271 0.015167332 0.42939496
0.13558228 -0.10046479 -0.29609284 -0.06647715 0.08340324 -0.2941485 -0.37120277 0.27947432
0.28873193 0.3126263 0.1949648 -0.19266754 -0.28231144 0.20366915 -0.16111708 -0.09566646
-0.18135 -0.38941228 0.32086617 -0.35233414 0.16138256 0.27773 0.2137912 -0.036295235
-0.06406009 -0.41895354 -0.26780993 0.15067393 -0.089775085 0.40139684 0.031249238 0.35673356
0.2761834 -0.20908193 -0.3195447 0.11205906 -0.16840184 0.23297775 0.029375061 -0.44714364
0.38021764 0.042826347 -0.4730899 -0.10697647 0.23669972 0.05880883 0.03596483 0.27007964
0.32135016 -0.39778334 0.14773968 -0.3389925 0.18991089 -0.21548387 -0.33344102 -0.049914263
-0.46625346 0.3955186 -0.12587899 0.10259122 -0.38287574 -0.12509671 0.26522017 -0.04258539
0.18936089 -0.32442898 -0.009690672 0.28464797 0.3047493 0.16922045 -0.08997602 -0.34321252
-0.32463306 -0.38530388 0.24331786 0.29395583 -0.14633505 0.2253493 0.021432247 0.27765492
0.18449591 -0.3145019 -0.2127312 0.07862841 0.15309012 0.15390979 -0.33406398 0.27251792
-0.13248917 -0.05928894 -0.14696482 -0.21480688 -0.06696603 0.26502195 -0.057413984 0.26015598

Linear2.weight f4 [3, 256]
00000000: 7804 59bc 0000 af37 113f 3e3d cd92 2d3d
00000010: 5753 c13c 44e8 05bd 7008 aa3c c03a 043c
00000020: 536f 1f3d ac80 86bc 5eee 27bd 2119 893d
00000030: c1a2 38bd 4a26 6ebd 243e d4bc 080d 323d
00000040: cfc6 7e3d 1cb9 00bd 4098 393d 4f55 883d
00000050: 92f8 253d 88b0 023d 1194 1f3a e625 0c3d
00000060: d3d2 e63c eced 5ebd 5408 733d b21c 6abc
00000070: d2d8 1dbd c5a8 f2bd 9971 edbc c66a 48bd
00000080: 7bbc 8e3a 4055 633d a0fd 1b3b ad75 8a3c
00000090: daf0 523d 9f6a c8bb 9600 4fbc 020d bebc
000000a0: 8204 6b3d 5a3b 12bd 4524 373d a04a 2abd
000000b0: ae1f d63c 5e77 723d ae77 a7bb 58bd 753d
000000c0: 40e2 3a3c b8e9 4c3d b889 a4bc 1822 fdbc
000000d0: 2a51 323d 889b 2dbd 6612 1e3d c5c1 1b3d
000000e0: e000 663d 1a3b 0fbd 26ef 42bd 1c93 103d
000000f0: 2eb2 f63c 31f9 8e3c e8c9 4b3c efce a0bd
00000100: feba 24bd 4743 43bc 04c9 94bd 9bbc f93c
00000110: 3f3c 513d cca3 153d 9f83 1a3d d573 543d
00000120: 6c37 e83c 36ae 59b9 80cf babc 4052 6b3d
00000130: 8c9a fb3c b480 bfbd 18c0 4e3d 42fa 043d
00000140: 9af6 f7bd a220 043d b4a2 f33c 8602 74bd
00000150: 0fed d0bc 788f ccbc e0ad 873b 42ef e9ba
00000160: ec00 b13c 7f52 a83c 9345 f53a a12d 16bd
00000170: f798 b63c 2f79 2b3d 18d4 37bc 6c3c c03c
00000180: 7aee 443d cdfb 3b3c 98ff 28bd 7e5a cbba
00000190: c9ec d73c 047a a63d c0e2 af3b 6c70 283d
000001a0: fa3b e43c dca6 c3bc 8932 b3bc 43e2 8e3d
000001b0: a60b da3c 5032 1a3c de73 4c3d 805c d13b
000001c0: 2339 d2bc 31dd 113d b3d0 3c3d 60b9 843c
000001d0: 5a99 14bd 7912 dbbb 3ee2 4a3d ae84 2abd
000001e0: 12b0 853c 8437 fb3b 4b37 26bd 0352 b53c
000001f0: 89f1 9f3c 8214 13bc db82 813b 18bd 153c
00000200: a0f9 79bb 28ac 753d a876 b2bc e9b3 803d
00000210: 588a 70bd 9250 a83d 4dc2 7f3d f1ce 113d
00000220: f808 703c 28fd 193d 7f8a a73c f6aa 363b
00000230: 8c61 7fbd 1886 c83c 1f88 98bc be3c 0b3d
00000240: 9c6f 533d cc95 c0bc b4a8 943b b416 90ba
00000250: d609 443d 50a4 253c 928e 17bd 44d2 82bc
00000260: 40b2 1d3b 76eb 4abd 5601 debd 81f1 073c
00000270: 7cec 03bd 488f 613d e008 77bc f102 1dbc
00000280: 0524 0dbb bcfa 91bc bf73 3bbc 40b9 a3ba
00000290: 450d 453c 1ef5 2fbd a6bc 153d 96c3 35bd
000002a0: 7d72 debc cd3d 64bd c183 51bd bca1 f43b
000002b0: a278 473d 7896 36bd f46f f9bc 7d08 2b3c
000002c0: 10fb 113d 24c1 0fbd 0ac5 093d a016 bb3b
000002d0: 46b2 373b 7060 fbbc 9f93 3f3d 9018 683d
000002e0: 3a6a 1cbd 3612 41bd 8c93 2e3d c3e1 253d
000002f0: caef 63bd 69a3 193d 6600 46bc 18e8 bd3b
00000300: 5914 253d 50b0 263d 2a4a 1b3d 1cee 8bbc
00000310: d6f5 45bd 63fc 963d 115d ecbc b2cf 113d
00000320: 87f3 99bb 709f 553d 9cfc f9bb 1827 b2bd
00000330: 952d a4bd a692 b03c cfe0 523c 3d4d 53bd
00000340: c5fe 953a 1868 153c 8733 29bb 4e81 24bd
00000350: bcbe 9cbc 1aca 8a3d 1a49 023d eda7 913c
00000360: b42c b9bc b463 d23c 7661 093d baf1 193d
00000370: 12ac 713d 03f4 053d d18e d3bd ba80 403d
00000380: 3047 b7bc 40dd 303c 20b9 89bc 7f4e 433b
00000390: 963b 09bd 0e66 84bd cc77 8f3c dcdf 8bbc
000003a0: 0e72 45bd 0a20 223d c511 0d3c c502 6abd
000003b0: 6a85 9dbd c0df 1cbd 3634 46bc 4f12 7fbc
000003c0: 68ad 133c 665b 793d dea1 46bd 7cd6 99bd
000003d0: d566 933d 5ff4 1fbd 928d 553b 05ea ddbd
000003e0: b0e7 fb3c 848f fcbc 3060 1a3c deac eb3c
000003f0: 74ea 2ebd 3ec7 173d 281b 7b3d c940 b4bd
-0.013245694 2.0861626e-05 0.046446864 0.04237633 0.02359931 -0.03269221 0.020755976 0.008070648
0.038924526 -0.016418777 -0.04099881 0.06694246 -0.04507709 -0.058141984 -0.025908537 0.04346946
0.062201317 -0.031426534 0.045311213 0.06656896 0.04052026 0.031906635 0.0006087432 0.03421583
0.0281767 -0.05442612 0.059334114 -0.014289068 -0.038536854 -0.118485965 -0.028984832 -0.048929952
0.0010889912 0.055501223 0.0023802295 0.016901815 0.051499225 -0.006116226 -0.012634417 -0.023199562
0.057377346 -0.035701133 0.044712324 -0.041575074 0.026138153 0.05919587 -0.0051107025 0.059995025
0.011406481 0.05002758 -0.0200852 -0.030900046 0.043534435 -0.042384654 0.038591765 0.03802659
0.05615318 -0.034968473 -0.04759135 0.035296544 0.03011426 0.017452808 0.012438275 -0.078519695
-0.040217392 -0.011917896 -0.07264903 0.030485442 0.051082846 0.036533162 0.03772318 0.05186828
0.02834674 -0.00020759631 -0.022804022 0.057451487 0.030713342 -0.0935072 0.050476164 0.032465227
-0.121075824 0.032257684 0.029740669 -0.05957272 -0.025503663 -0.024970755 0.0041406006 -0.0017847794
0.021606885 0.02054715 0.0018712751 -0.03666461 0.022289736 0.041863617 -0.011220001 0.023466311
0.04807899 0.011473608 -0.04125938 -0.001551464 0.026358025 0.081287414 0.005367607 0.04112284
0.02786063 -0.023883276 -0.021874683 0.0697675 0.026616883 0.0094114095 0.049915187 0.0063892007
-0.02566201 0.035611335 0.04609747 0.016201675 -0.03627906 -0.0066855517 0.049532168 -0.04163044
0.016319308 0.00766653 -0.040580075 0.022133833 0.019524353 -0.008977057 0.0039523668 0.009139322
-0.0038143173 0.059978634 -0.021785095 0.06284315 -0.058725685 0.082184926 0.06244116 0.035597745
0.014650576 0.037594944 0.020451782 0.0027872897 -0.062348887 0.024478003 -0.018619595 0.033993475
0.05162011 -0.023508929 0.0045367125 -0.0010993094 0.047860943 0.010109976 -0.0370012 -0.015969403
0.0024062544 -0.04954096 -0.108400986 0.008297325 -0.03220795 0.055068284 -0.0150778 -0.009583221
-0.0021536362 -0.017819755 -0.01144117 -0.0012491122 0.0120270895 -0.04295837 0.036556862 -0.04437598
-0.027154202 -0.055723 -0.05115104 0.0074655693 0.04869903 -0.044577092 -0.030448891 0.0104390355
0.035639822 -0.035096303 0.033635177 0.005709484 0.0028029843 -0.030685633 0.04677164 0.05666405
-0.038187243 -0.047136508 0.04262118 0.040498506 -0.055648603 0.037509356 -0.012085056 0.00579549
0.04030261 0.04069549 0.037912525 -0.017081313 -0.04833015 0.07372358 -0.028852971 0.035598464
-0.00469822 0.052154005 -0.0076289903 -0.08698863 -0.080165066 0.021554302 0.012870981 -0.051587332
0.0011443725 0.009119056 -0.0025818066 -0.040162377 -0.019133918 0.06776829 0.031807996 0.017780269
-0.022604324 0.025682308 0.03354021 0.037584044 0.05900199 0.03270341 -0.103299744 0.046997763
-0.022372812 0.010794938 -0.016811907 0.0029801426 -0.03350409 -0.06464778 0.017513178 -0.017074518
-0.048204474 0.039581336 0.008610194 -0.057131547 -0.07691462 -0.038299322 -0.012097409 -0.01556833
0.009013511 0.06087818 -0.048494212 -0.07511613 0.07197348 -0.03905141 0.0032585603 -0.10835651
0.030750126 -0.030830152 0.009422347 0.028768953 -0.04270406 0.037055247 0.061305195 -0.08801419

Linear2.bias f4 [3]
00000000: 7aad e53c 0ab1 55ba a30e 6b3d
0.028036822 -0.0008151686 0.057387006
