runs/run7/models/model1801.pth (torch, 10959 bytes, 4 tensors)

Linear1.weight f4 [256, 5]
-0.20653401 0.19975352 -0.21182166 -0.19914283 -0.13080502 0.32869518 -0.09376417 -0.06209103
-0.054316357 -0.56168896 0.28810763 0.15705584 -0.24365748 -0.4996816 0.18808427 -1.004046
0.222951 0.030573698 -0.11027311 -0.31750607 0.0058370875 -0.23937717 -0.34303626 0.06838653
0.13099526 -0.013487516 -0.1975248 0.2781184 -0.507753 0.15536042 -0.03209102 -0.11235091
-0.38148963 -0.027320921 -0.19002545 0.49335948 -0.3470041 -0.14698027 -0.137703 -0.4441252
0.3130733 0.8683587 -1.3462387 0.43020216 0.36154574 0.73275816 -0.18435322 -0.103589855
-0.36537004 0.49696502 0.18888313 -0.41735348 -0.03830245 -0.40998033 -0.1578767 -0.38484314
-0.5107847 -0.31902647 -0.36076337 -0.23290965 -0.42722622 0.1853497 -0.30039322 -0.29501086
-0.28107786 -0.006137779 -0.014008656 -0.034291815 -0.4357716 0.046418466 -0.90590525 -0.009295685
-0.3795852 0.2630526 0.41409045 -0.1530446 -0.07277761 -0.09118298 -0.41712314 -0.37579778
0.09448434 -0.29774868 0.24763793 -0.13539618 -0.21356702 -0.38254508 -0.2675018 -0.26226607
-0.105711676 0.068720125 -0.27328935 0.17326318 -0.22478014 -0.114949286 0.12074036 -0.747341
-0.73631257 0.19755962 -0.09948088 -0.0074965213 -0.42113683 -0.20704164 -0.13894 -0.2525284
-0.32268217 -0.3570616 -0.263699 0.09738934 -0.2014542 -0.010186315 -0.032614775 0.08374041
-0.21134318 0.061284676 -0.27301106 -0.42153573 -0.110739216 -0.29962 -0.53288114 0.0075606923
-0.22675289 -0.31179357 -0.19591206 -0.06612855 -0.36834043 0.38168296 -0.59584385 -0.31719851
0.0058125667 -0.06219188 -0.4174702 -0.30048576 -0.2581034 -0.34126678 -0.3416083 -0.20187746
-0.4102478 -0.3933686 0.24480473 -0.33598027 0.064525746 -0.16635726 0.110512674 -0.11800571
-0.015471434 0.030037165 0.13353348 0.0671761 -0.41172063 0.34816384 -0.44685215 0.40397513
-0.17517507 -0.38235947 -0.42290375 -0.36578506 -0.03159764 -0.4360149 -0.05051311 0.1334539
-0.35135105 0.40663153 -0.26183575 0.0036942316 -0.4749382 0.34093818 0.19634816 0.21131912
-0.109453686 -0.6438079 -0.18609506 -0.15392096 -0.34488016 -0.12830123 -0.1848274 0.2561775
0.03593512 -0.04141843 0.050860148 0.0025180713 -0.112757415 -0.12043521 -0.30383167 0.32244623
0.16778386 -0.11687955 -0.35428607 0.076589465 -0.25776604 -0.16826403 0.25176817 -0.26043022
0.0012018223 -0.09403554 -0.36556217 -0.1350905 -0.6232102 0.56502527 0.18680054 -0.1612742
-0.3705316 -0.08459288 0.2316641 -0.46560308 0.07943273 0.054690678 0.36668736 -0.0748958
-0.69372845 0.07030114 0.32090205 -0.49383056 -0.32916898 -0.47018075 -0.33633512 -0.4155454
-0.13173357 0.41547292 -0.009173306 -0.2970924 -0.382015 -0.68044853 0.36345106 0.16819884
-0.19654642 0.057953715 -0.26926452 -0.29797566 -0.21847466 -0.017530859 0.06775772 -0.3796411
0.092472754 -0.66175824 -0.1267877 -0.26964504 -0.34266138 -0.34810922 -0.14219934 0.094407916
-0.022857537 -1.862423 0.96319836 0.32003337 -0.21902305 -0.409644 -0.22173353 0.035902172
0.069267556 0.2225438 -0.23619695 0.100719206 -0.33184683 0.16161995 0.15864803 -0.042011492
00000000: a77d 53be 308c 4c3e c7e7 58be 19ec 4bbe
00000010: c0f1 05be bc4a a83e 6e07 c0bd 2a53 7ebd
00000020: d47a 5ebd d9ca 0fbf d882 933e 3fd3 203e
00000030: 5981 79be 44d6 ffbe 2a99 403e 9484 80bf
00000040: 444d 643e b175 fa3c ded6 e1bd 2890 a2be
00000050: 0a45 bf3b 4a1f 75be 73a2 afbe 3d0e 8c3d
00000060: 9f23 063e befa 5cbc f143 4abe 8965 8e3e
00000070: 1afc 01bf cd16 1f3e e071 03bd 3c18 e6bd
00000080: 9c52 c3be 20d0 dfbc 0896 42be 9d99 fc3e
00000090: 85aa b1be ff81 16be 0402 0dbe 6164 e3be
000000a0: 254b a03e c14c 5e3f 8d51 acbf 7543 dc3e
000000b0: 861c b93e 0a96 3b3f 17c7 3cbe eb26 d4bd
000000c0: c811 bbbe 3372 fe3e 946a 413e 5baf d5be
000000d0: 08e3 1cbd f1e8 d1be 6eaa 21be 290a c5be
000000e0: c9c2 02bf 7057 a3be fab5 b8be de7f 6ebe
000000f0: 65bd dabe 50cc 3d3e 24cd 99be aa0b 97be
00000100: 70e9 8fbe 6c1f c9bb 9084 65bc 9375 0cbd
00000110: 751d dfbe 4a21 3e3d 68e9 67bf ee4c 18bc
00000120: fe58 c2be d5ae 863e aa03 d43e b9b7 1cbe
00000130: 6d0c 95bd 24be babd 2a91 d5be 9168 c0be
00000140: 0181 c13d 8472 98be cc94 7d3e 4ca5 0abe
00000150: 50b1 5abe f3dc c3be fff5 88be bd47 86be
00000160: 5d7f d8bd 23bd 8c3d 95ec 8bbe e76b 313e
00000170: c42c 66be 886a ebbd b946 f73d bd51 3fbf
00000180: fb7e 3cbf 124d 4a3e a2bc cbbd 61a5 f5bb
00000190: 3f9f d7be b902 54be 4a46 0ebe 674b 81be
000001a0: 9936 a5be c7d0 b6be 8e03 87be 1074 c73d
000001b0: 034a 4ebe 80e4 26bc 1297 05bd 1880 ab3d
000001c0: 596a 58be a405 7b3d 1bc8 8bbe 88d3 d7be
000001d0: 3ecb e2bd cb67 99be e66a 08bf afbf f73b
000001e0: e931 68be 68a3 9fbe 2c9d 48be 686e 87bd
000001f0: 1e97 bcbe f36b c33e 3989 18bf d867 a2be
00000200: 5877 be3b eabc 7ebd a7be d5be 45d9 99be
00000210: 2126 84be 85ba aebe 48e7 aebe f7b8 4ebe
00000220: 000c d2be 9c67 c9be 17ae 7a3e 9b05 acbe
00000230: 1326 843d 8f59 2abe 7854 e23d faac f1bd
00000240: e67b 7dbc 8010 f63c 00bd 083e a093 893d
00000250: 0ccd d2be 8842 b23e cec9 e4be d4d5 ce3e
00000260: 1861 33be 9fc4 c3be d786 d8be 2e48 bbbe
00000270: 876c 01bd 583d dfbe d6e6 4ebd 24a8 083e
00000280: 49e4 b3be 0232 d03e 560f 86be ec1a 723b
00000290: 1a2b f3be 738f ae3e 7e0f 493e 0a64 583e
000002a0: 4129 e0bd 98d0 24bf b48f 3ebe 759d 1dbe
000002b0: 2294 b0be 6661 03be 6543 3dbe b329 833e
000002c0: b430 133d 5fa6 29bd bb52 503d 3a06 253b
000002d0: 5ced e6bd bca6 f6bd d38f 9bbe ac17 a53e
000002e0: 88cf 2b3e 8c5e efbd fc64 b5be f0da 9c3d
000002f0: e9f9 83be 684d 2cbe c2e7 803e 1c57 85be
00000300: 7786 9d3a b595 c0bd f72a bbbe 2a55 0abe
00000310: b48a 1fbf 7fa5 103f a448 3f3e 1025 25be
00000320: 51b6 bdbe 083f adbd 5b39 6d3e 8763 eebe
00000330: a1ad a23d 5503 603d 72be bb3e f862 99bd
00000340: 3098 31bf 0bfa 8f3d 464d a43e 5cd7 fcbe
00000350: d688 a8be 88bb f0be 1e34 acbe 5ec2 d4be
00000360: 2ae5 06be deb8 d43e a24b 16bc 7f1c 98be
00000370: 7897 c3be e031 2ebf 4216 ba3e 513c 2c3e
00000380: 7743 49be e060 6d3d 0add 89be 4490 98be
00000390: d2b7 5fbe e09c 8fbc 8fc4 8a3d 5160 c2be
000003a0: 5b62 bd3d fd68 29bf a3d4 01be ea0e 8abe
000003b0: 5071 afbe 5f3b b2be b49c 11be f058 c13d
000003c0: bb3f bbbc e063 eebf 2b94 763f 6adb a33e
000003d0: 9447 60be dcbc d1be 1d0e 63be 280e 133d
000003e0: 26dc 8d3d 86e2 633e 9ddd 71be df45 ce3d
000003f0: d4e7 a9be b37f 253e a174 223e 3e14 2cbd

Linear1.bias f4 [256]
-0.17516813 -0.04112506 -0.37909526 -0.036564782 -0.1374102 -0.5060314 -0.14911973 -0.049044624
-0.17917696 -0.16200957 0.027463377 0.1429477 -0.107097715 -0.062007263 -0.39655116 0.17554276
-0.1151659 0.14217615 -0.20705418 0.038239107 0.10765684 -0.36724228 -0.088155486 0.09149141
-0.21240386 -0.12293704 0.14621484 0.118195646 -0.33905277 -0.34532392 -0.16982856 -0.016554028
0.1692223 -0.37888354 0.10819685 -0.48247883 -0.36840644 -0.2541837 -0.14884174 -0.17227946
-0.12285542 -0.22915308 0.27201015 -0.1972891 -0.27058807 -0.431284 -0.06737984 -0.17337748
0.14921692 -0.350152 -0.32745087 -0.058814004 -0.15402552 -0.41273144 0.2230969 -0.100707844
0.2810619 -0.047364675 0.24706708 0.0012707348 -0.45091307 -0.26579744 -0.24980721 -0.38837424
0.116992734 -0.36798108 -0.03905445 0.04930918 0.04826486 -0.4011135 0.101288795 -0.2961161
0.02842333 0.12370916 -0.37040207 -0.37502027 0.03268744 -0.20249273 0.08647752 -0.053684764
0.19728343 -0.39850134 -0.27248812 -0.10760453 -0.3653254 -0.1496183 0.21121103 0.45021367
-0.18967675 0.064668715 -0.44633016 -0.33525208 -0.0024045452 0.008193497 0.18021603 0.04692998
-0.13077918 0.1715958 -0.46332434 0.15950046 -0.34327284 0.11802907 -0.4377606 -0.33955514
-0.14960112 -0.38163182 -0.036153145 0.24651274 -0.3467831 0.01994791 -0.17424709 0.0060118684
-0.089141384 -0.19095996 -0.4456578 -0.28682712 -0.24126478 -0.057053357 -0.4214742 -0.032448463
-0.09439951 -0.41040283 -0.34378663 -0.2609072 -0.32290772 0.11841119 -0.3014109 0.18492381
1.4019035 -0.11666188 0.28116545 -0.44619596 -0.2816488 -0.22437273 -0.41040415 -0.27793783
-0.009157707 -0.15619504 -0.031361684 0.1007469 -0.3308064 -0.10768769 0.0093488395 0.062141966
-0.17528738 1.2504607 -0.123950414 -0.1696762 0.053018425 0.21200162 0.37324783 0.25912264
-0.38410154 -0.2143197 -0.4327467 -0.20104137 -0.057897955 0.4167493 0.13686521 -0.1568996
0.20326453 0.14793769 -0.25127232 -0.19399339 0.24504505 -0.031985026 -0.005209256 0.37594745
1.1636572 -0.27752668 -0.36082408 -0.5016094 -0.29686466 -0.28145957 0.26840076 -0.107608855
-0.44282195 0.34615746 -0.050567478 0.0036546967 0.29292637 0.13795601 -0.17740823 -0.42381153
1.1717004 -0.16013837 -0.043291625 0.053008344 -0.20747852 -0.13001905 -0.047193766 -0.48842996
0.1389426 0.14012834 -0.01669161 0.16241267 -0.07850613 -0.22323348 -0.24112238 -0.28337437
-0.33506203 0.21061283 -0.4341271 -0.2796087 -0.16266572 -0.19164261 -0.24352361 0.07899809
-0.035827048 -0.20797484 -0.36629733 -0.0006005168 1.0353055 -0.011679113 -0.24454515 -0.19629842
-0.2898641 -0.2784127 -0.3694506 -0.40285757 -0.023911167 -0.1314341 -0.31313652 -0.17404896
0.05686958 0.1202117 -0.16990113 0.73449063 -0.1971291 -0.2900147 -0.046289187 -0.2929913
-0.23472406 0.10001876 0.21560001 0.13929798 0.20098908 -0.36352283 -0.30442464 -0.34193963
-0.5694438 -0.24366261 -0.31111965 -0.08492545 0.08567605 0.105241284 -0.011604678 0.050846968
-0.17928511 0.112033874 -0.42240933 -0.00889804 0.06385692 -0.3712156 0.19344029 -0.12199735
00000000: 465f 33be c072 28bd c618 c2be f4c4 15bd
00000010: 42b5 0cbe 468b 01bf d8b2 18be 04e3 48bd
00000020: 2a7a 37be d6e5 25be e0fa e03c e260 123e
00000030: 0c56 dbbd 54fb 7dbd c108 cbbe 7bc1 333e
00000040: 19dc ebbd a096 113e 0306 54be 9ca0 1c3d
00000050: 307b dc3d 2e07 bcbe dd8a b4bd d95f bb3d
00000060: 6680 59be 6ac6 fbbd 58b9 153e 8f10 f23d
00000070: 5398 adbe 4cce b0be 8ae7 2dbe 509c 87bc
00000080: 9c48 2d3e 06fd c1be 4f96 dd3d 7707 f7be
00000090: c59f bcbe 5e24 82be f869 18be 076a 30be
000000a0: 9f9b fbbd 1ba7 6abe ea44 8b3e 2706 4abe
000000b0: 858a 8abe 42d1 dcbe 71fe 89bd de89 31be
000000c0: 52cc 183e 1f47 b3be a4a7 a7be f4e6 70bd
000000d0: deb8 1dbe 8951 d3be 8473 643e ea3f cebd
000000e0: 58e7 8f3e 7601 42bd 27ff 7c3e c98e a63a
000000f0: 14de e6be 9a16 88be 76cd 7fbe fdd8 c6be
00000100: e399 ef3d 0468 bcbe 8ff7 1fbd 6cf8 493d
00000110: 60b1 453d c05e cdbe 8070 cf3d 889c 97be
00000120: 0bd8 e83c 3a5b fd3d 57a5 bdbe a802 c0be
00000130: 44e3 053d 415a 4fbe 201b b13d 8ee4 5bbd
00000140: ab04 4a3e 5e08 ccbe 9083 8bbe c45f dcbd
00000150: ee0b bbbe 8a35 19be b447 583e 6882 e63e
00000160: 9f3a 42be 0871 843d 6385 e4be 29a6 abbe
00000170: 9395 1dbb 043e 063c 8d8a 383e a739 403d
00000180: faea 05be cfb6 2f3e d938 edbe 1754 233e
00000190: 75c1 afbe 3ab9 f13d 2822 e0be 2cda adbe
000001a0: 0931 19be 3f65 c3be 5215 14bd d66d 7c3e
000001b0: 8e8d b1be cd69 a33c d46d 32be 35ff c43b
000001c0: c28f b6bd 028b 43be 422d e4be 01db 92be
000001d0: 1d0e 77be c8b0 69bd 77cb d7be aee8 04bd
000001e0: 8854 c1bd 5220 d2be cd04 b0be a195 85be
000001f0: 2954 a5be 9181 f23d 8852 9abe ab5c 3d3e
00000200: 9371 b33f 6cec eebd ebf4 8f3e cc73 e4be
00000210: 4634 90be f7c1 65be 7e20 d2be de4d 8ebe
00000220: 350a 16bc 98f1 1fbe 1c75 00bd 6454 ce3d
00000230: 755f a9be 5d8b dcbd e02b 193c 9388 7e3d
00000240: 897e 33be 190f a03f b7d9 fdbd 99bf 2dbe
00000250: d929 593d f416 593e 571a bf3e b9ab 843e
00000260: f5a8 c4be a076 5bbe fa90 ddbe cadd 4dbe
00000270: 6826 6dbd 2a60 d53e 6526 0c3e 4aaa 20be
00000280: 9424 503e fa7c 173e c4a6 80be 34a6 46be
00000290: 17ed 7a3e bb02 03bd 68b2 aabb 2f7c c03e
000002a0: b8f2 943f fa17 8ebe efbd b8be 7969 00bf
000002b0: a5fe 97be 781b 90be d36b 893e 0862 dcbd
000002c0: 8fb9 e2be 8d3b b13e d81f 4fbd a383 6f3b
000002d0: 72fa 953e 5744 0d3e 81aa 35be d3fd d8be
000002e0: 47fa 953f 50fb 23be 8f52 31bd 471f 593d
000002f0: 4075 54be b723 05be 404e 41bd 7e13 fabe
00000300: f846 0e3e ce7d 0f3e d8bc 88bc 824f 263e
00000310: d2c7 a0bd 5197 64be c9e8 76be 7216 91be
00000320: 408d abbe e4aa 573e e845 debe df28 8fbe
00000330: d891 26be f63d 44be 415e 79be c0c9 a13d
00000340: 62bf 12bd 5bf7 54be 538b bbbe 006c 1dba
00000350: e484 843f c059 3fbc 0b6a 7abe 7402 49be
00000360: 1169 94be 1c8c 8ebe a128 bdbe 5943 cebe
00000370: 5ae1 c3bc a996 06be 6e53 a0be e439 32be
00000380: 14f0 683d 8d31 f63d 90fa 2dbe 9407 3c3f
00000390: 36dc 49be cf7c 94be bb99 3dbd f502 96be
000003a0: 815b 70be a3d6 cc3d 40c6 5c3e 21a4 0e3e
000003b0: 15d0 4d3e aa1f babe 8cdd 9bbe b612 afbe
000003c0: 12c7 11bf b182 79be 134b 9fbe 65ed adbd
000003d0: ed76 af3d be88 d73d 8c21 3ebc e944 503d
000003e0: 8496 37be 0472 e53d 0946 d8be 16c9 11bc
000003f0: 6bc7 823d f90f bebe 3615 463e bfd9 f9bd

Linear2.weight f4 [3, 256]
-0.074096344 0.016663246 -0.008624292 -0.081806086 -0.10646835 -0.049286924 0.044490784 0.19698845
-0.56668186 -0.36764458 -0.036288306 0.006121643 -0.048514143 0.014735477 -0.32602718 -0.055463478
-0.014838061 0.082123116 0.022924393 -0.0060034487 -0.043275647 0.058035538 -0.025935443 -0.117166765
0.04528413 0.066090286 -0.015476532 -0.046945762 0.0054127797 0.0070620626 0.015382342 0.04120468
-0.10033553 0.07357367 0.05044823 -0.062828295 -0.061770163 -0.04211185 -0.06105867 -0.058041014
0.06424941 -0.06651868 -0.35386777 -0.2432778 -0.113475166 0.052092187 0.0205145 0.0052851886
-0.8020162 -0.03612515 0.03353301 -0.4223405 0.039479434 0.031386822 -0.59599584 -0.037466373
-0.3521869 -0.3208888 -0.77345866 0.0072804606 -0.13432117 -0.026205517 0.037477046 0.054303177
-0.15763895 0.03589105 -0.021725018 0.008652279 0.015514737 -0.7408914 0.057168745 -0.051575862
-0.5000764 -0.22319521 0.02719336 0.03862717 0.077274136 -0.019685008 -0.03426764 -0.062401764
-0.76165515 0.054294467 -0.031543884 0.054781698 -0.018570334 0.09054615 0.048544765 -1.5073724
-0.046966843 -0.04416848 -0.22514862 0.03811898 -0.005534873 -0.13833325 -0.0529593 -0.045589186
0.05619152 0.08360461 0.06236192 -0.0008170461 -0.0676867 0.00520008 -0.12786719 0.025078222
-0.24880031 0.03999511 0.013190545 -0.18928547 -0.034883782 -0.09055023 0.048079982 -0.14430167
-0.0021068575 0.023954056 -0.017788865 0.031282045 -0.022804942 -0.030370973 -0.20428002 -0.33117285
0.097628795 -1.4014999 0.017638914 -0.06866084 -0.017499438 0.084621325 -0.05986959 0.039405964
0.6353158 -0.6619293 -1.2800573 -0.011983022 0.05066037 0.034989305 0.022912882 0.044389002
-0.13301335 0.06076497 -0.025483165 -0.014406901 0.04487592 0.060007036 -0.015811637 0.036591873
-1.3045021 0.5742654 0.011413167 0.029560791 -0.00796375 0.034604028 -0.41319594 -0.38115284
0.0014903294 0.00438388 0.003935746 -0.035014123 -0.01651735 -0.2935691 -0.17556058 -0.04081324
0.003510153 0.14322564 -0.098185696 -1.5393353 -0.41277915 -0.60935515 -0.058290765 -0.7185671
0.6932457 -0.036164142 -0.007926812 0.040219203 -0.24190466 -0.05823393 -1.4041753 0.0034779513
-0.074547276 -1.8259239 0.1447993 -0.09554095 -0.45629963 -0.60282356 0.036922593 -0.043205954
0.4992343 0.051533617 -1.4852339 -0.13630731 -0.020411812 -0.68676096 -0.042780578 0.019858353
-0.16504067 -0.043838494 -0.13554023 -0.08049047 -0.111887254 -0.10209113 0.039547756 0.024873555
-0.023954786 -0.15940793 0.035412796 -0.016484754 0.05669178 0.049515482 0.083897434 -0.019371428
-0.065082304 -0.045486152 -0.019281965 0.034126118 0.54992133 -0.03884396 -0.020691529 0.015297323
-0.013960016 -0.0018842742 -0.045331813 0.053760417 0.0025632805 0.06001668 0.020489894 -0.008679494
-0.01038576 -1.6385326 -0.05791796 0.34668124 -0.12976511 0.027016798 0.04589822 0.037754595
-0.514492 0.051704865 -0.23690437 -0.18999122 0.047379337 0.048928745 -0.041293263 0.043809786
0.0070394725 -0.0011107922 0.029679745 0.131196 -0.6597979 -0.07856727 -0.1239886 -0.067722164
0.056938134 -0.72457945 0.044988938 -0.011841874 -0.45507848 0.014787719 -0.932759 -0.060849633
00000000: d3bf 97bd 5c81 883c e74c 0dbc f389 a7bd
00000010: 140c dabd 16e1 49bd f83b 363d 57b7 493e
00000020: 1012 11bf e93b bcbe 0ca3 14bd 1098 c83b
00000030: c4b6 46bd 126d 713c 09ed a6be ac2d 63bd
00000040: 571b 73bc 2a30 a83d f0cb bb3c 94b8 c4bb
00000050: ce41 31bd acb6 6d3d 9176 d4bc 21f5 efbd
00000060: da7b 393d 585a 873d 4891 7dbc 334a 40bd
00000070: b05d b13b e068 e73b 3806 7c3c 3dc6 283d
00000080: b77c cdbd cbad 963d cea2 4e3d 1fac 80bd
00000090: b602 7dbd 7a7d 2cbd a818 7abd 6abc 6dbd
000000a0: 3295 833d f23a 88bd 282e b5be d11d 79be
000000b0: ab65 e8bd 9e5e 553d 060e a83c 602f ad3b
000000c0: ef50 4dbf f7f7 13bd e959 093d 043d d8be
000000d0: 30b5 213d 788f 003d 2f93 18bf 5776 19bd
000000e0: d751 b4be 894b a4be 6301 46bf ee90 ee3b
000000f0: 7d8b 09be f4ac d6bc 8881 193d 026d 5e3d
00000100: 1b6c 21be 7e02 133d aaf8 b1bc 4ac2 0d3c
00000110: 8631 7e3c 0fab 3dbf c629 6a3d 3641 53bd
00000120: 0205 00bf 498d 64be 9cc4 de3c 8637 1e3d
00000130: e741 9e3d 7442 a1bc 3a5c 0cbd fe98 7fbd
00000140: d5fb 42bf e063 5e3d 2934 01bd c662 603d
00000150: d020 98bc 4370 b93d e0d6 463d 94f1 c0bf
00000160: 4e60 40bd 02ea 34bd 5c8d 66be a622 1c3d
00000170: e15d b5bb 3ba7 0dbe daeb 58bd babb 3abd
00000180: 1429 663d e538 ab3d 366f 7f3d 092f 56ba
00000190: 539f 8abd 6f65 aa3b 9eef 02be d870 cd3c
000001a0: 82c5 7ebe ead1 233d 281d 583c 0dd4 41be
000001b0: 4ce2 0ebd 6672 b9bd 84ef 443d d1c3 13be
000001c0: 3413 0abb 4c3b c43c f4b9 91bc 9a21 003d
000001d0: 6ed1 babc 8ccc f8bc c82e 51be 7d8f a9be
000001e0: 9bf1 c73d 5964 b3bf 7c7f 903c 0e9e 8cbd
000001f0: fb5a 8fbc f24d ad3d d139 75bd 2668 213d
00000200: 0ea4 223f 3374 29bf ebd8 a3bf 7054 44bc
00000210: 4081 4f3d f250 0f3d ccb3 bb3c 3ed1 353d
00000220: a734 08be b0e4 783d 12c2 d0bc ec0a 6cbc
00000230: d0cf 373d f0c9 753d 6887 81bc 5ce1 153d
00000240: edf9 a6bf 0f03 133f 4bfe 3a3c 7929 f23c
00000250: 637a 02bc f4bc 0d3d 6b8e d3be 7726 c3be
00000260: 2857 c33a a7a6 8f3b 6ef7 803b f86a 0fbd
00000270: 654f 87bc b04e 96be 27c6 33be c92b 27bd
00000280: 980a 663b bea9 123e 9515 c9bd f008 c5bf
00000290: ca57 d3be b3fe 1bbf 4cc2 6ebd 03f4 37bf
000002a0: 8d78 313f da20 14bd 76df 01bc e4bc 243d
000002b0: dbb5 77be b486 6ebd 04bc b3bf 57ee 633b
000002c0: 3eac 98bd e0b7 e9bf 4546 143e f9aa c3bd
000002d0: 1ba0 e9be a552 1abf 253c 173d baf8 30bd
000002e0: a39b ff3e ea14 533d 251c bebf 2594 0bbe
000002f0: ac36 a7bc 91cf 2fbf b03a 2fbd fcad a23c
00000300: 6c00 29be fe8f 33bd 0fcb 0abe 30d8 a4bd
00000310: 2525 e5bd 2815 d1bd d4fc 213d a0c3 cb3c
00000320: d43c c4bc d53b 23be 020d 113d 090b 87bc
00000330: a435 683d bfd0 4a3d 6bd2 ab3d d4b0 9ebc
00000340: df49 85bd b04f 3abd 36f5 9dbc d4c7 0b3d
00000350: a5c7 0c3f d81a 1fbd 4881 a9bc a0a1 7a3c
00000360: 8db8 64bc c0f9 f6ba daad 39bd e233 5c3d
00000370: b6fc 273b 0dd4 753d 6cda a73c 7034 0ebc
00000380: 0929 2abc 70bb d1bf 623b 6dbd 3480 b13e
00000390: 25e1 04be 5552 dd3c c6ff 3b3d 90a4 1a3d
000003a0: bfb5 03bf 7bc8 533d 0f97 72be 0f8d 42be
000003b0: d610 423d 8269 483d 2023 29bd e471 333d
000003c0: 60ab e63b 0098 91ba f022 f33c 3f58 063e
000003d0: 84e8 28bf e0e7 a0bd bced fdbd ebb1 8abd
000003e0: f637 693d 0a7e 39bf 5246 383d 6b04 42bc
000003f0: 0c00 e9be 3048 723c 4bc9 6ebf 773d 79bd

Linear2.bias f4 [3]
0.4579674 0.39494663 0.30229154
00000000: b47a ea3e 7236 ca3e f5c5 9a3e
