runs/run0/models/model801.pth (torch, 10959 bytes, 4 tensors)

Linear1.weight f4 [256, 5]
0.36472145 0.17317763 0.32945266 0.07629789 -0.3045157 -0.34334666 0.26398715 -0.19122845
-0.34715074 -0.13082513 0.15738584 0.22523196 0.3042762 0.045830853 -0.2970339 -0.4125359
0.23058932 -0.45209128 0.40560365 0.15817878 0.029411608 0.20213972 -0.24234128 0.03671417
-0.18656975 -0.36544025 0.42123172 -0.09881858 0.15291674 0.31731972 -0.12252641 -0.06071827
-0.015408456 0.11768329 -0.3571171 -0.37622377 0.36524263 0.01238617 -0.44732258 -0.16231343
0.111169256 -0.1121512 -0.16043809 -0.012569904 0.08856755 0.42554277 0.23784524 -0.057124417
0.16050193 0.21595302 -0.4098041 -0.15164763 0.06811421 -0.4366655 -0.17448904 0.10133299
0.30270416 0.46562627 -0.3817086 0.22435632 0.25065976 0.42860863 0.2744752 -0.07278063
0.4137637 0.15528072 0.3868146 -0.13449422 -0.3816572 0.29787794 -0.2630428 -0.11038062
-0.15165856 -0.288999 0.25077063 0.12788783 -0.3441238 0.0638975 0.33321488 0.22913499
0.09837417 0.10224619 0.40827864 0.15550551 -0.057032418 -0.21196233 0.143798 -0.09438589
0.1642502 0.052456737 0.20386304 -0.11508358 0.31358775 0.060915023 -0.3534491 -0.31840348
0.0484446 0.10902136 -0.35366726 -0.068503 -0.449848 -0.3825373 -0.049786042 -0.26150188
0.3381402 0.39352375 0.17727 -0.058481455 0.049830794 -0.0067774355 0.20528084 0.1364513
-0.21416289 -0.07023665 -0.19744141 0.17180616 0.25353932 0.102194026 -0.22888938 -0.14622734
-0.29687515 -0.3242294 0.09283364 -0.23496321 0.2898172 -0.21896264 -0.08751797 0.072424285
-0.06512221 0.29078043 0.25075755 -0.22039406 -0.34809 -0.030469108 0.37379938 0.058469743
-0.11707542 0.11669512 0.44249517 0.24621648 0.2477723 -0.42928296 -0.067287855 -0.2778851
0.41197076 0.19636111 -0.19628872 -0.39635733 -0.11722725 -0.22530352 0.14882909 -0.44076267
0.2584268 0.13900796 -0.21129325 -0.017300881 -0.3408221 -0.35555232 -0.17053145 -0.36683744
0.0126631595 0.12684976 -0.30886412 0.4244405 0.3137382 0.004970342 -0.42331457 0.078789175
-0.17041057 -0.22745043 0.28944772 -0.44367483 0.17437017 0.22775841 -0.1158444 0.4204044
-0.3948093 -0.20362256 0.28237182 0.23525295 0.09460586 0.10409081 0.09945977 -0.14557171
-0.42869535 -0.18827699 -0.050890777 0.3597418 -0.24868861 0.1627532 -0.1646583 -0.047097147
-0.12721027 0.056923017 0.20159529 0.19800095 -0.38280523 0.4421261 -0.37005895 -0.042785957
-0.10677564 -0.024359953 -0.26390332 -0.11472263 0.4469626 -0.07406628 -0.1847862 0.34084415
0.011940658 -0.03154114 -0.08782738 0.09630649 0.40730718 0.26532814 -0.41272014 0.32727677
-0.36439636 0.17145579 0.12666918 0.18915594 -0.2754013 -0.34458396 0.055022947 -0.22309618
0.19375274 -0.06391825 0.092394404 -0.07727148 -0.2557365 0.19664182 -0.1831318 0.086434275
0.46350273 0.26988387 -0.025491944 -0.25996354 -0.03955331 -0.27236155 -0.34187606 0.43056074
-0.24697728 -0.36937872 -0.2510439 0.404167 -0.33999836 0.3530626 -0.3471991 -0.21817814
0.34819108 0.106209055 -0.42881125 -0.25245386 -0.22556575 -0.0076815784 -0.03814596 -0.29522857
00000000: c5bc ba3e 7a55 313e 05ae a83e 1142 9c3d
00000010: 7be9 9bbe 22cb afbe 5329 873e 64d1 43be
00000020: bebd b1be 06f7 05be c129 213e 35a3 663e
00000030: 17ca 9b3e 22b9 3b3d d414 98be e837 d3be
00000040: 9b1f 6c3e 8278 e7be 48ab cf3e 9ef9 213e
00000050: 9df0 f03c b7fd 4e3e 5028 78be 9961 163d
00000060: 240c 3fbe fc1a bbbe afab d73e 6561 cabd
00000070: 3596 1c3e bb77 a23e 20ef fabd b8b3 78bd
00000080: c073 7cbc f003 f13d 0dd8 b6be 67a0 c0be
00000090: 1501 bb3e 5def 4a3c 7707 e5be 7e35 26be
000000a0: b5ac e33d 87af e5bd e249 24be 00f2 4dbc
000000b0: e762 b53d bee0 d93e b48d 733e 4bfb 69bd
000000c0: 9e5a 243e ca22 5d3e d8d1 d1be 8449 1bbe
000000d0: 777f 8b3d 9f92 dfbe 41ad 32be ac87 cf3d
000000e0: 0afc 9a3e 9166 ee3e 4f6f c3be aabd 653e
000000f0: 7a56 803e 9772 db3e 0388 8c3e 030e 95bd
00000100: d6d8 d33e e901 1f3e 900c c63e dab8 09be
00000110: 9368 c3be 7583 983e 8cad 86be 3c0f e2bd
00000120: 624c 1bbe adf7 93be 0265 803e 07f5 023e
00000130: ff30 b0be b1dc 823d 249b aa3e 5da2 6a3e
00000140: 6678 c93d 7366 d13d e609 d13e d63c 1f3e
00000150: d39a 69bd a70c 59be c83f 133e 644d c1bd
00000160: 3431 283e e0dc 563d 79c1 503e f1b0 ebbd
00000170: 938e a03e 0882 793d 48f7 b4be c805 a3be
00000180: d86d 463d 9746 df3d e013 b5be 4d4b 8cbd
00000190: 7a52 e6be eedb c3be 73ec 4bbd 93e3 85be
000001a0: b620 ad3e f27b c93e 4486 353e 408a 6fbd
000001b0: 601b 4c3d 4015 debb 2435 523e e4b9 0b3e
000001c0: 844d 5bbe 3cd8 8fbd 152e 4abe f4ed 2f3e
000001d0: e8cf 813e 1a4b d13d fa61 6abe 9fbc 15be
000001e0: 0500 98be 6501 a6be 901f be3d 329a 70be
000001f0: ec62 943e be37 60be 9f3c b3bd 2f53 943d
00000200: cb5e 85bd 2ce1 943e 4b63 803e fbae 61be
00000210: da38 b2be 5a9a f9bc a262 bf3e f87d 6f3d
00000220: 3dc5 efbd dafd ee3d ba8e e23e 2c20 7c3e
00000230: 06b8 7d3e faca dbbe 37ce 89bd f546 8ebe
00000240: d5ed d23e e312 493e e9ff 48be 59ef cabe
00000250: d714 f0bd f7b5 66be a766 183e a5ab e1be
00000260: 8450 843e 1a58 0e3e 425d 58be 94ba 8dbc
00000270: 3c80 aebe f40a b6be cc9f 2ebe 1ed2 bbbe
00000280: 2479 4f3c e7e4 013e 7023 9ebe 4450 d93e
00000290: 4ba2 a03e 40de a23b b0bc d8be 385c a13d
000002a0: 1c80 2ebe c4e8 68be 7e32 943e 5929 e3be
000002b0: 188e 323e 8039 693e d43f edbd 3f3f d73e
000002c0: 7224 cabe 6f82 50be 0a93 903e 26e6 703e
000002d0: b8c0 c13d 902d d53d 90b1 cb3d c010 15be
000002e0: f57d dbbe afcb 40be d972 50bd 1430 b83e
000002f0: 3aa8 7ebe c6a8 263e 2f9c 28be f0e8 40bd
00000300: 6943 02be 1c28 693d ff6e 4e3e c3c0 4a3e
00000310: 0cff c3be 5a5e e23e 5e78 bdbe 5440 2fbd
00000320: 30ad dabd 868e c7bc 561e 87be b3f3 eabd
00000330: 48d8 e43e 10b0 97bd 9838 3dbe 2083 ae3e
00000340: c0a2 433c 4831 01bd d7de b3bd 563c c53d
00000350: 918a d03e 17d9 873e 0e50 d3be d290 a73e
00000360: 2992 babe 1b92 2f3e 91b5 013e 18b2 413e
00000370: 6601 8dbe 4f6d b0be be5f 613d 5373 64be
00000380: 1e67 463e 92e7 82bd 4739 bd3d 8240 9ebd
00000390: e5ef 82be 795c 493e e786 3bbe 7404 b13d
000003a0: 3b50 ed3e 382e 8a3e 7bd4 d0bc f119 85be
000003b0: a702 22bd f972 8bbe 610a afbe 7572 dc3e
000003c0: 9de7 7cbe 351f bdbe d388 80be faee ce3e
000003d0: 4414 aebe 9fc4 b43e 15c4 b1be 176a 5fbe
000003e0: 1a46 b23e 2284 d93d 268d dbbe a241 81be
000003f0: b5fa 66be c0b5 fbbb f03e 1cbd 3328 97be

Linear1.bias f4 [256]
0.34588328 0.3571134 -0.008691787 0.0027635817 0.2766508 -0.23357 -0.13188645 -0.0058554653
0.25608417 -0.2606316 0.4336194 -0.3350478 0.1606342 0.32711124 -0.15362203 -0.25501305
0.26337296 -0.3310143 0.055285543 0.2756201 0.2867095 -0.4186772 -0.22244619 0.21607836
-0.35872352 -0.053234376 -0.28388217 -0.39686924 0.3596468 0.09542605 0.33323044 0.4107329
0.11286378 -0.3145038 -0.418779 -0.3529909 -0.37166387 -0.3104396 0.27836922 -0.015971785
-0.069245115 -0.2546822 0.1428037 0.25118157 0.30290535 0.39998153 -0.13512135 0.11740924
0.07490175 0.183263 -0.111331254 0.38428366 -0.07311684 0.083916485 -0.31971318 -0.11754009
-0.16680172 -0.027770957 0.21936129 -0.12681952 -0.08167718 -0.36253527 0.39939505 0.20126778
-0.10657126 -0.11167439 -0.40007854 0.328916 0.3031377 0.3395318 0.3092543 -0.26876783
0.0045659654 -0.0029320247 0.20700924 0.08715091 0.43641132 -0.4021758 -0.34610873 -0.43300626
-0.23733133 0.30275577 0.15643805 -0.37334862 0.106262535 0.045614474 -0.105629794 0.18889341
-0.29126257 0.38665715 -0.22950415 -0.2999326 -0.0062328805 -0.37922925 0.2092306 0.31898966
-0.30391753 0.51196957 0.013715357 0.39957058 -0.3917994 0.3479479 -0.2347569 0.04121
0.4544246 0.10186339 0.08372804 -0.3946483 -0.2148422 -0.38912 0.031578068 0.3750704
0.35732713 -0.19952701 0.16608943 -0.24790896 -0.15363276 0.30106995 0.34636107 0.42695644
0.14273414 0.083874986 0.29781225 0.006815821 -0.2406586 -0.054654174 0.20858964 -0.33440048
-0.27199996 -0.25763682 -0.26621622 -0.33872515 0.16773146 -0.25695354 -0.13628595 -0.16549787
0.27750468 0.29451847 0.37994847 0.4273519 -0.24385269 0.40728748 0.3594837 0.32497525
0.32974106 0.04841491 0.1523528 -0.30344468 -0.28532922 0.12957391 -0.3557257 0.110792
0.044296592 0.007380578 -0.13350543 0.1538637 0.34500173 -0.00037001222 -0.4149724 0.4043573
0.21135126 0.18947688 0.14861841 0.30776662 -0.019960761 0.3407207 0.24599235 -0.081305474
-0.13347314 -0.36259767 0.0675623 -0.33049306 0.29185295 0.20281477 -0.20574377 -0.33902234
-0.4359248 0.0983892 -0.14905447 -0.36411515 -0.3790721 -0.09389291 -0.3119471 -0.17156169
-0.20397453 -0.38816082 -0.09120651 -0.03682976 -0.097546965 -0.11710358 0.12301932 -0.07901853
0.07529734 0.3604452 0.43420902 0.17616208 -0.16382867 0.27044255 -0.36482495 -0.43887073
-0.04996572 -0.11597257 0.17682768 -0.1896413 0.28158182 0.22223395 0.13886932 0.39859518
0.031795558 -0.32712966 -0.047090296 -0.06274671 -0.3404961 0.07613725 0.049192313 0.064118974
-0.20517582 0.05548402 0.23988046 0.23027839 -0.17159006 0.07996868 -0.03212273 0.16770127
-0.14379756 0.07310797 -0.15202811 -0.19246864 -0.36612868 -0.01851213 0.4455944 0.28874713
-0.087910175 0.10746578 -0.3866671 -0.3560637 0.42958584 -0.19993334 -0.41040635 0.31742543
-0.19855705 0.35213888 0.116653375 0.06367581 0.37874562 0.15109557 -0.38715282 0.07649298
-0.09684496 0.30078134 0.10108774 -0.09487307 0.30196637 0.07697809 0.11600776 -0.24566662
00000000: 9d17 b13e 91d7 b63e ff67 0ebc 351d 353b
00000010: 2ca5 8d3e f92c 6fbe 3e0d 07be 34df bfbb
00000020: 771d 833e 8171 85be 5d03 de3e 638b abbe
00000030: 4b7d 243e 207b a73e 184f 1dbe 1291 82be
00000040: d2d8 863e b57a a9be 1873 623d 141e 8d3e
00000050: 96cb 923e dc5c d6be efc8 63be a543 5d3e
00000060: 9caa b7be 4a0c 5abd 0159 91be 7232 cbbe
00000070: a023 b83e bc6e c33d 2e9d aa3e 954b d23e
00000080: 2025 e73d a406 a1be 336a d6be 39bb b4be
00000090: ba4a bebe f0f1 9ebe 6986 8e3e 43d7 82bc
000000a0: 62d0 8dbd b565 82be 223b 123e df9a 803e
000000b0: 6916 9b3e 61ca cc3e 405d 0abe 4174 f03d
000000c0: 1766 993d 4ca9 3b3e a401 e4bd d4c0 c43e
000000d0: 48be 95bd 68dc ab3d 72b1 a3be dcb8 f0bd
000000e0: 12ce 2abe eb7f e3bc 3fa0 603e fadc 01be
000000f0: 5e46 a7bd 399e b9be 827d cc3e 2419 4e3e
00000100: 0842 dabd 8bb5 e4bd 18d7 ccbe ae67 a83e
00000110: dd34 9b3e 1dd7 ad3e 9456 9e3e f09b 89be
00000120: 189e 953b 3627 40bb 3bfa 533e 2d7c b23d
00000130: 4e71 df3e fde9 cdbe 2a35 b1be ffb2 ddbe
00000140: fc06 73be ce02 9b3e 4c31 203e 8d27 bfbe
00000150: 2ca0 d93d 3ed6 3a3d 6f54 d8bd 466d 413e
00000160: 5e20 95be edf7 c53e 2303 6bbe c490 99be
00000170: 313d ccbb 562a c2be 8c40 563e 9d52 a33e
00000180: 149b 9bbe 7010 033f 60b6 603c 8494 cc3e
00000190: ee99 c8be 3a26 b23e 1d64 70be d1cb 283d
000001a0: 57aa e83e c19d d03d 9b79 ab3d 580f cabe
000001b0: 98ff 5bbe bd3a c7be 0158 013d 3a09 c03e
000001c0: 95f3 b63e cf50 4cbe 5913 2a3e d9db 7dbe
000001d0: e851 1dbe d725 9a3e 3d56 b13e 099a da3e
000001e0: e628 123e a6c6 ab3d d97a 983e 4057 df3b
000001f0: 356f 76be 0edd 5fbd 8698 553e 8a36 abbe
00000200: 9443 8bbe f9e8 83be 7e4d 88be 626d adbe
00000210: ccc1 2b3e 6a8f 83be 8b8e 0bbe 4678 29be
00000220: 1815 8e3e 20cb 963e 9b88 c23e decd da3e
00000230: 85b4 79be fc87 d03e 3f0e b83e 2863 a63e
00000240: d2d3 a83e b64e 463d 5f02 1c3e 1a5d 9bbe
00000250: ac16 92be 06af 043e ae21 b6be ebe6 e23d
00000260: 5870 353d c7d8 f13b a6b5 08be 728e 1d3e
00000270: 11a4 b03e 33fe c1b9 4377 d4be ec07 cf3e
00000280: 776c 583e 3a06 423e 6d2f 183e 9693 9d3e
00000290: c084 a3bc f272 ae3e 6be5 7b3e 7c83 a6bd
000002a0: 2fad 08be 67a6 b9be 1a5e 8a3d 6336 a9be
000002b0: c06d 953e adae 4f3e 7fae 52be 5694 adbe
000002c0: 8931 dfbe 4780 c93d bca1 18be 4d6d babe
000002d0: bd15 c2be ed4a c0bd 88b7 9fbe dead 2fbe
000002e0: b3de 50be 04bd c6be 7bca babd cdda 16bd
000002f0: b4c6 c7bd 00d4 efbd 8ef1 fb3d 78d4 a1bd
00000300: 7e35 9a3d 468c b83e a550 de3e d563 343e
00000310: b4c2 27be 7277 8a3e 56ca babe aab3 e0be
00000320: dba8 4cbd 0783 edbd 5112 353e 5431 42be
00000330: 7e2b 903e 4c91 633e c233 0e3e ab14 cc3e
00000340: 0f3c 023d 8a7d a7be c1e1 40bd 5981 80bd
00000350: 8155 aebe d9ed 9b3d e17d 493d cf50 833d
00000360: 9c19 52be 3643 633d 39a3 753e 19ce 6b3e
00000370: 4eb5 2fbe 9fc6 a33d 2093 03bd e2b9 2b3e
00000380: ab3f 13be a2b9 953d 42ad 1bbe 8016 45be
00000390: 3875 bbbe c0a6 97bc f324 e43e aad6 933e
000003a0: 400a b4bd 0517 dc3d 3bf9 c5be fb4d b6be
000003b0: adf2 db3e 53bb 4cbe c820 d2be 9685 a23e
000003c0: 8a52 4bbe 8c4b b43e f7e7 ee3d 7768 823d
000003d0: f2ea c13e ccb8 1a3e e538 c6be 5aa8 9c3d
000003e0: a656 c6bd 0300 9a3e 1707 cf3d d04c c2bd
000003f0: 569b 9a3e b0a6 9d3d 7a95 ed3d 0890 7bbe

Linear2.weight f4 [3, 256]
0.07013806 -0.044357806 0.00071700395 -0.03183742 0.035064727 -0.019283533 -0.03575845 -0.044167206
0.038477883 -0.029561283 -0.014614995 -0.10140314 0.037688952 0.043464467 -0.04415647 -0.040443935
-0.04602956 0.045570724 -0.031168692 -0.030441236 -0.05684321 0.0131549835 -0.027392827 -0.041699804
0.008090429 -0.0033667209 0.04354992 -0.07908 0.07629421 -0.034946647 -0.0375244 -0.056627076
-0.045351036 0.038868286 0.01054877 0.040173322 -0.0019045323 0.019502684 0.025669033 0.014459856
-0.04827045 0.03203001 -0.015167778 0.042192563 0.009585951 -0.025410108 0.016471317 -0.048189953
0.012177417 -0.012857986 0.036387555 -0.05504346 -0.007452927 0.02839465 -0.04612713 -0.049983263
-0.024305223 0.045872305 -0.010288615 0.0377959 -0.057711095 -0.058376882 0.010712866 -0.0073099583
0.0063953423 -0.008657185 -0.01321654 0.048746694 0.0708541 0.0010629151 -0.026214106 -0.06091082
-0.0023126241 0.006957888 -0.0030869169 -0.0025370177 0.022353383 0.049519934 -0.020073898 -0.01001624
0.022431359 -0.016836787 0.056658797 -0.043516926 0.0108467005 0.030950624 -0.07795257 -0.040726822
-0.05487382 0.046281427 -0.044531338 -0.038483813 0.07204456 -0.036397934 -0.061818182 -0.004488875
0.029722268 0.058564313 0.048630856 0.05164467 0.05419083 0.0568943 -0.020439895 0.02533601
0.012205335 -0.016229965 0.046047617 -0.032513797 -0.007716216 -0.03259533 -0.053332202 0.051533673
-1.9598348e-05 -0.027230639 -0.048422538 -0.044585362 -0.044299714 0.033916872 0.011174173 0.03808957
0.04113392 -0.046830833 -0.00596561 -0.037150897 -0.027331822 -0.024045696 -0.039451435 0.039330058
0.0121067045 -0.02105898 -0.040072177 0.022060944 -0.049457442 -0.06537232 0.046221953 -0.0028274655
-0.006623337 -0.005303108 0.025169605 -0.014327375 0.018642584 0.047205564 -0.0026972045 -0.011562393
-0.008150706 0.00041562828 0.042384796 0.035767272 0.052790783 -0.082204215 -0.0073117316 0.035322
-0.060194068 -0.04530763 -0.034354877 0.069903366 0.015789827 -0.030217908 -0.022648677 -0.041376635
0.008774044 -0.039802093 -0.023148304 0.03879063 -0.052531637 0.007226805 -0.04561942 0.031979002
0.048161976 -0.054465212 -0.034615777 -0.0041496307 -0.022623135 0.0738356 0.041463196 -0.057724297
-0.038376298 -0.033207472 0.0006163344 0.011565 -0.054028675 -0.07764769 -0.08707265 0.050778285
-0.027126238 -0.016202759 -0.045681838 -0.06884293 0.017642207 0.03831678 0.060796432 0.007915841
0.014669119 0.014471173 0.018432535 -0.0344015 -0.054087475 0.038198266 0.0091382675 -0.0039812326
-0.021373246 -0.057786968 -0.025291124 -0.06074252 -0.073147915 -0.014024026 0.026475415 -0.059817225
0.06917921 -0.025644422 0.06963754 -0.062223777 -0.0114895115 -0.049948763 -0.05685212 -0.0060997363
-0.048675984 -0.048284724 -0.028761791 0.0667591 -0.04761447 -0.016027903 0.039479934 0.0674525
-0.01681147 0.06003127 0.03906133 -0.017197974 -0.001709256 0.038014807 0.047031745 -0.04278187
-0.021172702 -0.01526648 0.0040497403 -0.03651721 0.03092936 -0.036428116 0.057075895 0.071052276
-0.033330657 -0.04733731 0.077562705 0.07521673 0.03836285 -0.031510446 0.05768151 -0.04158056
-0.016053785 -0.003491551 -0.010341523 -0.015409802 -0.051967897 0.020698441 -0.0022736774 -0.007060941
00000000: 8ba4 8f3d 88b0 35bd 52f5 3b3a f467 02bd
00000010: 08a0 0f3d 80f8 9dbc 7477 12bd ace8 34bd
00000020: fc9a 1d3d 812a f2bc bb73 6fbc 73ac cfbd
00000030: bb5f 1a3d cc07 323d 6add 34bd 8aa8 25bd
00000040: 7e89 3cbd 5ea8 3a3d 7c55 ffbc e65f f9bc
00000050: 6dd4 68bd 0088 573c ec66 e0bc 6acd 2abd
00000060: b88d 043c 34a4 5cbb 6761 323d b2f4 a1bd
00000070: 2440 9c3d 3724 0fbd 2fb3 19bd cbf1 67bd
00000080: 02c2 39bd 5a34 1f3d c0d4 2c3c c88c 243d
00000090: 80a1 f9ba 18c4 9f3c dd47 d23c 08e9 6c3c
000000a0: 3cb7 45bd e631 033d 4682 78bc 1cd2 2c3d
000000b0: 650e 1d3c dc28 d0bc dbee 863c d462 45bd
000000c0: ca83 473c 4daa 52bc 1e0b 153d 4075 61bd
000000d0: af37 f4bb e69b e83c cdef 3cbd 40bb 4cbd
000000e0: bf1b c7bc 99e4 3b3d 9491 28bc e0cf 1a3d
000000f0: 7862 6cbd 991c 6fbd 0485 2f3c 6088 efbb
00000100: 0590 d13b ded6 0dbc 308a 58bc 9daa 473d
00000110: f41b 913d 8351 8b3a f7be d6bc a07d 79bd
00000120: 658f 17bb fffe e33b df4d 4abb 1844 26bb
00000130: 711e b73c 6ad5 4a3d 0472 a4bc 281b 24bc
00000140: f8c1 b73c 4ded 89bc 0e13 683d ce3e 32bd
00000150: 5cb6 313c 2a8c fd3c 99a5 9fbd 2bd1 26bd
00000160: 5fc3 60bd 9891 3d3d 7e66 36bd 34a1 1dbd
00000170: 198c 933d 0016 15bd 1035 7dbd 6a17 93bb
00000180: 1d7c f33c 22e1 6f3d 2631 473d 5d89 533d
00000190: 34f7 5d3d ff09 693d 9171 a7bc 778d cf3c
000001a0: e3f8 473c b4f4 84bc 6d9c 3c3d 302d 05bd
000001b0: 50d8 fcbb ae82 05bd de72 5abd f914 533d
000001c0: 2267 a4b7 ca12 dfbc b656 46bd 249f 36bd
000001d0: 9e73 35bd 6bec 0a3d e113 373c cf03 1c3d
000001e0: 0b7c 283d b0d1 3fbd 2a7b c3bb 8a2b 18bd
000001f0: fce6 dfbc 7bfb c4bc d497 21bd 8e18 213d
00000200: 335b 463c e283 acbc b922 24bd 27b9 b43c
00000210: e393 4abd ece1 85bd 3b53 3d3d 004d 39bb
00000220: 9408 d9bb b2c5 adbb 7d30 ce3c 5ebd 6abc
00000230: 55b8 983c 9f5a 413d 95c3 30bb 3170 3dbc
00000240: 8a8a 05bc afe8 d939 ae9b 2d3d b480 123d
00000250: 263b 583d af5a a8bd 4097 efbb cdad 103d
00000260: 0e8e 76bd 7e94 39bd b3b7 0cbd 7f29 8f3d
00000270: ab59 813c 8c8b f7bc b889 b9bc 8c7a 29bd
00000280: 02c1 0f3c 8507 23bd 83a1 bdbc ece2 1e3d
00000290: 6a2b 57bd d6ce ec3b 6edb 3abd 6afc 023d
000002a0: 7e45 453d ea16 5fbd 46c9 0dbd a0f9 87bb
000002b0: 2754 b9bc 1e37 973d 50d5 293d 5070 6cbd
000002c0: 7730 1dbd 8f04 08bd 8091 213a 207b 3d3c
000002d0: 2c4d 5dbd c105 9fbd 2553 b2bd e4fc 4f3d
000002e0: d837 debc a6bb 84bc e11c 3bbd 86fd 8cbd
000002f0: 6486 903c 0ef2 1c3d ae05 793d 72b1 013c
00000300: bf56 703c 8018 6d3c d4ff 963c 96e8 0cbd
00000310: d48a 5dbd c975 1c3d acb8 153c 0075 82bb
00000320: f216 afbc 07b2 6cbd 552f cfbc 26cd 78bd
00000330: 93ce 95bd 07c5 65bc f8e2 d83c e802 75bd
00000340: d4ad 8d3d 4014 d2bc 209e 8e3d 5cde 7ebd
00000350: 813e 3cbc 1397 4cbd c5dd 68bd 4ce0 c7bb
00000360: 7860 47bd 34c6 45bd d99d ebbc ffb8 883d
00000370: 6407 43bd f34c 83bc b6b5 213d 8924 8a3d
00000380: 35b8 89bc 59e3 753d c6fe 1f3d c4e2 8cbc
00000390: 1d09 e0ba 6ab5 1b3d 5ca4 403d 0b3c 2fbd
000003a0: 6072 adbc 4220 7abc afb3 843b 1293 15bd
000003b0: 925f fd3c a635 15bd 6ac8 693d db83 913d
000003c0: ba85 08bd c4e4 41bd 32d9 9e3d 3b0b 9a3d
000003d0: 5d22 1d3d 1911 01bd 7243 6c3d 6150 2abd
000003e0: 3a83 83bc 81d2 64bb 7e6f 29bc 6579 7cbc
000003f0: 4adc 54bd c78f a93c fa01 15bb 775f e7bb

Linear2.bias f4 [3]
-0.022092178 -0.028051767 -0.044227812
00000000: a8fa b4bc d2cc e5bc 3928 35bd
