runs/run2/models/model1.pth (torch, 10959 bytes, 4 tensors)

Linear1.weight f4 [256, 5]
-0.40554452 -0.24777164 -0.20431413 0.19514832 -0.14971086 -0.39822224 0.03848681 -0.06905538
-0.22454898 0.2397049 0.40012786 0.3489404 -0.017772427 -0.033172343 0.12882833 0.08970362
-0.38968763 -0.08985782 -0.37634385 -0.3230659 0.15066975 -0.17839906 0.33459228 -0.19171602
0.30325067 0.32412958 -0.2894308 0.36720502 -0.341185 -0.3755299 0.034514472 -0.12594941
0.022299247 0.2301615 -0.0488289 -0.03999126 0.29991615 -0.11563018 -0.19936663 -0.22698618
0.061157897 -0.13963072 -0.3548069 0.08773481 0.30784738 -0.23271957 0.017991215 0.17036247
-0.38316017 -0.44640324 -0.13516869 0.16231728 -0.4364185 0.10526011 0.36349487 -0.09123804
0.29386768 -0.29153144 -0.1714654 0.39424893 0.13654667 -0.3867767 -0.42998517 0.012177676
0.25258148 0.38086736 0.0707109 -0.22457276 0.28873754 -0.19504493 0.4350225 0.34074417
0.40666482 0.24158202 0.28036344 0.038686246 -0.14400434 -0.3820747 0.44683462 0.40717858
-0.12919277 -0.11939189 -0.27990025 -0.08876121 -0.08823559 0.31944215 -0.19632034 -0.19237089
-0.22158971 0.38661367 -0.19113038 0.3071771 -0.3787234 0.27411002 0.05602784 0.18372637
-0.23414046 0.08359414 -0.42600083 0.38991904 -0.022863107 0.10834994 0.45802063 -0.287416
-0.30552638 -0.296462 -0.073406994 0.1299722 -0.47984096 0.35536405 -0.35255262 -0.1427806
0.36305326 -0.022623062 0.2968312 0.36492583 -0.104108736 -0.16588685 0.12406433 -0.111520186
-0.05891969 0.24078341 0.30224496 0.37707356 0.039980486 -0.36590505 -0.14972791 -0.03221181
0.29922223 0.17621827 0.016442657 0.31403077 -0.22602354 0.07967484 -0.030972213 0.3553793
0.054141495 -0.14694048 -0.28385887 -0.35733384 0.37060568 -0.12265487 0.17958513 0.1518121
-0.053743158 0.103131175 0.060708106 -0.09740147 0.11888218 -0.23108007 -0.01867652 -0.039286703
0.22868502 -0.09634611 0.043618083 -0.30406058 -0.32140988 -0.27971545 -0.17012471 -0.33291763
0.22470851 -0.20372297 0.378666 0.33956063 -0.1418528 0.30201787 0.17753778 0.23778214
0.3777653 0.091795065 -0.2679361 -0.20476799 -0.004668534 -0.10592666 0.40449166 0.21511328
0.3592977 -0.104714125 -0.122775316 -0.2203835 -0.07574463 -0.25916845 0.31401736 -0.0712153
-0.42656714 -0.30209827 -0.0014686286 -0.41389892 -0.16386962 -0.25457984 0.27044153 0.26370087
-0.026042057 0.42818844 -0.32418287 -0.12059659 -0.2994514 0.004867971 0.20173413 -0.2686702
-0.10155311 0.20025288 0.048038755 0.17109095 0.16584782 -0.1502196 0.13890205 -0.3861072
0.16399911 0.2906325 0.22273158 0.02592321 -0.033458926 -0.19250707 0.41997474 -0.20021759
0.006369412 -0.44706652 0.19092089 0.3534696 0.06251915 0.33903968 -0.24888948 0.2728321
0.381658 0.04764083 -0.37412095 -0.36663014 -0.32384694 0.31876206 -0.21385454 0.33613402
-0.19677016 -0.31039652 0.2117461 0.18568616 0.2737039 -0.1412046 0.22454534 0.39223713
0.30819488 0.14269954 0.15295428 -0.24063817 -0.12511829 -0.35402262 0.448674 0.33813155
-0.1189597 0.26821402 0.14074504 -0.08791792 0.23342164 -0.16904692 -0.30234036 -0.011386752
00000000: 88a3 cfbe d9b7 7dbe b937 51be f6d4 473e
00000010: ce4d 19be c9e3 cbbe 58a4 1d3d e86c 8dbd
00000020: 2bf0 65be 3475 753e 8fdd cc3e 51a8 b23e
00000030: 7b97 91bc b9df 07bd 93eb 033e 88b6 b73d
00000040: 2385 c7be 6007 b8bd 24b0 c0be e568 a5be
00000050: 2c49 1a3e 3eae 36be ae4f ab3e 3451 44be
00000060: ac43 9b3e 50f4 a53e 4630 94be 4c02 bc3e
00000070: cdaf aebe 7445 c0be 0c5f 0d3d e2f8 00be
00000080: e9ac b63c 75af 6b3e d000 48bd e0cd 23bd
00000090: 9c8e 993e 84cf ecbd c426 4cbe 116f 68be
000000a0: b480 7a3d 5bfb 0ebe 40a9 b5be 4fae b33d
000000b0: 2c9e 9d3e 0a4e 6ebe 5062 933c 8073 2e3e
000000c0: 922d c4be f78e e4be a969 0abe 8036 263e
000000d0: 3f72 dfbe 9d92 d73d 001c ba3e 02db babd
000000e0: d375 963e 9c43 95be a094 2fbe ffda c93e
000000f0: e4d2 0b3e 9807 c6be 0427 dcbe e084 473c
00000100: 5c52 813e 0c01 c33e e0d0 903d 67f6 65be
00000110: 68d5 933e dcb9 47be 45bb de3e 0576 ae3e
00000120: 5f36 d03e 4761 773e cc8b 8f3e 7875 1e3d
00000130: e075 13be 4c9f c3be 82c7 e43e b679 d03e
00000140: 1c4b 04be bc83 f4bd 164f 8fbe 70c8 b5bd
00000150: dcb4 b4bd ec8d a33e 3308 49be e0fc 44be
00000160: 6ae8 62be 3af2 c53e afb7 43be 5146 9d3e
00000170: 09e8 c1be 2658 8c3e 737d 653d c422 3c3e
00000180: 84c2 6fbe 6833 ab3d c81c dabe 78a3 c73e
00000190: 694b bbbc 93e6 dd3d ae81 ea3e 3128 93be
000001a0: f46d 9cbe dec9 97be 6856 96bd 6f17 053e
000001b0: b7ad f5be 47f2 b53e c781 b4be 1435 12be
000001c0: 1ee2 b93e 0054 b9bc 42fa 973e 8fd7 ba3e
000001d0: f636 d5bd 3ede 29be 7015 fe3d b264 e4bd
000001e0: c655 71bd ed8f 763e dabf 9a3e c90f c13e
000001f0: 94c2 233d e857 bbbe 4652 19be 88f0 03bd
00000200: a833 993e 9072 343e c0b2 863c a4c8 a03e
00000210: b772 67be 902c a33d 70b9 fdbc 47f4 b53e
00000220: 79c3 5d3d 9177 16be f355 91be 76f4 b6be
00000230: 07c0 bd3e 7a32 fbbd 2ae5 373e a274 1b3e
00000240: c921 5cbd 7036 d33d 10a9 783d 6c7a c7bd
00000250: 8078 f33d 41a0 6cbe 80ff 98bc 18eb 20bd
00000260: 682c 6a3e 1c51 c5bd e0a8 323d d4ad 9bbe
00000270: d68f a4be dd36 8fbe 2c35 2ebe 2e74 aabe
00000280: fd19 663e c19c 50be 83e0 c13e e4da ad3e
00000290: dc41 11be 16a2 9a3e 77cc 353e 297d 733e
000002a0: 746a c13e 0dff bb3d ec2e 89be b3ae 51be
000002b0: 80fa 98bb 14f0 d8bd 8819 cf3e a846 5c3e
000002c0: def5 b73e 5c74 d6bd a071 fbbd 36ac 61be
000002d0: 0020 9bbd bab1 84be e2c6 a03e 54d9 91bd
000002e0: 0267 dabe a0ac 9abe 007f c0ba 8fea d3be
000002f0: 70cd 27be 4a58 82be 5077 8a3e cd03 873e
00000300: 2756 d5bc 843b db3e 4cfb a5be 58fb f6bd
00000310: b251 99be 8083 9f3b 6493 4e3e 248f 89be
00000320: 14fb cfbd 170f 4d3e 49c4 443d 7732 2f3e
00000330: 03d4 293e 2bd3 19be 573c 0e3e d8af c5be
00000340: 62ef 273e c8cd 943e bf13 643e e95c d43c
00000350: 3a0c 09bd 9320 45be ee06 d73e d705 4dbe
00000360: 80b6 d03b e7e5 e4be c480 433e f8f9 b43e
00000370: 0a0a 803d 9c96 ad3e e2dc 7ebe a6b0 8b3e
00000380: ad68 c33e 0823 433d c88c bfbe f2b6 bbbe
00000390: 44cf a5be c834 a33e affc 5abe c219 ac3e
000003a0: 1e7e 49be 4bec 9ebe f8d3 583e 8324 3e3e
000003b0: eb22 8c3e f097 10be 37ef 653e 4ed3 c83e
000003c0: b8cb 9d3e d41f 123e 0ca0 1c3e da69 76be
000003d0: 021f 00be 7442 b5be 99b8 e53e 941f ad3e
000003e0: 25a1 f3bd 5953 893e 781f 103e 4f0e b4bd
000003f0: 1506 6f3e a31a 2dbe 5bcc 9abe 808f 3abc

Linear1.bias f4 [256]
0.19956258 -0.3746257 0.22794245 0.3650208 0.3395053 0.021630138 0.33400825 -0.3486731
0.29813585 -0.22150481 0.2670933 -0.06781895 -0.40289596 -0.18990895 0.11615558 -0.35494137
-0.09636691 0.29789194 0.36579353 -0.23824051 0.19508727 0.21675804 -0.27493656 0.4158069
0.33333176 -0.26637578 -0.34283894 0.41082618 0.17706671 -0.22778086 -0.29137015 0.21544766
0.14792137 0.13800758 -0.28799364 -0.2577534 -0.29931033 0.26392823 0.16130976 -0.055343837
0.13954884 0.35625324 0.43484572 -0.16123435 0.29587877 -0.18830332 -0.05598396 0.026834935
-0.3143884 0.014951698 0.37196144 -0.065279275 -0.07395698 -0.20861775 -0.21741684 0.39986488
0.46868104 -0.42576173 -0.06436631 0.21714972 -0.11835122 0.35622913 0.23159261 0.07852882
0.23640364 0.09756326 0.1022256 -0.018845934 -0.32089257 -0.06031385 0.33295098 0.43095824
-0.069214575 -0.41446114 0.13407382 0.14478216 0.40662587 0.32649618 0.34942955 -0.1208753
-0.35830227 -0.18704142 0.300216 0.39286882 0.38119566 0.31749618 0.16431864 0.23141146
0.3782858 -0.33772996 0.30173293 -0.015091847 0.47159502 0.13831396 0.013459563 -0.4112773
-0.13079986 0.123815104 -0.21097958 0.18659818 -0.24570744 0.13300705 0.023890018 -0.36210877
-0.16281417 0.2556839 -0.43113992 -0.23098816 -0.18632172 0.06413684 -0.21932757 0.16295011
0.29590458 0.14434329 0.20480196 -0.4174571 0.18161124 -0.09387705 0.05393915 -0.18472677
0.40383437 0.29365176 0.010687728 0.0043335515 -0.0973126 0.21708068 0.005533473 0.1601297
0.36904302 0.29597288 -0.26736978 -0.31971365 0.21851951 -0.25437716 -0.2334485 -0.049882077
0.19747931 0.24081594 0.2762005 0.18911064 -0.20538646 -0.1908004 -0.42609206 -0.20068806
0.17799091 0.027415544 -0.08374375 0.28899175 -0.1911087 -0.20762657 -0.26550993 -0.38907242
-0.16453785 -0.101182915 -0.21548423 -0.008588323 -0.42279217 0.36486837 0.254453 -0.30627006
-0.27628374 -0.16725883 0.415626 -0.36063877 -0.1719978 -0.3035752 -0.35335708 -0.39053354
-0.32091537 0.14583176 0.3167141 0.09916723 -0.10593467 -0.16489828 -0.36095887 -0.23229644
0.3121264 0.24268617 0.3747293 -0.23488538 -0.35271895 0.27842242 0.06746423 0.43324554
0.166217 -0.3879999 0.015530067 -0.3821724 -0.19022456 -0.21822101 -0.2132091 -0.17404816
0.077316284 -0.41900423 0.22332199 0.3234221 0.00782156 0.04134859 0.29950935 0.24419683
0.17435795 0.3218094 -0.051685423 0.013623632 0.00092694606 -0.17648202 -0.21413724 -0.1775555
-0.16018687 -0.224905 0.19215955 0.10766043 -0.41015694 -0.30396587 0.038293153 -0.011086136
0.07246083 0.26288542 -0.0061338544 0.37498367 -0.024991244 0.18099067 0.0614866 -0.31949124
0.39413664 -0.38629252 -0.14918488 -0.17561878 -0.0021428866 0.19968903 0.017319905 -0.34026062
0.37184954 -0.23327056 0.043030497 -0.31984502 -0.31140432 0.17936699 0.28787866 -0.20976119
-0.09758523 -0.2787151 0.02428937 -0.19102514 0.039218266 -0.14060447 0.32498747 0.07358964
-0.22097142 0.10480346 0.2240937 -0.36215568 -0.33721432 0.020551562 0.009762168 0.25282758
00000000: 225a 4c3e f1ce bfbe bf69 693e 02e4 ba3e
00000010: a4d3 ad3e b031 b13c 2103 ab3e 4885 b2be
00000020: 43a5 983e 28d2 62be 74c0 883e a9e4 8abd
00000030: 6148 cebe 7e77 42be fae2 ed3d e0ba b5be
00000040: 045c c5bd 4b85 983e 4a49 bb3e 52f5 73be
00000050: f5c4 473e d2f5 5d3e 7cc4 8cbe a4e4 d43e
00000060: 76aa aa3e 6862 88be 9688 afbe cf57 d23e
00000070: fa50 353e 633f 69be 782e 95be 509e 5c3e
00000080: b378 173e dc51 0d3e e773 93be 41f8 83be
00000090: 343f 99be 9a21 873e 632e 253e 38b0 62bd
000000a0: e4e5 0e3e d366 b63e 19a4 de3e 9e1a 25be
000000b0: 6c7d 973e 96d2 40be 704f 65bd f0d4 db3c
000000c0: 84f7 a0be f7f7 743c bb71 be3e 24b1 85bd
000000d0: c276 97bd e49f 55be 85a2 5ebe 17bb cc3e
000000e0: f6f6 ef3e 71fd d9be 7cd2 83bd 7f5c 5e3e
000000f0: 2062 f2bd aa63 b63e 9d26 6d3e b8d3 a03d
00000100: cc13 723e 3fcf c73d a85b d13d ca62 9abc
00000110: 084c a4be a80b 77bd 8d78 aa3e 8fa6 dc3e
00000120: 5fc0 8dbd 4034 d4be a64a 093e c641 143e
00000130: 4431 d03e 822a a73e 6ee8 b23e 788d f7bd
00000140: 6573 b7be c987 3fbe e9b5 993e 1a26 c93e
00000150: 142c c33e dc8e a23e 2543 283e 20f7 6c3e
00000160: adae c13e f1ea acbe bd7c 9a3e cb43 77bc
00000170: e774 f13e 2da2 0d3e 8085 5c3c f092 d2be
00000180: 66f0 05be c692 fd3d 080b 58be 9813 3f3e
00000190: bb9a 7bbe 0033 083e 00b5 c33c 5266 b9be
000001a0: c2b8 26be 00e9 823e 5fbe dcbe 2988 6cbe
000001b0: 1fcb 3ebe 2d5a 833d 6897 60be 65dc 263e
000001c0: ce80 973e bace 133e 9bb7 513e f0bc d5be
000001d0: 4cf8 393e 9c42 c0bd 4cef 5c3d 0429 3dbe
000001e0: 61c3 ce3e 8659 963e 951b 2f3c 7700 8e3b
000001f0: d44b c7bd 664a 5e3e 2352 b53b 0af9 233e
00000200: 35f3 bc3e c289 973e b1e4 88be 82b1 a3be
00000210: 94c3 5f3e b93d 82be 200d 6fbe 2651 4cbd
00000220: 0438 4a3e 7498 763e 276a 8d3e 38a6 413e
00000230: d450 52be 2e61 43be bd28 dabe 2c81 4dbe
00000240: 4043 363e 9096 e03c d881 abbd baf6 933e
00000250: 00b2 43be 0f9c 54be ebf0 87be 8034 c7be
00000260: 9c7c 28be fd38 cfbd e6a7 5cbe 0ab6 0cbc
00000270: 3778 d8be 07d0 ba3e aa47 823e 6ecf 9cbe
00000280: 1075 8dbe e645 2bbe eecc d43e a5a5 b8be
00000290: 3120 30be 356e 9bbe 38eb b4be 03f4 c7be
000002a0: 054f a4be ec54 153e 5a28 a23e 3018 cb3d
000002b0: 47f4 d8bd 18db 28be 9acf b8be 1edf 6dbe
000002c0: 08cf 9f3e b982 783e 85dc bf3e cb85 70be
000002d0: 9497 b4be 628d 8e3e b02a 8a3d 5cd2 dd3e
000002e0: ca34 2a3e eca7 c6be d271 7e3c 1aac c3be
000002f0: 3aca 42be 5475 5fbe 7c53 5abe ae39 32be
00000300: 0058 9e3d b987 d6be 85ae 643e 9597 a53e
00000310: 0026 003c 245d 293d 4a59 993e bc0e 7a3e
00000320: e48a 323e 34c4 a43e 18b4 53bd a735 5f3c
00000330: 4cfe 723a b4b7 34be cb46 5bbe 1cd1 35be
00000340: 0708 24be 7f4d 66be 79c5 443e 127d dc3d
00000350: 1700 d2be 6aa1 9bbe 48d9 1c3d a0a2 35bc
00000360: 5866 943d eb98 863e 80fe c8bb dcfd bf3e
00000370: 70ba ccbc 9e55 393e 60d9 7b3d 5b94 a3be
00000380: 47cc c93e 22c8 c5be ecc3 18be 69d5 33be
00000390: ac6f 0cbb 487b 4c3e 79e2 8d3c a436 aebe
000003a0: 1063 be3e 7ade 6ebe bf40 303d bac2 a3be
000003b0: 6370 9fbe fbab 373e d564 933e a3cb 56be
000003c0: c4da c7bd bfb3 8ebe 80fa c63c 189c 43be
000003d0: 55a3 203d 9efa 0fbe c264 a63e 2ab6 963d
000003e0: 5546 62be 32a3 d63d d278 653e 786c b9be
000003f0: 5ba7 acbe c05b a83c 80f1 1f3c 9e72 813e

Linear2.weight f4 [3, 256]
-0.052005067 0.023295887 -0.03879616 0.030421257 -0.10031218 -0.015362799 0.011989365 0.016651936
-0.029977446 0.0107344985 -0.07159194 0.018146759 0.05840051 -0.012889512 -0.024443997 -0.037313655
0.055791833 -0.099705696 0.012697538 -0.05638729 -0.030135881 0.00029651332 0.0068280697 -0.09472783
-0.018975366 0.015304081 0.04563783 -0.07341608 -0.021212813 -0.01414267 0.04440999 -0.029718325
-0.041056935 0.01616681 -0.0037380606 0.024293587 0.048856176 -0.015461974 -0.08893518 0.034211777
-0.08373901 -0.001504642 -0.03999306 0.029237173 -0.04183727 0.05411967 0.0384975 -0.05214105
0.005263306 -0.0800562 -0.01194679 -0.0018268824 -0.04275905 -0.054386735 0.028757527 -0.00614103
-0.060569793 -0.037552588 0.05620145 -0.0083374735 0.03580106 -0.048503377 -0.08108944 0.05859776
0.015794486 0.0018628603 0.01187712 -0.05138864 0.036863655 -0.040298156 -0.04909018 -0.070675515
-0.020246949 0.03158354 -0.08673149 -0.050793484 -0.07970289 -0.042699743 -0.062933564 0.060767278
0.024172597 -0.00802943 0.0034098802 -0.03425561 -0.022138275 -0.056935042 -0.06514456 -0.076989785
-0.069974594 -0.022522774 -0.07404626 -0.03369211 -0.09371081 -0.06317436 -0.051167265 -0.04144028
-0.027605131 -0.018007535 -0.054989636 -0.047438264 -0.08299937 0.0015224516 -0.03849352 -0.019311728
-0.090295814 -0.014409002 0.051279724 -0.017171726 -0.07813907 -0.075085126 -0.0084309075 -0.010506557
0.012453306 0.03686122 -0.00021284586 -0.0063038394 -0.073558435 -0.05554771 -0.0031806396 0.060656436
-0.060963243 -0.07495931 -0.0663388 -0.008806859 0.02298493 -0.02793324 -0.06586197 -0.030201152
0.025015198 0.012205742 -0.0835641 -0.041992508 -0.04837987 0.0023170784 -0.010481603 -0.072086774
0.0067087347 -0.041554473 -0.060155846 0.0040819244 -0.042658724 0.038596712 0.052657604 -0.0149303675
-0.099821605 -0.03158319 -0.024110988 -0.0012859344 -0.0047907084 0.06207069 -0.060973227 0.05720658
-0.023561163 -0.0054678577 0.012163207 -0.046347298 0.061642714 -0.062138956 -0.0067852205 0.006960243
-0.044681013 0.055260196 -0.00055409316 -0.025469184 -0.026695905 0.04776019 -0.028011352 -0.09291916
0.0046109743 -0.09054026 0.004540108 -0.023110868 -0.026655681 -0.049221836 0.046783023 -0.03322138
-0.038553298 -0.081419036 -0.082247965 0.059103496 0.059399873 -0.032539364 -0.008005362 -0.0323583
-0.0011911686 -0.055087037 0.024152987 0.05489347 0.0067942888 -0.037798807 -0.058720604 0.00506261
0.013111496 -0.008100942 -0.057875827 -0.015111838 0.028929718 -0.019057395 -0.030546535 -0.068323724
-0.06117931 -0.04272931 0.03419461 0.0105767315 -0.012505028 0.020664342 0.039014243 0.02778437
-0.07797856 0.022843957 0.016491443 0.006721887 -0.037676886 0.01605957 -0.050549887 0.035169765
-0.013012476 -0.06393691 0.041561827 -0.012613426 0.017509926 0.010655006 0.040401313 0.005661523
0.0022752 -0.032414056 3.4297816e-05 0.004007879 -0.04492606 0.004275292 -0.0013768815 0.04012467
-0.056762427 0.058807336 -0.07995577 -0.07532827 0.0068535665 -0.068600535 -0.012050355 0.047146358
-0.009087317 -0.04695258 -0.016403303 -0.060194336 0.018960426 -0.037627056 -0.061716143 -0.05478532
-0.055124983 -0.02363053 0.018966591 0.054462247 -0.0025867447 0.014880694 -0.039673023 0.02650775
00000000: 4403 55bd 04d7 be3c b9e8 1ebd 0036 f93c
00000010: 7970 cdbd 40b4 7bbc 0b6f 443c a469 883c
00000020: 4393 f5bc c0df 2f3c cc9e 92bd 83a8 943c
00000030: 6035 6f3d 882e 53bc c73e c8bc 34d6 18bd
00000040: fa85 643d 8032 ccbd 5609 503c 5cf6 66bd
00000050: 86df f6bc 5875 9b39 00be df3b aa00 c2bd
00000060: 3a72 9bbc f8bd 7a3c bcee 3a3d 2b5b 96bd
00000070: 7ec6 adbc a8b6 67bc 40e7 353d d873 f3bc
00000080: 512b 28bd 4270 843c 40fa 74bb 5803 c73c
00000090: 6a1d 483d 3854 7dbc a623 b6bd a621 0c3d
000000a0: 5c7f abbd 6837 c5ba c3cf 23bd cc82 ef3c
000000b0: 8f5d 2bbd 96ac 5d3d 8eaf 1d3d db91 55bd
000000c0: d077 ac3b 81f4 a3bd 78bc 43bc 0074 efba
000000d0: 1d24 2fbd a0c4 5ebd e894 eb3c b23a c9bb
000000e0: 0818 78bd bed0 19bd 7e33 663d e699 08bc
000000f0: 22a4 123d 7aab 46bd 3812 a6bd 3404 703d
00000100: 7063 813c 382b f43a 4098 423c e57c 52bd
00000110: 58fe 163d ae0f 25bd c912 49bd 53be 90bd
00000120: eedc a5bc be5d 013d 48a0 b1bd d40c 50bd
00000130: 453b a3bd ede5 2ebd 50e3 80bd 1ce7 783d
00000140: 9c05 c63c df8d 03bc 4c78 5f3b 9c4f 0cbd
00000150: 545b b5bc b834 69bd 836a 85bd d2ac 9dbd
00000160: d74e 8fbd ae81 b8bc 91a5 97bd bd00 0abd
00000170: 74eb bfbd 8f61 81bd c494 51bd 48bd 29bd
00000180: 2824 e2bc 8a84 93bc d03c 61bd a04e 42bd
00000190: 93fb a9bd 008d c73a 62ab 1dbd a133 9ebc
000001a0: 03ed b8bd bc13 6cbc b00a 523d b8ab 8cbc
000001b0: 6007 a0bd 3bc6 99bd ca21 0abc b223 2cbc
000001c0: f308 4c3c cafb 163d 602f 5fb9 7090 cebb
000001d0: cea5 96bd ff85 63bd 4772 50bb e272 783d
000001e0: 98b4 79bd 4484 99bd a3dc 87bd a54a 10bc
000001f0: e44a bc3c 40d4 e4bc a4e2 86bd 6868 f7bc
00000200: acec cc3c 98fa 473c a823 abbd 5600 2cbd
00000210: f829 46bd 20da 173b 08bb 2bbc 3ba2 93bd
00000220: f2d4 db3b 0635 2abd fa65 76bd aac1 853b
00000230: eaba 2ebd 9617 1e3d 80af 573d 809e 74bc
00000240: 456f ccbd 605d 01bd 6884 c5bc cc8c a8ba
00000250: 60fb 9cbb d63d 7e3d 10bf 79bd 7251 6a3d
00000260: 5703 c1bc b72b b3bb 3048 473c aad6 3dbd
00000270: 127d 7c3d 6b85 7ebd 8e56 debb c012 e43b
00000280: 7003 37bd 8458 623d 9040 11ba c0a4 d0bc
00000290: 5fb1 dabc 30a0 433d 1078 e5bc 674c bebd
000002a0: a817 973b 2c6d b9bd 30c5 943b 0153 bdbc
000002b0: 045d dabc d69c 49bd 8e9f 3f3d 2413 08bd
000002c0: 10ea 1dbd 06bf a6bd 9f71 a8bd 8216 723d
000002d0: 484d 733d ff47 05bd ec28 03bc 238a 04bd
000002e0: fc20 9cba f2a2 61bd 7cdc c53c fad7 603d
000002f0: a0a2 de3b ecd2 1abd 0485 70bd 40e4 a53b
00000300: 9ad1 563c d0b9 04bc 340f 6dbd a497 77bc
00000310: 04fe ec3c 411e 9cbc ba3c fabc 4fed 8bbd
00000320: 2897 7abd ee04 2fbd a60f 0c3d 074a 2d3c
00000330: e4e1 4cbc 4448 a93c 66cd 1f3d 0c9c e33c
00000340: 39b3 9fbd 4023 bb3c 1019 873c 4643 dc3b
00000350: 1453 1abd 5c8f 833c 660d 4fbd 2c0e 103d
00000360: 4832 55bc 5bf1 82bd bc3c 2a3d 8ba8 4ebc
00000370: fa70 8f3c 5692 2e3c d97b 253d 4c84 b93b
00000380: 861b 153b 9ac4 04bd 00db 0f38 8754 833b
00000390: 6304 38bd c017 8c3b 7a78 b4ba c459 243d
000003a0: b87f 68bd f6df 703d dabf a3bd b545 9abd
000003b0: e293 e03b 707e 8cbd da6e 45bc 8a1c 413d
000003c0: f8e2 14bc 5951 40bd 3860 86bc 568e 76bd
000003d0: e552 9b3c d41e 1abd 11ca 7cbd 9266 60bd
000003e0: bcca 61bd d094 c1bc d35f 9b3c ce13 5f3d
000003f0: 6086 29bb 28ce 733c 2e80 22bd c826 d93c

Linear2.bias f4 [3]
0.019601516 0.053036097 -0.006023465
00000000: 5c93 a03c 613c 593d 7d60 c5bb
