runs/run2/models/model801.pth (torch, 10959 bytes, 4 tensors)

Linear1.weight f4 [256, 5]
000000 4b 8f 20 bf 6d 67 d3 be 55 02 bb be 21 46 d0 3d
       -0.6271865 -0.41289845 -0.36525217 0.10169626
000010 61 6c c2 be c9 e3 cb be 58 a4 1d 3d e8 6c 8d bd
       -0.37973312 -0.39822224 0.03848681 -0.06905538
000020 2b f0 65 be 34 75 75 3e e4 d5 28 3e 18 c9 8b bc
       -0.22454898 0.2397049 0.16487843 -0.017063662
000030 fa 5a 28 be 5f 45 6b be f4 60 cd bd 0f 0a 60 3d
       -0.16440955 -0.22975682 -0.10028258 0.054697093
000040 7e fd d1 be e7 33 28 be 8c 48 e1 be 1b ec ba be
       -0.41013712 -0.16426049 -0.4400066 -0.3650826
000050 8c 24 96 be c4 9f 62 bf fc f7 54 3e 73 ab 05 bf
       -0.29324758 -0.88525033 0.20797724 -0.52214736
000060 5a 03 39 be 2e 88 6e 3e c1 f6 c5 be 7a 1d 95 3e
       -0.18067685 0.23294136 -0.3866482 0.2912405
000070 73 a4 d8 be 39 87 f3 be ac 5d 0f be b9 44 aa be
       -0.42312965 -0.47564104 -0.14000577 -0.33255556
000080 c6 51 2f be cd 0b 07 3d 8b f1 75 be e0 cd 23 bd
       -0.17121038 0.03297024 -0.24017923 -0.03999126
000090 9c 8e 99 3e 84 cf ec bd c4 26 4c be 11 6f 68 be
       0.29991615 -0.11563018 -0.19936663 -0.22698618
0000a0 07 ea 82 be 9e 58 b8 be 88 c1 28 bf 94 3e 48 be
       -0.25569174 -0.3600511 -0.65920305 -0.19555122
0000b0 32 db 8f 3d 0a 4e 6e be 50 62 93 3c 80 73 2e 3e
       0.0702423 -0.23271957 0.017991215 0.17036247
0000c0 92 2d c4 be f7 8e e4 be 34 23 87 bf be 4d 74 3f
       -0.38316017 -0.44640324 -1.0557618 0.95431125
0000d0 c0 db dc bf da d4 15 be 97 b5 af 3f d1 4c 62 be
       -1.7254562 -0.14631978 1.3727292 -0.22099616
0000e0 45 19 21 3e 30 2c bb be 64 a7 b6 be bd 27 8f 3e
       0.15732296 -0.3655715 -0.35674584 0.27960005
0000f0 e4 d2 0b 3e 98 07 c6 be 04 27 dc be e0 84 47 3c
       0.13654667 -0.3867767 -0.42998517 0.012177676
000100 5c 52 81 3e dd 3b 99 3e b7 48 13 bd c6 9d 86 be
       0.25258148 0.29928485 -0.03595802 -0.26292247
000110 85 49 3d 3e 1b 59 94 be ee ab 9b 3f ba 15 3b 3f
       0.18485077 -0.28974232 1.2161844 0.7308003
000120 4e a7 44 3f 1b a0 86 3e 88 a4 a2 be 64 1b 26 3d
       0.76817787 0.26294026 -0.31766152 0.040553465
000130 3a bf b5 be f1 2d d3 be 0e bf a8 3e 5f ee 5f 3e
       -0.35497457 -0.41245988 0.32958263 0.21868275
000140 1c 4b 04 be bc 83 f4 bd 16 4f 8f be 70 c8 b5 bd
       -0.12919277 -0.11939189 -0.27990025 -0.08876121
000150 dc b4 b4 bd 84 c9 b2 3c 23 7e c2 be 73 a6 b3 be
       -0.08823559 0.021824606 -0.3798686 -0.35087928
000160 14 4e c7 be 38 33 42 3e 87 96 ec be 3e 07 3b be
       -0.38926756 0.18964851 -0.46208593 -0.18264481
000170 95 4a ff be 0c fb 1a 3d 8d 48 9a be f4 7f 59 3d
       -0.4986159 0.037837073 -0.30133477 0.05310054
000180 a1 c2 ba be cc a4 40 bd 1d 7f 0e bf 07 c2 84 3e
       -0.36476615 -0.047032163 -0.5566271 0.2592928
000190 87 8f 20 be f3 a8 ce bd a7 3b 55 3e 3d 77 d4 be
       -0.15679751 -0.10090818 0.20823537 -0.41497222
0001a0 d4 40 ee be fc c1 f8 be 69 68 91 be 28 c2 fc 3b
       -0.46533835 -0.48585498 -0.2839997 0.007713575
0001b0 87 ff 25 bf 89 5a 50 3e a8 be d6 be dc ae 56 be
       -0.6484303 0.20347036 -0.41942334 -0.20965141
0001c0 0e a5 97 3e fe 48 b7 bd 82 7a 6b 3e 79 18 83 3d
       0.29618114 -0.08949469 0.22995952 0.06401152
0001d0 7d fe 26 be 1e 0a 0c bf 55 60 93 3c b8 74 b6 be
       -0.16308017 -0.5470294 0.01799027 -0.35635924
0001e0 47 5b ab 3d 1d a6 20 be 03 76 38 bd a5 dd 73 3e
       0.08367019 -0.15688367 -0.04503442 0.2381502
0001f0 31 93 a2 be 85 ed 00 bf d6 60 89 be b6 81 0a bd
       -0.31752923 -0.50362426 -0.26831692 -0.03381511
000200 4f a0 95 3e fe c6 3a 3e c0 b2 86 3c a4 c8 a0 3e
       0.29223868 0.18239972 0.016442657 0.31403077
000210 b7 72 67 be 90 2c a3 3d 70 b9 fd bc cb b0 ee 3d
       -0.22602354 0.07967484 -0.030972213 0.11654814
000220 87 d4 cc bd 8a 3c 89 be 3b 81 f0 be a8 05 0b bf
       -0.10001474 -0.26804 -0.46973595 -0.54305506
000230 1f 39 fe 3d b7 ac 72 be 95 a5 7a bd 89 50 a1 bc
       0.12413239 -0.23698698 -0.061193068 -0.019691722
000240 c7 45 37 be 70 36 d3 3d 10 a9 78 3d 6c 7a c7 bd
       -0.17897712 0.103131175 0.060708106 -0.09740147
000250 80 78 f3 3d 41 a0 6c be 80 ff 98 bc 18 eb 20 bd
       0.11888218 -0.23108007 -0.01867652 -0.039286703
000260 68 2c 6a 3e 1c 51 c5 bd e0 a8 32 3d d4 ad 9b be
       0.22868502 -0.09634611 0.043618083 -0.30406058
000270 d6 8f a4 be dd 36 8f be 2c 35 2e be 2e 74 aa be
       -0.32140988 -0.27971545 -0.17012471 -0.33291763
000280 0f 43 9b bd 78 f8 d3 be 8f b3 8b 3d f0 1b bc 3d
       -0.0758115 -0.41400504 0.068213575 0.09185016
000290 cd 58 cd be 7d 2b 89 3f 52 82 03 3f f4 4e 3a 3f
       -0.40106812 1.0716397 0.5137073 0.7277672
0002a0 24 08 f1 3e f9 6f d5 be ec 2e 89 be b3 ae 51 be
       0.47076523 -0.4168699 -0.2679361 -0.20476799
0002b0 80 fa 98 bb 14 f0 d8 bd 88 19 cf 3e e6 6c 96 3e
       -0.004668534 -0.10592666 0.40449166 0.29379958
0002c0 df 51 03 3f 1f d6 f6 be 9a 5e 2a be 40 3c ad be
       0.512968 -0.48210236 -0.1663765 -0.3383503
0002d0 00 20 9b bd ba b1 84 be e2 c6 a0 3e 54 d9 91 bd
       -0.07574463 -0.25916845 0.31401736 -0.0712153
0002e0 02 67 da be e4 99 dd be fc 5c 07 be e7 6b 0b bf
       -0.42656714 -0.43281472 -0.13219064 -0.5446152
0002f0 43 d4 96 be 36 46 c5 be 99 df 1b be a2 cd e5 3d
       -0.29458818 -0.3853013 -0.15222014 0.11220862
000300 e8 12 d2 be ae 12 04 3e 62 5f 31 bf 58 fb f6 bd
       -0.4103005 0.1289775 -0.6928617 -0.12059659
000310 b2 51 99 be 80 83 9f 3b 64 93 4e 3e 24 8f 89 be
       -0.2994514 0.004867971 0.20173413 -0.2686702
000320 91 42 9d be b2 32 94 3d 2d d4 38 be 7a 6e 3b 3a
       -0.3071485 0.07236232 -0.18049689 0.0007149946
000330 7d 20 01 bd a1 eb 12 be 2f f3 ef be 7d 09 0b bf
       -0.031525124 -0.14347698 -0.46865222 -0.5431135
000340 5b 78 a6 3c be cf df bb 98 f1 b1 bd 9d a5 71 be
       0.020321062 -0.0068301847 -0.086886585 -0.23598333
000350 55 3b 9a be f8 2f e7 be 31 45 26 3e cb 16 77 be
       -0.30123392 -0.45153785 0.16237332 -0.24129789
000360 91 55 87 bd 57 f8 e9 be 48 45 cb 3d 94 00 97 3e
       -0.06608117 -0.4569728 0.09925324 0.2949263
000370 7c bd ca bd 97 fd 16 be 93 31 e9 be 8d ec a7 bc
       -0.098994225 -0.14745174 -0.45545635 -0.020498538
000380 65 eb 6e bd 08 23 43 3d c8 8c bf be f2 b6 bb be
       -0.05832996 0.04764083 -0.37412095 -0.36663014
000390 44 cf a5 be c8 34 a3 3e 69 89 ae be fa 48 98 3e
       -0.32384694 0.31876206 -0.3408921 0.29743177
0003a0 50 0c bf be c1 9a f8 be 94 3d fd 3d 62 8e 8d bc
       -0.3731408 -0.48555568 0.12365261 -0.017279807
0003b0 ce de 11 3c 1a 52 a2 be 06 81 3f bb b4 e0 0e 3e
       0.008903218 -0.31703264 -0.002922119 0.13952905
0003c0 b8 cb 9d 3e d4 1f 12 3e 0c a0 1c 3e da 69 76 be
       0.30819488 0.14269954 0.15295428 -0.24063817
0003d0 02 1f 00 be b7 b1 0b c0 34 6c 8c 3f 83 b4 12 bf
       -0.12511829 -2.1827219 1.0970521 -0.5730669
0003e0 91 6e d7 be 78 e9 3f 3f e7 f5 97 bc 99 a1 87 be
       -0.42076543 0.7496562 -0.018549873 -0.26490477
0003f0 15 79 12 3d 09 1a b5 be df 90 f9 be 1f cc 3c be
       0.035760004 -0.35371426 -0.4874334 -0.18437241

Linear1.bias f4 [256]
000000 01 b0 23 3d f1 ce bf be 53 e2 81 bc 9b 4b 9a 3e
       0.039962772 -0.3746257 -0.01585499 0.30135807
000010 14 12 5e 3d 15 7f 72 bd a5 30 0b 3e 48 85 b2 be
       0.05421646 -0.059203226 0.13592775 -0.3486731
000020 38 05 01 3d 28 d2 62 be de 1b 55 3d b7 6b 41 be
       0.031499118 -0.22150481 0.05202853 -0.18888746
000030 61 48 ce be 1e 9c 8a be 43 2f 36 3f ed 2b e3 be
       -0.40289596 -0.27072233 0.71165866 -0.4436945
000040 04 5c c5 bd 86 87 b9 3d 7f 3c e1 3d 1a dc bc be
       -0.09636691 0.09059052 0.10997867 -0.36886674
000050 ed 28 5d bd 28 bf 52 3d 8e 01 af be f2 de d1 3d
       -0.053994108 0.051451832 -0.34180874 0.102476016
000060 a4 58 c5 bd 64 db 9f be 96 88 af be 22 67 81 3e
       -0.096360475 -0.3122207 -0.34283894 0.25273997
000070 6f c1 1f bd 63 3f 69 be 78 2e 95 be 50 9e 5c 3e
       -0.039002832 -0.22778086 -0.29137015 0.21544766
000080 27 9c 10 be 95 cf 62 3f e7 73 93 be 7f 66 c9 be
       -0.14122067 0.88597995 -0.28799364 -0.3933601
000090 34 3f 99 be 25 67 08 3e 08 72 14 be 38 b0 62 bd
       -0.29931033 0.13320597 -0.14496624 -0.055343837
0000a0 21 82 82 bd 23 c7 9b 3d 20 0a 11 3e e8 6e 63 be
       -0.06372476 0.07606342 0.14164019 -0.22210276
0000b0 e5 e8 93 bd 96 d2 40 be d3 21 29 be 7f 4d 53 be
       -0.072221555 -0.18830332 -0.16516809 -0.20635031
0000c0 84 f7 a0 be 86 a0 4e be e6 13 35 3e 7e e4 7b be
       -0.3143884 -0.20178422 0.17683372 -0.24598882
0000d0 d3 36 3d be e4 9f 55 be 85 a2 5e be 47 68 99 3e
       -0.18477945 -0.20861775 -0.21741684 0.2996237
0000e0 4f 95 51 3e 71 fd d9 be 7c d2 83 bd 23 95 c1 3d
       0.20467113 -0.42576173 -0.06436631 0.09452274
0000f0 72 31 34 be 75 09 43 3d 6d d7 9c bc 82 65 0b be
       -0.17596987 0.04761644 -0.019145692 -0.13612941
000100 bd 18 c3 3c b2 da 32 be 17 84 ec 3c a3 0d 0f be
       0.023815507 -0.17466238 0.02887158 -0.13970046
000110 08 4c a4 be 96 90 42 be c8 7e 3c 3d f5 74 32 3e
       -0.32089257 -0.19000468 0.046019346 0.17427428
000120 16 10 66 be 26 18 f8 be 58 02 da 3b 4a eb e3 bd
       -0.22467074 -0.48455924 0.0066531114 -0.11128862
000130 72 25 16 3e 69 68 47 bc d6 40 25 3e 78 8d f7 bd
       0.14662722 -0.012170889 0.16138014 -0.1208753
000140 65 73 b7 be 2a c2 87 be 85 34 88 3e 5f 76 71 3e
       -0.35830227 -0.26515323 0.2660257 0.23580311
000150 7c 87 32 3e b2 39 e7 3d fa 7a 0b 3f 06 2f 3f 3d
       0.17434496 0.112903014 0.5448452 0.046675704
000160 92 11 34 3e 7a 8c f2 be 6e 29 c7 3d a3 b1 cb bd
       0.17584828 -0.473728 0.09724699 -0.09945991
000170 37 ba 44 3e 8f a7 ea bd 80 85 5c 3c f0 92 d2 be
       0.1921166 -0.114577405 0.013459563 -0.4112773
000180 74 e1 cd be cb 5b 9a be 08 0b 58 be 94 e7 67 be
       -0.4021107 -0.30148157 -0.21097958 -0.22646934
000190 f3 32 b1 be 61 0e 7a 3d fe 59 be 3e fb 75 f4 be
       -0.34609184 0.06104887 0.37178034 -0.47746262
0001a0 9b a5 8b be fc 22 2c bd 5f be dc be 32 dd aa be
       -0.27274784 -0.04202555 -0.43113992 -0.33371884
0001b0 d9 b2 b1 be 60 16 42 be d5 6a b6 be 49 54 3f 3d
       -0.34706762 -0.18953848 -0.3562838 0.04671124
0001c0 e0 5a f3 3d 5f ef 12 3e 31 4a cd bd f0 bc d5 be
       0.118825674 0.14349125 -0.100239165 -0.4174571
0001d0 87 ef e7 bd 33 ae 74 be 27 51 a0 bd 04 29 3d be
       -0.11324983 -0.23894577 -0.078279786 -0.18472677
0001e0 e4 e1 23 be 41 d2 96 bd 80 09 5e be 76 e0 40 3f
       -0.16004139 -0.073643215 -0.21683311 0.753425
0001f0 0f 74 c2 bd fa 64 e6 3c e8 ce f4 bd b8 5f a9 bd
       -0.09494793 0.028124321 -0.11953527 -0.0827021
000200 15 ce 31 3e 7b 66 52 3e 21 f1 e4 be 82 b1 a3 be
       0.1736377 0.20546906 -0.44715217 -0.31971365
000210 77 ab 01 3e 00 e3 98 be 20 0d 6f be 46 67 8c be
       0.12663065 -0.29860687 -0.2334485 -0.2742254
000220 14 3e ce bb d7 2d f5 3d 62 d3 f2 3d cc 19 43 be
       -0.0062940214 0.11971634 0.11856724 -0.1905281
000230 70 97 ad be 2e 61 43 be a0 27 f6 be 87 eb b1 be
       -0.339046 -0.1908004 -0.48077106 -0.34750006
000240 aa fa 29 bd ca af fa bd d8 81 ab bd d8 26 a4 bd
       -0.041498818 -0.1224056 -0.08374375 -0.08015221
000250 6e d5 91 be 0f 9c 54 be bd 85 ea be 80 34 c7 be
       -0.28483146 -0.20762657 -0.4580516 -0.38907242
000260 5f 32 8c be 67 fb 6d be e6 a7 5c be 41 9f 73 be
       -0.2738218 -0.23240434 -0.21548423 -0.2379122
000270 37 78 d8 be 40 e3 b1 3d 34 56 23 3d 6e cf 9c be
       -0.42279217 0.086859226 0.03987713 -0.30627006
000280 10 75 8d be 4c c1 9c be c2 e0 b3 3d a5 a5 b8 be
       -0.27628374 -0.30616224 0.087831035 -0.36063877
000290 80 48 92 be d4 4e 05 bf 5b 11 ec be 3e dd 17 bf
       -0.28570938 -0.5207341 -0.4610699 -0.59321964
0002a0 ab 6b 0f bf 6e 1e 35 3c 49 d6 fa bd 51 bd 62 be
       -0.56023663 0.011054618 -0.12247903 -0.22142531
0002b0 ab 0f a9 be 7e e8 5d be e2 c9 e5 be 1e df 6d be
       -0.33019766 -0.2167072 -0.44880587 -0.23229644
0002c0 b4 b5 f3 bc 69 9e 46 bd 22 cb b2 3d cb 85 70 be
       -0.029749729 -0.048490915 0.08730151 -0.23488538
0002d0 94 97 b4 be 38 3e 8d bd 3a e9 a2 bd 52 3b 82 3d
       -0.35271895 -0.06896633 -0.07954641 0.06358971
0002e0 7e e0 25 3e ec a7 c6 be 3c 13 7d be 5e 09 17 bf
       0.16198918 -0.3879999 -0.24714369 -0.5899867
0002f0 79 93 db be a9 53 a4 be 71 1a 85 be ae 39 32 be
       -0.4288595 -0.32095078 -0.25996736 -0.17404816
000300 97 4b 1c bc a5 6d dc be e8 f1 f7 ba 89 d3 51 3e
       -0.009539506 -0.43052402 -0.0018916698 0.2049085
000310 68 41 2a be 61 76 11 be fd 36 05 3d 33 9c a3 3b
       -0.16626513 -0.14205314 0.032523144 0.0049929856
000320 79 5d 9c bd ea f9 17 3e b7 e8 19 be fa be 1c be
       -0.07635016 0.14841428 -0.1503018 -0.15307227
000330 c1 d8 10 be b8 68 88 be a1 da 91 be c8 da 95 be
       -0.14145185 -0.26642394 -0.28487113 -0.2926848
000340 46 30 68 be c8 1f b4 be c6 aa c3 3d f5 af d0 bd
       -0.22674665 -0.35180497 0.09554057 -0.10189811
000350 17 00 d2 be c0 95 ee be 48 d9 1c 3d a0 a2 35 bc
       -0.41015694 -0.46598625 0.038293153 -0.011086136
000360 1b 61 85 3e a4 f3 e8 3d bb 4a d4 3d 26 13 04 3e
       0.26050648 0.11374596 0.10365816 0.1289793
000370 2c df d1 bd 8d 89 1b be 4c fc 02 bc ba ed df be
       -0.10247645 -0.1518919 -0.007994723 -0.43736058
000380 40 70 44 bd 22 c8 c5 be 55 2b cc be 15 57 76 be
       -0.047958612 -0.38629252 -0.3987681 -0.24056657
000390 aa 99 5b bd 21 f7 cf 3d e6 2a 24 be a4 36 ae be
       -0.053613342 0.10154558 -0.1603199 -0.34026062
0003a0 82 49 bc bc ef e1 d0 be 4a 50 41 bd 22 9a d6 be
       -0.02298427 -0.40797374 -0.04719571 -0.4191447
0003b0 b6 80 e0 be b2 09 1a bd 3a a4 07 3d a3 cb 56 be
       -0.438482 -0.037606902 0.033115603 -0.20976119
0003c0 9d 57 38 be b1 aa bd be fc be 44 bd 98 2a 3f bc
       -0.18002172 -0.3704429 -0.0480337 -0.01166787
0003d0 f7 c2 90 be 9e fa 0f be 11 93 da 3b bb f6 1f bc
       -0.28273746 -0.14060447 0.0066703637 -0.009763415
0003e0 6d 6f 98 be 83 46 8a 3d 47 fa 95 3d 78 6c b9 be
       -0.2977251 0.0675173 0.07323127 -0.36215568
0003f0 5b a7 ac be 17 38 11 bd a8 4d 65 be 46 2d b9 3d
       -0.33721432 -0.035453882 -0.22392905 0.09041838

Linear2.weight f4 [3, 256]
000000 e7 4c 2e bd 04 d7 be 3c f0 6d 50 bd 00 36 f9 3c
       -0.04255381 0.023295887 -0.050886095 0.030421257
000010 46 24 7b bd 3a 67 06 bb 38 80 fe 3c a4 69 88 3c
       -0.06131389 -0.0020508305 0.031066999 0.016651936
000020 42 6f 13 3d c0 df 2f 3c fd 25 6a bf ef f9 99 bd
       0.035994776 0.0107344985 -0.91464216 -0.07518374
000030 60 35 6f 3d 72 60 4f 3b e7 01 35 3f 59 96 08 3d
       0.05840051 0.003164318 0.7070603 0.033346508
000040 fa 85 64 3d 8f 14 8a 3c 35 05 93 3c 5c f6 66 bd
       0.055791833 0.016855506 0.017946819 -0.05638729
000050 0c 98 81 3d 2b 50 91 bc 00 be df 3b fb 74 4a 3d
       0.06327829 -0.017738422 0.0068280697 0.049427968
000060 9b 3a 7a 3b 40 68 50 3c bc ee 3a 3d 1a 84 af bc
       0.0038181904 0.012720168 0.04563783 -0.021425296
000070 b9 9d 97 3c a8 b6 67 bc 40 e7 35 3d d8 73 f3 bc
       0.018507825 -0.01414267 0.04440999 -0.029718325
000080 a3 37 7d 3d fb 69 31 3f 40 fa 74 bb dd 51 91 3d
       0.061820637 0.6930234 -0.0037380606 0.07095692
000090 6a 1d 48 3d 38 54 7d bc fa f2 a1 3d a6 21 0c 3d
       0.048856176 -0.015461974 0.07907672 0.034211777
0000a0 96 52 f2 3b b3 f2 b3 bc 47 81 71 3d d0 cd 40 3d
       0.007395099 -0.021966314 0.05896118 0.047071278
0000b0 5f 62 9a 3d 96 ac 5d 3d 98 89 d2 3d 08 0a 13 bd
       0.07538294 0.05411967 0.1028015 -0.03589824
0000c0 d0 77 ac 3b 95 a5 ca bf 46 15 3e 3d a9 6a 9c be
       0.005263306 -1.5831782 0.046407007 -0.30550125
0000d0 56 a7 ec bd a0 c4 5e bd e8 94 eb 3c 58 ea de be
       -0.11555354 -0.054386735 0.028757527 -0.43538165
0000e0 98 69 21 3c be d0 19 bd 7e 33 66 3d 65 fc db be
       0.009851836 -0.037552588 0.05620145 -0.42966
0000f0 22 a4 12 3d 71 03 7c 3d 28 3b 17 bd 64 cc 1f be
       0.03580106 0.06152672 -0.03692165 -0.15605313
000100 8b 84 49 be c6 1c 37 be 40 98 42 3c b9 09 83 bd
       -0.19679467 -0.1788207 0.01187712 -0.06398339
000110 58 fe 16 3d 11 c7 52 bf 61 4d 5a bc f6 e8 60 3d
       0.036863655 -0.82335 -0.013324113 0.05490967
000120 c2 04 a0 bd 4c c1 1d bd 4a c2 44 bd 31 53 88 3d
       -0.078134075 -0.03851442 -0.04803685 0.066564925
000130 d1 0b 53 be 4c d6 e7 3a 29 14 b9 3d 1c e7 78 3d
       -0.20609976 0.0017687767 0.09037048 0.060767278
000140 9c 05 c6 3c 45 b5 55 bc 91 eb d8 3d 94 e3 76 3d
       0.024172597 -0.013043706 0.10591806 0.06027563
000150 98 6c 0e bd 17 fd 1f 3d 18 0c 0e 3f a7 69 89 3c
       -0.03477153 0.039059725 0.55487204 0.016774012
000160 7d 55 52 be 89 db cc 3d 7a 6a 4a 3d c1 a6 99 bc
       -0.20540424 0.100028105 0.04941795 -0.018756272
000170 2b 7f d8 3c d6 40 36 3d c4 94 51 bd 48 bd 29 bd
       0.026427826 0.044495426 -0.051167265 -0.04144028
000180 28 06 ab 3d c3 06 ac 3d d0 3c 61 bd a4 f3 4a 3d
       0.083507836 0.08399727 -0.054989636 0.04954876
000190 7c 9d 3f 3d 00 8d c7 3a cd 1f f0 bf 90 32 ee bc
       0.04678105 0.0015224516 -1.8759705 -0.029076844
0001a0 bc db 15 bd 72 84 58 bc b0 0a 52 3d b8 ab 8c bc
       -0.03658651 -0.013215171 0.051279724 -0.017171726
0001b0 eb 47 94 3d 26 d4 fd 3c d5 2a a1 bc dc c7 36 be
       0.0724028 0.03098495 -0.019673744 -0.17849678
0001c0 6f 6b 9a bc dd b8 a1 bf 8b ea 84 3d 70 90 ce bb
       -0.018850056 -1.2634541 0.06490048 -0.0063038394
0001d0 46 64 15 3e 46 e2 87 bc c9 7d 25 bd e2 72 78 3d
       0.14589033 -0.016587388 -0.04040316 0.060656436
0001e0 be b4 3b 3e ef 28 74 3d ed 68 e0 bd 3c c3 2e 3f
       0.18330666 0.05960935 -0.10957513 0.68266654
0001f0 fc 98 a2 bf 34 71 00 bd a2 1a ef be 60 01 43 3d
       -1.2702937 -0.03135796 -0.46700007 0.047608733
000200 2b 8b 46 bf 6b f3 19 bc 5a b7 38 3d 56 00 2c bd
       -0.77556103 -0.009396414 0.045096733 -0.041992508
000210 d2 b7 b2 bd 20 da 17 3b 08 bb 2b bc 2a d6 95 3c
       -0.08726467 0.0023170784 -0.010481603 0.018290598
000220 b1 84 8d 3d b6 16 47 3c 82 79 68 be ca 0d 32 3d
       0.069100745 0.012151411 -0.22702602 0.04347018
000230 a5 eb 20 be 96 17 1e 3d 80 af 57 3d 14 00 8c bd
       -0.15714891 0.038596712 0.052657604 -0.068359524
000240 4a 9a 28 bd 46 de 54 bf 68 84 c5 bc 44 f4 a4 3d
       -0.041162767 -0.8315166 -0.024110988 0.080544025
000250 60 fb 9c bb d6 3d 7e 3d 10 bf 79 bd 72 51 6a 3d
       -0.0047907084 0.06207069 -0.060973227 0.05720658
000260 86 02 50 bd bb a5 68 bd 30 48 47 3c d9 8b 35 3e
       -0.050783657 -0.056798678 0.012163207 0.17729129
000270 12 7d 7c 3d 49 97 f7 3c b4 c9 f4 3d c0 12 e4 3b
       0.061642714 0.030223506 0.11952534 0.006960243
000280 70 03 37 bd 84 58 62 3d 98 47 92 3d c0 a4 d0 bc
       -0.044681013 0.055260196 0.07142562 -0.025469184
000290 e1 87 e8 3c 80 e9 d4 3d fa a7 fd bd 7f 02 4c 3d
       0.028385105 0.10396099 -0.123855546 0.049807068
0002a0 a1 2a 6f 3d f7 38 6d 3d 77 25 2c 3d f3 40 78 3d
       0.058390263 0.057915654 0.042027917 0.060608815
0002b0 f3 97 8a 3d d6 9c 49 bd da 1b 15 be 24 13 08 bd
       0.06767263 -0.049221836 -0.14561406 -0.03322138
0002c0 e0 3e 4d 3d 5b 4d d3 3a 93 61 d6 3c 82 16 72 3d
       0.05010879 0.0016121076 0.026169574 0.059103496
0002d0 48 4d 73 3d df ba 08 3e db db 9a 3d 91 68 8e 3c
       0.059399873 0.13352536 0.07561465 0.017383846
0002e0 40 49 7a be f2 a2 61 bd b6 31 e2 3d ed 95 1c be
       -0.24442005 -0.055087037 0.11044638 -0.15291567
0002f0 a0 a2 de 3b ec d2 1a bd 23 eb 2b bc 40 e4 a5 3b
       0.0067942888 -0.037798807 -0.010493073 0.00506261
000300 5c 26 8f bb 09 c9 84 bf 42 54 ac bd ff 2d 1d be
       -0.0043685865 -1.0373851 -0.084145084 -0.15349577
000310 b5 e8 5d be 09 0d 76 be d1 b8 62 3d de ae e4 bd
       -0.21670802 -0.2402841 0.055352036 -0.11166166
000320 43 67 1f be 5c f4 a3 be a6 0f 0c 3d 30 99 40 3d
       -0.15566735 -0.3202237 0.03419461 0.04702109
000330 bc 5d 84 3d 44 80 3f 3e 98 eb 01 bd 00 2d e2 3d
       0.06463191 0.18701273 -0.03171882 0.11043739
000340 6f 91 a7 bd 84 a7 0c 3d cd 31 16 3c f3 f7 64 3e
       -0.08182036 0.034339443 0.009167147 0.2236021
000350 14 53 1a bd 37 ac 3d 3b 66 0d 4f bd 2c 0e 10 3d
       -0.037676886 0.002894176 -0.050549887 0.035169765
000360 29 af 32 c0 12 fa f3 3c 9d 87 26 be 11 9a 81 3d
       -2.791941 0.029782329 -0.1626267 0.06328214
000370 cb 26 8f bb c3 4c ba 3d b4 af 4d be 4b 35 87 3d
       -0.004368638 0.090966724 -0.20086557 0.06601962
000380 09 8b 93 3c 9a c4 04 bd 25 a8 9c 3a 55 31 19 bd
       0.018010633 -0.032414056 0.0011951966 -0.037400562
000390 9a c2 93 bd ac f5 83 3d e7 d4 4e 3e c4 59 24 3d
       -0.07214852 0.064433426 0.20198403 0.04012467
0003a0 58 7d 0e bd eb 59 ed bd e8 f3 25 bc 6c 2b a0 bd
       -0.034787506 -0.11589416 -0.010128953 -0.07820782
0003b0 9f 35 0e 3e ce 90 ce 3d da 1d 69 3d 8a 1c 41 3d
       0.13887642 0.10086213 0.056913234 0.047146358
0003c0 e9 2d 8b 3d e5 5a ca bc c3 86 86 be c7 b6 1c c0
       0.06795866 -0.024701545 -0.2627469 -2.4486558
0003d0 ba 57 e4 3d d4 1e 1a bd 57 3b d6 3c c5 5e 13 be
       0.11149545 -0.037627056 0.026151342 -0.1439162
0003e0 34 c8 35 3c d0 94 c1 bc e2 67 e9 3b ce 13 5f 3d
       0.011095095 -0.02363053 0.0071229795 0.054462247
0003f0 60 86 29 bb 51 31 5a bd 2e 80 22 bd a2 df 10 be
       -0.0025867447 -0.053269688 -0.039673023 -0.14147809

Linear2.bias f4 [3]
000000 c1 17 eb 3e ed c8 f0 3e 5b f3 2f 3f
       0.4591656 0.47028294 0.68730706
